Deep-Belief-Networks-in-PyTorch-main/a.pt (torch, 863115 bytes, 27 tensors)

W f4 [256, 256]
00000000: 4c4c 2cbf 00fa 403f ad57 21bf fdba 853e
00000010: 035f d23d a8a7 febe 4bf5 d43c 88a7 403d
00000020: 50ce d13e 4ea1 cfbe 0e55 9a3e 8860 9fbd
00000030: 04c3 323f b8bc b83d 9484 293e fd52 52bf
00000040: dc15 5f3e 68fc b93e 64eb 31bf 4443 95bf
00000050: 2b9d 3b3e d87e 313e 14e4 263e 8fa4 563f
00000060: 6b08 d7be 269e a6be 9def 2cbe 0a58 9c3d
00000070: ab6d 7fbe 2eda 0c3e e198 d13e 7e42 193f
00000080: 24cf 42be d396 95bd a708 0a3e 924a ac3e
00000090: d3ce 8abe 8255 fdbe 2e26 743e 5148 1fbf
000000a0: 0ac0 5d3f 5159 babe f827 263f 791a 3b3e
000000b0: 0da6 90be 6b0a 31be 306e c1bd d345 3abf
000000c0: 8d77 1d3d 7c0c 0ebf 85da 58bf 53fa c83e
000000d0: a4e3 e83e ee53 c8bd 6cde 60be 2c8d 58bf
000000e0: d4b0 7dbc 0a7e 90bd aeb5 2cbe 828c 97be
000000f0: 81ad 3a3f 888e f7bd 9d8d 9ebe 932e bf3e
00000100: 037d b03e 86cf 3d3d b4c3 5fbd 3c07 8bbe
00000110: 99fe 403f 7135 5dbe 5e14 9fbe 31ce 20bd
00000120: 32bc a03d 6714 90be eb77 453d 4f82 e4be
00000130: c109 1f3e c943 63bd 2fa5 a3bd 53c4 503f
00000140: c1f9 883e f52f a93e 3988 b8bd a2c1 b53e
00000150: 3f7e 1ebf c67d 0b3f a368 81bc bf05 5dbd
00000160: 5f5f f2be 5340 c1bd 4bc1 be3e 4b47 45bf
00000170: feb9 ba3e 4bab d93d d9ef fabd 972d f63d
00000180: 31a6 aebe 4403 e73d 2174 e63d 15b3 36be
00000190: 46fa 95bf 55b9 2e3e fc43 973e e311 bcbe
000001a0: 2a7e 853e 29b8 b9bd bb10 c43e d184 793f
000001b0: b014 4d3f 847e 5e3e a8e7 9fbd 1d38 2fbf
000001c0: 79c9 3f3d 7966 353f 615a b3be 36b9 ee3e
000001d0: b258 b3be 4884 9c3e 8593 d8bd 0846 c8bd
000001e0: 5544 9cbe 7172 6d3e 9278 39bf 7456 91be
000001f0: e906 85bd 3371 a33e b227 6d3d a479 0b3f
00000200: 7015 09bf e629 debd 798a a9bc db0a f93e
00000210: d900 8b3f c892 183f d85a 053f 4664 4abd
00000220: 1e6b e93d 53bb 183e 8818 efbe 29ef 2abf
00000230: c190 5f3e 71f5 243e 780d c83d edfe e0be
00000240: daf1 bf3e 2d70 993e 7977 c93e 0e90 2ebf
00000250: c38c 123e 91c1 51be 8f3d 923d 78d6 b5be
00000260: 15b8 0bbf 2ce3 e93d b553 ba3e b23d aebe
00000270: f8c6 6abf 99d7 4f3f 5f22 0b3f 9e60 febd
00000280: 770e d43d e4ed 823e 482a c93d 3678 d33e
00000290: 7e98 983c 8253 b0be 83ee c7be 37f3 47bd
000002a0: 5174 563d 6edc e3be 0860 273f c819 41bf
000002b0: 881d 93be 7b09 4cbd 3445 9b3e 39e7 68be
000002c0: 2b82 75be 3e01 5abe cb4a 0ebf 664a 25bf
000002d0: ce62 623e 24f6 4d3f 9aa5 febe 7cda 06bf
000002e0: 2390 2bbf a571 abbe 897e 26bf 655f c23e
000002f0: 6612 05be e2dd 17be c970 a4be 57b4 46be
00000300: e4a9 f7be 6f26 06bf 7759 cbbe 27db 8ebe
00000310: 9162 76bf 50f3 ed3b 0f93 85bf 8c60 cb3d
00000320: 7b03 0dbf ac5e 123f fa5d b73e 7327 333f
00000330: c4ce 31bf cf0d 693f ddcd 38be 5f35 7f3e
00000340: f8f4 42bd f015 7a3e 9686 67be 3888 13bd
00000350: 605b a1be 8f7a cfbe 0fd7 bb3e ebea 323f
00000360: 52be ad3b 0ea7 2c3f 916c 29be 075f 14bf
00000370: 491e fbbe bf47 9dbe 97ba 45bf 3880 d7be
00000380: a236 26be ee6b 5c3e 20bc 1ebe 90cc 84be
00000390: 1cde 193e e207 6dbf 68d5 0d3f 0ad5 d1bc
000003a0: 8bc1 36bf 2a9f aebd b09c 99be 841c 3ebe
000003b0: d935 57bf aa1e 33be ef2f eabe 461b 523e
000003c0: a67c e6ba 3418 eebe 7052 ecbe b8b9 d0be
000003d0: 2d1f 01bf 5177 a23e cfd5 4fbd 3aa8 c33e
000003e0: 3f46 f93d 6590 68be 2a39 24bf 14a7 a0be
000003f0: 674c 2fbd 14f8 7e3e f403 563e 0e0f 143f
-0.6730392 0.7538147 -0.6302441 0.26119223 0.10272028 -0.49737287 0.025995871 0.04703477
0.40977716 -0.40552753 0.30143017 -0.07782084 0.6982882 0.0902037 0.16554481 -0.8215788
0.21785682 0.36325383 -0.694998 -1.1661153 0.18321674 0.17333543 0.16297942 0.83844846
-0.4199861 -0.32542533 -0.1688828 0.076339796 -0.24944179 0.13755104 0.4093695 0.59867084
-0.1902433 -0.07304158 0.13479863 0.33650643 -0.2711092 -0.494793 0.2384269 -0.6221972
0.86621153 -0.36396268 0.6490474 0.18271817 -0.28251687 -0.1728913 -0.09444845 -0.72762793
0.03844409 -0.554878 -0.84708434 0.39253482 0.45486176 -0.09781633 -0.21959847 -0.8459041
-0.015484054 -0.0705529 -0.1686618 -0.29599386 0.72920996 -0.120877326 -0.30967417 0.3734022
0.34470376 0.046340488 -0.054629996 -0.27153957 0.75388485 -0.21602418 -0.31070226 -0.03925914
0.078483954 -0.28140566 0.048210066 -0.44630668 0.15531065 -0.055484567 -0.07990491 0.81549567
0.26753047 0.330444 -0.090103574 0.35499293 -0.61911386 0.5448879 -0.015796965 -0.053960558
-0.47338387 -0.09436097 0.37256846 -0.7706191 0.36470026 0.10628375 -0.122527786 0.12020414
-0.3411117 0.1127992 0.112526186 -0.17841752 -1.1717002 0.17062886 0.29544055 -0.36732396
0.26072818 -0.09068329 0.38294014 0.97468287 0.8010969 0.2172795 -0.07807857 -0.68445
0.046823 0.70859486 -0.3502989 0.4662568 -0.35028607 0.30569673 -0.10575012 -0.097789824
-0.30520883 0.23188187 -0.724496 -0.2838627 -0.06495459 0.31922302 0.057899185 0.54482484
-0.53548336 -0.10847835 -0.020695912 0.48641095 1.0859634 0.5959897 0.5209174 -0.049412034
0.11397384 0.14915209 -0.46698403 -0.6677118 0.21832563 0.16109253 0.09768194 -0.43944493
0.37489206 0.29968396 0.39348963 -0.6818856 0.14311509 -0.20483996 0.071406476 -0.3551519
-0.5457776 0.11420283 0.36391988 -0.34031445 -0.9170985 0.8118835 0.5434932 -0.12420772
0.103543214 0.2557212 0.09822518 0.4130265 0.018627401 -0.3443871 -0.39049158 -0.048815932
0.05235702 -0.44504112 0.6538091 -0.75429964 -0.28733468 -0.04981373 0.30326235 -0.22744454
-0.23975436 -0.21289536 -0.55582875 -0.6456665 0.22108003 0.80453706 -0.4973572 -0.5267713
-0.6701681 -0.3348514 -0.6503683 0.37963405 -0.129953 -0.14830735 -0.32117298 -0.19404732
-0.48371804 -0.52402395 -0.39716694 -0.27901575 -0.9624415 0.007261671 -1.0435504 0.09930524
-0.55083436 0.5717571 0.35813886 0.6998207 -0.69456124 0.91036695 -0.1804728 0.24922703
-0.0475969 0.24422431 -0.22609934 -0.03601858 -0.31515026 -0.40523192 0.36687514 0.69889706
0.005302229 0.67442405 -0.16545321 -0.579575 -0.49046543 -0.307188 -0.7723784 -0.4209001
-0.16231778 0.21525547 -0.15501451 -0.2593732 0.15026134 -0.92590153 0.5540376 -0.02561428
-0.71389073 -0.08526452 -0.30002356 -0.18565565 -0.8406654 -0.17492166 -0.45739695 0.20518216
-0.0017584756 -0.4650284 -0.46156645 -0.40766692 -0.50438195 0.31731656 -0.050741013 0.38214284
0.121716015 -0.22711332 -0.64149725 -0.3137747 -0.042797472 0.24899322 0.20899945 0.5783547

hb f4 [1, 256]
00000000: fce9 bcbc a301 d83c bc92 bf3c f020 913d
00000010: 9e7e 233d cecd b33d 6464 0cbd 60cc a83d
00000020: 47ab 90bd 3282 71bb dfdb d43d b2fe ab3d
00000030: f744 b13d 5b14 833d ee73 79bc ea9a 2e3c
00000040: 8874 ef3c 829b 58bb 2af3 c63d cca6 923c
00000050: 01b3 c13d 7565 60bd a0fa c136 033f 963d
00000060: 6649 b43d f63f f5bc d622 a2bd de49 69bc
00000070: aca0 3dbd 89a3 933d 528c fa3c 4488 1cbd
00000080: 12b3 bc3d 986f aa3d 47d4 a83d 339d 80bd
00000090: 88c2 b13c 6b2a 4bbd 8577 203d 1169 47bd
000000a0: 8ee4 47bc f551 453c d2e7 9dbd d7b1 b23d
000000b0: cd48 b33d 535a 74bd a332 c03d 1c47 ac3d
000000c0: 0206 9f3d de39 a03d 4af8 db3d dfc3 9d3d
000000d0: 5d1f dc3d 4c6c 1bbd e0d7 bb3d 24f8 5cbd
000000e0: e2c9 12bc dd45 b83d 135b 6a3d cc6e 143c
000000f0: 947f 27bc 4d76 4a3d 139a 62bd 0efd debc
00000100: 2915 6d3c 80a4 2dbd fb09 913d ff3d bdbc
00000110: 37f6 823d 37ab fabc 2dfb 113d 96c6 62bb
00000120: 2039 8abd f440 32bd 2d27 95bb e067 c23d
00000130: 5044 b83d a3a2 60bb 70a8 ab3d ca9f 69bd
00000140: 05db ac3d ac16 b63d dd98 97bd 22c9 463d
00000150: c82d 87bc ea7b 863d a7f1 d73c 166f 2dbc
00000160: ef83 e13b c902 e43d e2a6 2bbd 4eec 89bc
00000170: 7b36 993d ee85 7a3d 65ca 8b3d 2cf1 20bd
00000180: 4f5d ad3d 3c60 5cbd 6d02 80bd ee88 6ebd
00000190: fe87 32bd d6f8 663b fc1e 7cbd 8969 55bc
000001a0: 46bb aebc 9e6b 8a3d d8e2 313c 4935 123d
000001b0: f318 ba3d bf31 533d c3e8 b53d 9263 343d
000001c0: 220b 94bd 32b7 a03d 245d 45bd 1ceb 7ebd
000001d0: 1cca 8b3d 377f a6bd a2f4 b83d de1e b2bc
000001e0: 98e6 18bd 4c21 c63d 8d7e 3abd b5e4 1ebd
000001f0: 900c d93a dbbc 8fbd fefb d93d 4a31 59bd
00000200: a15a b33d cf8e 0b3d 5832 8e3d 1341 58bd
00000210: 6b16 8fbb 92bd d23d 5905 883d 83be 04ba
00000220: e212 aa3d 9368 37bd 3e60 c23d abc1 5abd
00000230: d6e9 d63d 5416 3cbd 7d8c 5cbb fa5f 453d
00000240: 6144 663d 9fdc 3e3c 6ec5 843d 5491 2e3d
00000250: 8ca7 0c3b 36cb 9d3d 3912 44bc b821 a1bc
00000260: 7b98 023d faa4 af3d 5396 ccbc 2bcd a33d
00000270: b637 d43d 804c a03d 9c1c ce3d 90ff e9bc
00000280: b7c5 b73c c366 413d 9eb4 e5bc fd5a 6d3d
00000290: eeea af3d 94a4 02bd e8d6 b13d 9e47 93bc
000002a0: b219 0a3d 0188 873d 0e32 a43d e0ef a03d
000002b0: b243 a8bb 3847 adbc 44ae 99bd befc 3abc
000002c0: b4ca 96bd 4301 813d 5441 65bd 1e9d 463d
000002d0: a5be 86b9 111c 46bd d036 a73d b232 14bd
000002e0: 32e9 423d 15c2 9bbd a792 b33d 0494 b43d
000002f0: 86ab 2bbb 0f86 07bd e48a b43d 1ec0 0a3d
00000300: db4c 33bd ef97 ca3d 089d b1bd a500 963d
00000310: 9e8b b53d ae1c 9e3b 843b aa3d 1d14 bc3d
00000320: 89a1 a23d 36ed 2fbd 1c40 e03d a00a bebc
00000330: 0f1e b13d 773a aa3d 1037 7f3b f57f 1a3d
00000340: 4e1a c33d 8099 09ba 2e9d 70bd 7990 f6bc
00000350: 2739 803d c697 a23c 43a8 b53d e0d4 d5bb
00000360: ef17 71bd c411 67bd 51e1 a93d 5dd3 953d
00000370: 182f b43d d061 b83d c3ce b73d db6b 36bc
00000380: 407a b33d 4c10 913d 4224 d03d 6bb2 a43c
00000390: 43a1 93bd 91cd 423d dcc0 9ebd 4fc3 bcbb
000003a0: 694f 943d a14e 08bd e3cf 9a3d b80c b63d
000003b0: 1d89 9abd e601 15bb 5a39 903d 7d5c 13bd
000003c0: 88e3 c4bc f886 ec3b c285 833d b521 0abd
000003d0: a7fe e33d 61df 6cbc 992a bc3d 0fff 113b
000003e0: efd6 ae3d 5410 89bd 0d6b bd3d b373 fa3c
000003f0: fb34 e63d 8343 d33b cc35 bc3d b7e3 643d
-0.023060791 0.026367968 0.023385398 0.070863605 0.039915673 0.087794885 -0.034275427 0.082421064
-0.070639186 -0.0036851284 0.103934996 0.08398189 0.08655732 0.06400367 -0.015225394 0.010657052
0.029230371 -0.0033051674 0.097143486 0.0179018 0.094579704 -0.054784257 5.781025e-06 0.07336237
0.08803062 -0.029937726 -0.07916801 -0.014238803 -0.046295807 0.07208926 0.030584488 -0.03821589
0.092138425 0.08322066 0.08243614 -0.06279983 0.021699205 -0.049601 0.039176483 -0.048684184
-0.012200488 0.012043466 -0.07710232 0.087253265 0.0875412 -0.059656452 0.09384658 0.084120005
0.07764818 0.07823537 0.10740717 0.07703375 0.107481696 -0.037945077 0.09172034 -0.053947583
-0.008959265 0.089977 0.05721576 0.009059619 -0.010223288 0.049429227 -0.055322718 -0.027220275
0.014470377 -0.042393208 0.07081982 -0.023100851 0.06394618 -0.03059922 0.03563993 -0.003460323
-0.06749177 -0.043518975 -0.0045517893 0.09492469 0.089974046 -0.0034276627 0.08381736 -0.057037152
0.08440212 0.08891043 -0.07402203 0.04853166 -0.016501322 0.065666035 0.026360346 -0.010585567
0.006882183 0.11133344 -0.0419072 -0.016836312 0.074810944 0.06116288 0.06825713 -0.0392925
0.08465063 -0.053802714 -0.06250463 -0.058236055 -0.043586724 0.0035243533 -0.061552987 -0.01302565
-0.021329533 0.067588076 0.010857306 0.035695348 0.0908679 0.051561113 0.088822864 0.04404027
-0.07228686 0.07847442 -0.04818453 -0.062235937 0.06825659 -0.08129733 0.09031035 -0.021743234
-0.037329286 0.096743196 -0.045530844 -0.03879233 0.001655953 -0.07018443 0.10643767 -0.05302552
0.087575205 0.03407174 0.06943196 -0.052796435 -0.004366686 0.10290064 0.06641645 -0.0005063789
0.08304383 -0.044777464 0.09491013 -0.053407352 0.104938194 -0.04591973 -0.0033653073 0.048187234
0.056217555 0.01164928 0.06482969 0.042619064 0.002146217 0.07704775 -0.011967235 -0.019669399
0.031883698 0.08576389 -0.024974024 0.07998117 0.103621885 0.07827091 0.100640506 -0.028564245
0.022433145 0.04721714 -0.028040227 0.0579481 0.08589731 -0.031895235 0.08683568 -0.017978486
0.03371591 0.066177376 0.0801736 0.078582525 -0.005135023 -0.021152124 -0.07503942 -0.0114127975
-0.07362881 0.06299069 -0.055970505 0.048489682 -0.00025700513 -0.04836661 0.081647515 -0.03618116
0.047585674 -0.076053776 0.08768206 0.08817294 -0.0026194765 -0.033086833 0.08815554 0.033874623
-0.043774467 0.0989226 -0.086725295 0.07324342 0.088645205 0.004825196 0.08312133 0.09183524
0.07940967 -0.04295083 0.10949728 -0.023198426 0.08648311 0.083119325 0.0038942732 0.037719686
0.095265016 -0.00052490085 -0.05874365 -0.030098187 0.06260901 0.019847762 0.08869984 -0.006525621
-0.058860715 -0.056413427 0.08294929 0.07315705 0.08798045 0.09003031 0.089749835 -0.011134113
0.08763552 0.070831865 0.10163166 0.020104608 -0.072084926 0.047559325 -0.07751629 -0.0057605873
0.07241709 -0.03327811 0.075591825 0.08889145 -0.075456835 -0.0022736727 0.07042189 -0.035976876
-0.024034277 0.007218238 0.06421997 -0.03372355 0.111325555 -0.014457555 0.09187812 0.002227727
0.08537089 -0.066925675 0.09248934 0.030572748 0.11240574 0.006447257 0.091899484 0.05588123

vb f4 [1, 256]
00000000: a509 363b e3e9 22bd 65f7 b8bd 25e6 c6bd
00000010: a293 b7bd 963f a5bd fd20 aabd 715a b4bd
00000020: d80b b1bd 0d3c bbbd 6c3f a5bd 5e2e c2bd
00000030: a850 cbbd f5fb 9ebd df07 cfbd d757 c7bd
00000040: 76e0 c0bd 02bf c9bd 4b2d b2bd 7d3d babd
00000050: c8e5 c9bd 1b97 c1bd 3507 b3bd 1255 b0bd
00000060: ad3a a2bd bc29 c3bd c00c bbbd 19c1 b5bd
00000070: 4c10 bbbd 3a2a a2bd 7215 a9bd 449f c7bd
00000080: d7e5 cfbd 8dd1 9ebd 0283 b4bd 2291 a7bd
00000090: 9c70 abbd 565b abbd 981b b4bd 3c5a adbd
000000a0: a9b0 bcbd 7afb c5bd 2777 96bd 3043 a1bd
000000b0: 98eb cebd a3e9 a9bd fb2f 9ebd 7b09 b9bd
000000c0: 1712 a0bd cc7b c4bd 3645 a9bd 3d19 a9bd
000000d0: 08b2 b9bd 5935 abbd b45b aebd 24ba a8bd
000000e0: b859 a1bd 26db a9bd 7faa a6bd 88bb c3bd
000000f0: f6e7 b9bd b15e bfbd 4578 a2bd 3590 adbd
00000100: 5be8 bebd 818f b5bd fbb7 94bd 2d2e a9bd
00000110: 5780 c1bd 6045 a9bd 1648 9fbd e846 d1bd
00000120: 82a2 c4bd 48fe a9bd 3d28 acbd 93f1 c9bd
00000130: 2a5c c0bd 819e b1bd 9892 a1bd e855 b3bd
00000140: 7267 c3bd 2611 a7bd cc27 99bd fd7f a9bd
00000150: ac78 a7bd 8909 a7bd 369a bebd a194 c5bd
00000160: 7226 b3bd edd7 c4bd f3d1 a3bd e878 b6bd
00000170: 85d8 c6bd ae92 b3bd 2063 aabd fea7 c4bd
00000180: 88fd bdbd 452b a9bd b3a7 c0bd b611 b5bd
00000190: 8094 cabd 7a4b a7bd 04ae cdbd 626b bebd
000001a0: 81df b3bd e86f a8bd 1510 a9bd 6d77 b2bd
000001b0: 443b dabd 14a9 a5bd c4e9 98bd 27d5 b1bd
000001c0: 85d4 c0bd be92 b4bd 0da9 acbd 4026 b5bd
000001d0: 2429 a3bd 7538 aabd 1cd4 a8bd 8f70 a9bd
000001e0: 1fbd adbd eb41 acbd fadc aebd 33a2 acbd
000001f0: a524 9bbd d9e0 bcbd fe1a bcbd 6b8b abbd
00000200: 8eaa a3bd 0f6f aebd 387f b7bd 776c b3bd
00000210: 88a5 b1bd e5cb a5bd d591 97bd e54e bcbd
00000220: 7c11 9dbd df8f c9bd c33b bcbd e2cb b6bd
00000230: 5730 c2bd 7ced b1bd 0424 bebd ca04 b3bd
00000240: 583c b5bd ede6 c1bd d597 b5bd aa90 c2bd
00000250: d056 b7bd 1fed c9bd f4fd 9cbd 9471 a3bd
00000260: 2a41 b2bd c6ff bbbd fb8c c0bd cd03 b1bd
00000270: 173a bbbd 97ca bcbd 212e b5bd d3d9 b5bd
00000280: c9b9 9fbd cff5 ccbd 910f bcbd 5ee8 c4bd
00000290: 0368 9fbd 73b7 b4bd 7cc9 b3bd de2a abbd
000002a0: 51dc 99bd a550 a4bd c1dc aebd eb9c a3bd
000002b0: 8e86 a3bd 1682 b5bd eebf bfbd 9e01 acbd
000002c0: 81b3 b1bd 8757 c1bd ff4c b7bd 662a cdbd
000002d0: 9de7 b0bd 11eb c2bd f87e a4bd c848 b3bd
000002e0: acd0 afbd b9ec c3bd b99d b8bd 7a63 b9bd
000002f0: 132a a9bd 7ca0 b4bd fb1b 9ebd c458 b4bd
00000300: 58bc b9bd 8b64 b6bd b2ff 9cbd c7d0 bcbd
00000310: 3633 b0bd e418 c5bd 7ced acbd 22d6 c7bd
00000320: c85d aebd 5381 babd 3542 adbd b8f5 b2bd
00000330: 1c9e c8bd e316 bdbd 9916 bbbd 3bc3 b1bd
00000340: 303a b2bd c713 adbd 1863 c7bd b676 a8bd
00000350: 09b2 b4bd ff37 c9bd bf83 b2bd f69c aabd
00000360: 7a55 abbd a696 b5bd 79d1 a4bd f79e a6bd
00000370: 2812 afbd f8a2 c5bd 80d0 c1bd 64ec aabd
00000380: abca a4bd e0da aabd 4a5b babd efa7 b5bd
00000390: dd22 a6bd 2e18 b2bd 6475 9fbd 40e8 aabd
000003a0: 02ca abbd 5220 90bd 3583 dbbd e2cc b4bd
000003b0: fb2a c5bd 1fb4 c9bd 66d7 aebd ddd7 b5bd
000003c0: 37d5 b3bd 4297 b3bd 44b3 a1bd a62e b1bd
000003d0: 2386 98bd 018d c3bd 8e34 afbd 636f b8bd
000003e0: 83c8 aabd 5b45 b2bd 32a5 9ebd 8617 a7bd
000003f0: 50f9 acbd 4cab a6bd 929e a4bd 9b1a cdbd
0.0027776745 -0.039773833 -0.09031562 -0.09711865 -0.089637056 -0.08068769 -0.08307073 -0.08806313
-0.08644837 -0.09142313 -0.080687374 -0.094815 -0.09927493 -0.07762901 -0.10108923 -0.09733551
-0.094178125 -0.09850885 -0.08700045 -0.09093759 -0.098582804 -0.09452649 -0.08741609 -0.08609976
-0.07921348 -0.095294446 -0.09133291 -0.08874721 -0.09133968 -0.0791821 -0.082560435 -0.097471744
-0.1015126 -0.077548124 -0.0881405 -0.08181979 -0.08371088 -0.0836703 -0.087943256 -0.084644765
-0.09213383 -0.09667106 -0.07346945 -0.07874143 -0.1010353 -0.08296516 -0.07723995 -0.090350114
-0.0781595 -0.09593925 -0.08265154 -0.08256767 -0.0906716 -0.08359785 -0.08513585 -0.082386285
-0.078784406 -0.08293752 -0.08137988 -0.09557253 -0.09077446 -0.09344233 -0.07933096 -0.08474771
-0.09321662 -0.08865262 -0.07261654 -0.082607605 -0.09448307 -0.08265185 -0.07777421 -0.102186024
-0.096013084 -0.083004534 -0.08406112 -0.0986053 -0.09392579 -0.0867281 -0.07889289 -0.0875662
-0.09541215 -0.08157568 -0.07478294 -0.08276365 -0.08177313 -0.081561156 -0.09306757 -0.09647489
-0.08747567 -0.09611497 -0.07999029 -0.0890978 -0.097092666 -0.08768211 -0.08319688 -0.096023545
-0.09276873 -0.08260206 -0.09406986 -0.08841269 -0.098916054 -0.08168693 -0.100429565 -0.092978254
-0.08782864 -0.082244694 -0.082550205 -0.08714185 -0.10655835 -0.0808889 -0.07466462 -0.08683234
-0.09415535 -0.08817051 -0.084306814 -0.08845186 -0.07966831 -0.083115496 -0.08243582 -0.08273422
-0.084833376 -0.0841101 -0.08538242 -0.084293745 -0.07575349 -0.09222574 -0.09184836 -0.08376201
-0.07991515 -0.085172765 -0.08959812 -0.087609224 -0.08674151 -0.080955304 -0.07400862 -0.091947354
-0.076693505 -0.09841894 -0.09191086 -0.08925606 -0.09481876 -0.08687875 -0.09284213 -0.08741148
-0.088494 -0.09467874 -0.0886685 -0.09500249 -0.08952105 -0.098596804 -0.07665625 -0.07980648
-0.08703835 -0.09179644 -0.0940189 -0.08643303 -0.09141939 -0.092183284 -0.08846689 -0.08879437
-0.077991076 -0.10007822 -0.091826566 -0.09614633 -0.077835105 -0.08824053 -0.087786645 -0.08357786
-0.07512725 -0.08023194 -0.08538199 -0.07988914 -0.07984649 -0.088627025 -0.093627796 -0.08398746
-0.08676816 -0.09440523 -0.08950233 -0.100178525 -0.08637927 -0.095174916 -0.0803203 -0.08754116
-0.08584723 -0.09566636 -0.09014458 -0.09052177 -0.08259978 -0.088196725 -0.077201806 -0.08805993
-0.09069127 -0.08905896 -0.076659575 -0.092195086 -0.08603518 -0.09623888 -0.08443734 -0.097576395
-0.08513981 -0.09106698 -0.084598936 -0.087382734 -0.09795782 -0.09232881 -0.091351695 -0.086798154
-0.08702505 -0.08451038 -0.097356975 -0.08225767 -0.0882302 -0.098251335 -0.08716535 -0.08330719
-0.08365913 -0.088666245 -0.08047766 -0.08135789 -0.08548385 -0.096502244 -0.09463596 -0.08345869
-0.08046468 -0.08342528 -0.09099443 -0.088699214 -0.081121184 -0.08696018 -0.07786062 -0.083450794
-0.08388139 -0.070374146 -0.10718385 -0.08828141 -0.096273385 -0.098488085 -0.08537178 -0.08879063
-0.08780902 -0.087690845 -0.0789552 -0.086514756 -0.074474595 -0.09548379 -0.08554946 -0.0900562
-0.08339026 -0.08704635 -0.07746352 -0.081587836 -0.0844599 -0.08138141 -0.080380574 -0.1001484

W f4 [256, 256]
00000000: cf9f d83d afa9 273f 8bf4 b1bd 4c97 ce3e
00000010: f63d 8a3b c6dc b13e da06 443f feb5 703e
00000020: e54f 1fbf 02ea 65bf a839 95be 2068 bbbe
00000030: 3551 be3c 6c73 90bd 655b 783e 7cf4 d4be
00000040: c2a8 9e3d f331 dd3e ca8d d5bc 9148 ce3c
00000050: 4515 443e 4f38 0c3f 2e58 b9be 96c1 81be
00000060: eb53 fcbe a78a b13e 07d3 0a3f eff2 d0be
00000070: 7033 463f 5174 ea3e 9941 1bbf 23b3 d23d
00000080: 184d 0dbe ce58 4fbc c39f 773e 5787 ff3d
00000090: ead5 833f 45db c5be 899c 423f 9eeb dfbe
000000a0: effd 893e a082 1fbd 55d7 6fbe 1afc 21be
000000b0: 09cd 833e 26ef a63e b403 ee3d 6d5c c7be
000000c0: f41e 673e f8ae c93e 2e07 39bd 4b80 af3e
000000d0: 72b6 0f3f 3e15 3dbf 399a 963d db24 c6be
000000e0: aae6 ddbd ea51 fa3b c6d0 9abd a7b8 aabc
000000f0: e64f eb3e 8cde 00bf f76e ed3d 58f1 163f
00000100: 427c 26be 96d5 da3c 4bf3 6bbf 58f7 593f
00000110: 5973 ab3d b0f2 bf3d 2ebd 843e 8ea6 d1bd
00000120: ea3f ecbd 69db 3abf dfcd 373e 3ec7 82be
00000130: 0306 8f3f 51c1 3a3f 0436 69be 80f7 07be
00000140: 0398 dbbe 9e5e b73e fa0d d83e 9727 babe
00000150: ea55 20bf b9fc 3dbe de14 2c3e 25cc 3cbf
00000160: b808 04bd 8bcd a83c 28b3 c03e 4690 7fbe
00000170: 072f be3d 2447 fdbd f5ab 3cbf edd3 64be
00000180: a8bd cc3e 29c2 55be faa8 6a3e 0563 9fbd
00000190: 32d6 663e f7ff 673f f6e6 1bbd b651 80bd
000001a0: ce0f aabc d42f 753e 87b5 5b3d 6ef0 2b3e
000001b0: 6c2c 183d 9368 c73d cb8d b63e 4a62 f9ba
000001c0: 1c6f cfbe b6fa 243e 2c7a f53e 4464 32be
000001d0: a8fb 12bf cc68 123e 4aea 7d3e babd 923e
000001e0: 6f98 87be 9e81 3c3f 0258 cabe beb3 9d3d
000001f0: 29ed 80be f12b 40bb 04e2 afbe 3efb fdbe
00000200: 4d64 5c3f 53ad d2be 021f 54bf a7e7 f8be
00000210: 9350 9d3e b130 08bf f1f6 81be e65d 03bf
00000220: d393 7cbf aed0 3cbe 0cbd 023f 89b4 20be
00000230: f042 64bf d2f8 ce3e 1119 423f 24df 44be
00000240: ce36 dc3a 63d7 94be 9806 82bf 8a9f ff3d
00000250: 3236 813e b708 403e 9ddb 863f 512d 41be
00000260: 1dd9 203e f872 2e3f facd 56bf c932 5ebd
00000270: ba8b 0b3c cd8c 2a3e 1bdc 953e cae4 8bbc
00000280: 370e 43be e97e 253d b7df 05bf d89a 873d
00000290: 3bbd 723e 7c7f d3be 883f a3bd 5293 b8be
000002a0: 81f9 f8be 1f3a 903e 6167 193f 99c1 913d
000002b0: 3e79 27be e5ac 18bf e481 2abd 7c40 003f
000002c0: 1432 883e b03c a63d 0bb0 4e3f 8bf7 c0bd
000002d0: 1867 bebe 9ae2 2abf 0eee 053f 4f4d 22bb
000002e0: 9d77 d8be 1cb3 2e3d 22aa 7a3e db11 cabd
000002f0: 5582 773f 7566 0cbf fa41 a33d fda3 59bd
00000300: fd7b 813e 029d da3e bf01 843e 4b7c 02bf
00000310: 384f 62bf f4df 42bf dfa0 dfbd 7976 bfbd
00000320: 2610 b3bd 1398 863e ad2b d03e ceb8 c5be
00000330: 0a05 8c3d 6cf0 4dbe 81cb d7be 992e 7c3e
00000340: b836 183e ca6d c83e 6041 4c3f 3819 133f
00000350: 5dee bdbe d684 0ebe 6a15 113f 9078 b6be
00000360: 4937 9c3e 4e6b a3bd 8f1b 5bbe df84 193f
00000370: 3a7b f5be 9a17 a33e b630 51bd af77 6fbd
00000380: bd73 7cbf 2f73 873d 5826 5ebf 2a08 e33c
00000390: 8b52 f2be 3ded 4b3d e19b b03e ff8b 343e
000003a0: 9071 6fbe efdf 00be 8f07 2bbf 196c 9e3e
000003b0: 50e2 bbbe 5028 613e 772c 91be 5d34 d8be
000003c0: cbee f53d 8df2 e83e aaa6 dfbd 9dc9 af3e
000003d0: 0905 a2bf 5984 6abe 833a a63e 4c92 debc
000003e0: 7b59 483f 8410 293e f854 693e 6439 9ebe
000003f0: cc64 c43d dcc7 ee3e 9d26 14bf af0e c0be
0.10577356 0.6549329 -0.08689221 0.40349805 0.004218812 0.3473875 0.76572955 0.23506925
-0.62231284 -0.8981019 -0.2914555 -0.3660288 0.023232082 -0.07053265 0.24253614 -0.41592777
0.07747032 0.4320217 -0.026068587 0.025181087 0.19148739 0.5477342 -0.36200088 -0.25343007
-0.49282774 0.34676096 0.5422825 -0.40810344 0.7742224 0.45791867 -0.6064697 0.10288074
-0.1379894 -0.01265545 0.24182038 0.12476986 1.0299656 -0.38643852 0.76020104 -0.4373445
0.26951548 -0.038942933 -0.23421986 -0.15818825 0.25742367 0.3260433 0.116218 -0.38937703
0.22570401 0.39391303 -0.045172863 0.34277567 0.56137764 -0.7386054 0.073536344 -0.38699993
-0.10835011 0.0076391594 -0.075593516 -0.020840002 0.45959395 -0.5033958 0.115934305 0.5896201
-0.16258338 0.026713174 -0.9216811 0.8514304 0.0837161 0.09372461 0.25925583 -0.10236846
-0.11535628 -0.72991043 0.17949627 -0.25542635 1.117371 0.7295123 -0.22774512 -0.13278008
-0.42889413 0.35814375 0.42198163 -0.3635833 -0.62631094 -0.18553437 0.16804835 -0.73749
-0.032234877 0.020605823 0.37636685 -0.2495738 0.092863135 -0.123670846 -0.73699886 -0.22346468
0.39988446 -0.20874847 0.22916022 -0.07782558 0.22542647 0.90624946 -0.03806206 -0.06265585
-0.02075949 0.23944026 0.053639915 0.16790935 0.03715174 0.09736743 0.35655054 -0.0019026485
-0.40514457 0.16111264 0.47944772 -0.17421061 -0.57415247 0.1429779 0.24796405 0.28660375
-0.26483485 0.7363528 -0.3952027 0.07700299 -0.2518094 -0.0029323066 -0.34352124 -0.49605745
0.86090547 -0.4114786 -0.82859814 -0.48614237 0.30725536 -0.531993 -0.25383714 -0.5131515
-0.9866306 -0.1843898 0.5106971 -0.15693869 -0.8916464 0.4042421 0.758195 -0.19225746
0.0016801001 -0.29070577 -1.0158262 0.124816015 0.2523666 0.18753324 1.0535771 -0.18864943
0.15707822 0.6814418 -0.83908045 -0.05424765 0.0085172 0.16655274 0.2926949 -0.017076869
-0.19048391 0.040404234 -0.52294487 0.06621331 0.23704998 -0.413082 -0.07971102 -0.36049896
-0.48627856 0.28169343 0.5992337 0.07117004 -0.16354844 -0.59638816 -0.04162778 0.50098395
0.26600707 0.08117044 0.8073737 -0.09422215 -0.3718803 -0.66752017 0.5231637 -0.0024765318
-0.42278758 0.04265128 0.24478963 -0.09866687 0.96683246 -0.5484384 0.079715684 -0.053134907
0.25289908 0.42697912 0.25782582 -0.50970906 -0.8840213 -0.76122975 -0.109193556 -0.09348769
-0.087433144 0.26287898 0.40658322 -0.38617557 0.068368986 -0.20111245 -0.4214745 0.2462715
0.14864624 0.39146262 0.79787254 0.57460356 -0.3709592 -0.1391786 0.566733 -0.35638857
0.3051093 -0.07979451 -0.21397232 0.5996837 -0.47945577 0.31853944 -0.051071845 -0.05846375
-0.986141 0.066137664 -0.8677726 0.027713854 -0.473286 0.049786795 0.34493926 0.1763153
-0.23383164 -0.12585424 -0.6680841 0.30941847 -0.366961 0.21988034 -0.28354236 -0.4222745
0.12008437 0.45497552 -0.109204605 0.34333506 -1.2657787 -0.22902049 0.32466516 -0.02716937
0.78261536 0.16510206 0.2278632 -0.3090316 0.09589538 0.46636856 -0.5787142 -0.37511203

hb f4 [1, 256]
00000000: 8b81 9cbc 263b d4bc 1610 33bc 18b3 e23c
00000010: 86d5 b3bb 8407 3e3c ebd1 733d bd19 1d3d
00000020: e5bc 253d 0e7d c4bc b28c 1fbd 2fc7 19bd
00000030: 2d6f 20bc 995a 94bb be93 b6bc 1539 9fbc
00000040: 9144 e83c f393 04bc 9cb3 0bbd af42 1dbd
00000050: 9707 f4bc 122d f1bb b636 f9bc 835d 08bc
00000060: 5561 0bbc 5db4 eabc 502c 483d fc27 75bc
00000070: e1d0 59bc fceb 5cbd 4cd0 2ebc ff8d a13d
00000080: 6978 853d 1d57 0a3d 518e 36bd 4162 aa3c
00000090: 9fa0 a23d 9fd0 efbc 1731 c93c 7c77 01bd
000000a0: 0378 993c 4985 d7bb e567 183d d6d1 cf3c
000000b0: 8091 ce3b 759b c93c c72f 773d 053d 13bd
000000c0: cf3f 2c3d 8571 8a3d 35e5 97bc e44e d63c
000000d0: 1a17 33bc 98fc c0bc 2725 45bd bd50 ccbc
000000e0: cb86 5cbd b63e e73b ea7d babc 41ac 08bd
000000f0: 8ce2 8ebb 8fe0 963c b7e3 ad3b 3ce3 cfbc
00000100: bab5 80bd 7484 ee3b 86af 2c3c f9a3 d13c
00000110: e71e 3dbd 3dbc a0bc 8ea2 cd3c e545 ffba
00000120: 24a0 4ebd c383 533c b98c 293d 3050 9cbc
00000130: 9663 65bd 968f 2d3d 4576 ffbb dce6 a0bc
00000140: 34d5 773b 6ddb 733d d1ee 563d 52f5 40bd
00000150: e955 bfbc 06b0 663d 15db 37bd cc9f 0e3d
00000160: 6e54 11bd a2d3 3e3a 75d6 1c3d 2386 043d
00000170: a32d 84bc 7f33 08bd 79b0 273d 9daf a53d
00000180: 19ca cabc 35bf 543b e6e9 943d efa9 713c
00000190: 377e d5bc 423d 9239 9d38 5b3c 5d5e 52bd
000001a0: fa81 493a e12d 2c3b f4d6 70bd 8514 a4bc
000001b0: 4d10 05bd 8b60 57bd 6471 fe3c 28f4 ddbc
000001c0: 096e 38bd f383 813c 5da7 7dbc cec1 fc3c
000001d0: 8ab7 623d 3b87 e4bc 5f41 25bd e747 5cbd
000001e0: b63f 62bd 59ee acbd 839a cabc 2803 023a
000001f0: 3b8e 43bd a0ef 60bd 26d9 26bd 4c23 04bd
00000200: 4b1f ac3b 2c20 e7bc fffa c6bc 4f15 25bd
00000210: 9a4a 873d 5a4d 613d c691 043d 57df 9dbb
00000220: ba48 51bb 130c 533d a1e7 013d 6ff5 48bd
00000230: 4fb8 493d 4b1a 513d 18bd dabc a641 84bc
00000240: 5f50 39bd 8cb7 423d 828c f2bc 81ad 833c
00000250: 80cb 1bbd b209 233a 7187 e3bc 81f9 503d
00000260: 2707 26bd 69e6 92bc 4e05 0f3d 6d8b 4e3d
00000270: e5c4 e1bc fc8b 803c 7171 b2bc 5834 bcbc
00000280: 810c 12bd 624c 8d3d 039c 8bbc 91d2 d8bc
00000290: b6e3 5dbd 2ec2 a6bc 4424 f0bc e78c 7abd
000002a0: b2da fa3c e689 b33d 028f 0abd 5e5b d0bc
000002b0: 6a58 cfbb 54ac bf3c c97e 7d3d 29f5 703b
000002c0: 4a81 9a3c 76a9 143c 2407 8a3c 79f3 e4bc
000002d0: f352 35bd 5d8b 923c 21d4 9e3c 3ecb 123d
000002e0: 76cb 053c d9b4 583d 6b8d 96bc 0cc7 703d
000002f0: a1ee c13c 0c48 76bb 5110 e3bc c3f3 8ebc
00000300: a0da 33bd f31b 803c c403 43bd 901b e53c
00000310: 6e07 91bc 1c1c 22bd 3a13 afbc ff24 603d
00000320: f725 29bd 9368 e9bc 55df 8abb c2a4 003d
00000330: a778 603c d6dd 36bc d081 0e3d 807e 133d
00000340: 033b 563c edf2 e93c e969 66bd 5971 d33c
00000350: 8afe 1dbd b92e c33c 3d7e 4e3c b4b4 f1bc
00000360: 94e3 bc3c fb46 adbc ad4a 493d cd54 763c
00000370: 6bfa 47bb 3664 3fbd 6677 fd3c b553 22bd
00000380: dad3 aa3c 4d8c 9f3c 15e0 383d 0b86 c8bc
00000390: d64f a43b fd6d a1bc 893b 193d 8577 623b
000003a0: edd4 6a3d c089 3b3c 506d 51bc f248 413d
000003b0: 0d76 80bd 3f07 2abd a3a3 63bd c44d 54bc
000003c0: 846b 42bd c0d2 20bd 5ccc 87bc 3585 20bd
000003d0: df33 443d aff8 483c fa0a a13c 6b26 3cbd
000003e0: 09af 3cbd 778e 00bd d928 693d db2c 703c
000003f0: 23ce 483c 6bc3 f93c 87ad bdba 52f9 743d
-0.01910474 -0.02590711 -0.010929128 0.02767329 -0.0054881005 0.011598472 0.059526365 0.038354624
0.040463347 -0.023985412 -0.038952537 -0.037543472 -0.009792131 -0.0045274016 -0.022287246 -0.019436399
0.028353008 -0.0080919145 -0.034106836 -0.038393673 -0.029788775 -0.007360109 -0.030421596 -0.008323076
-0.0085070925 -0.028650457 0.048870385 -0.014963146 -0.0132944295 -0.05393599 -0.010669779 0.07888412
0.06517107 0.033774484 -0.044569317 0.020798804 0.07940792 -0.029274283 0.02455954 -0.03160809
0.018733984 -0.006577168 0.037208457 0.025368612 0.006303966 0.02461026 0.0603483 -0.035946865
0.04205304 0.067599334 -0.018541912 0.026160665 -0.010930801 -0.023557946 -0.048131134 -0.024940843
-0.053839486 0.0070570363 -0.022765119 -0.0333674 -0.0043605026 0.018417625 0.0053066867 -0.025376908
-0.062846616 0.0072789732 0.010539895 0.025590884 -0.04617205 -0.019621009 0.025101926 -0.0019475786
-0.05044569 0.012909832 0.04139397 -0.019081205 -0.056003176 0.042373262 -0.0077960812 -0.019641332
0.0037816288 0.059535433 0.052473847 -0.047108956 -0.023356395 0.056320213 -0.044886667 0.034820363
-0.03548091 0.00072794606 0.03829046 0.032354485 -0.016135043 -0.033252236 0.04093978 0.08090136
-0.02475457 0.00324626 0.07271175 0.014749988 -0.02606116 0.0002789293 0.013380197 -0.051359523
0.00076869095 0.0026272463 -0.058798745 -0.020029316 -0.03248625 -0.052582305 0.031059928 -0.027093962
-0.045026813 0.015809989 -0.015481797 0.030854132 0.055350818 -0.027896514 -0.040345546 -0.05377951
-0.05523654 -0.08443899 -0.02473188 0.0004959577 -0.047743063 -0.054916024 -0.040734433 -0.032260224
0.005252754 -0.028213583 -0.024289606 -0.040303525 0.06606026 0.05500541 0.032365583 -0.004817884
-0.0031934218 0.051525187 0.03171504 -0.04906219 0.049248036 0.051050466 -0.026701495 -0.016144585
-0.045242663 0.047538325 -0.029608015 0.016073944 -0.03803587 0.0006219401 -0.027774544 0.051019195
-0.040534165 -0.017932134 0.03491717 0.050425936 -0.027559707 0.01569175 -0.021782609 -0.022974178
-0.035656456 0.068993345 -0.017042166 -0.026467593 -0.05417224 -0.020356264 -0.029314168 -0.06116953
0.03062186 0.087665364 -0.03382779 -0.025434192 -0.0063276784 0.023397602 0.06188849 0.003676722
0.018860478 0.009073606 0.016849108 -0.027948128 -0.04426856 0.01788872 0.01938826 0.035838358
0.008166185 0.052906845 -0.01837798 0.058783576 0.023673357 -0.0037579564 -0.027717741 -0.017450219
-0.04390967 0.015638327 -0.047611013 0.027967244 -0.017703738 -0.03957759 -0.021371473 0.054722782
-0.04129597 -0.028492248 -0.004238049 0.031407125 0.013700641 -0.011161288 0.034791768 0.03600931
0.013075593 0.028558219 -0.056253348 0.025810884 -0.038572825 0.02382599 0.01260334 -0.029505111
0.023057736 -0.02115201 0.049143482 0.0150348665 -0.003051425 -0.046726428 0.030940723 -0.03963061
0.020852972 0.01947608 0.045135576 -0.02447798 0.0050144 -0.019705767 0.037410293 0.0034556102
0.057331968 0.011446416 -0.01278241 0.047188707 -0.062725164 -0.041510817 -0.055575978 -0.012957994
-0.047465816 -0.039263487 -0.016576938 -0.039189536 0.04790103 0.012266322 0.019658554 -0.045935076
-0.046065364 -0.031385865 0.05692372 0.014659132 0.012256178 0.03048869 -0.0014471271 0.059808083

vb f4 [1, 256]
00000000: a2a1 32bd 2e08 e63c 1927 79bd 9dac 263c
00000010: e065 233d 8326 91bd 4bfc 193d 234a dd3c
00000020: 4fbb 8fbc 10a3 ef3c 5a9c 9a3c 18e2 013d
00000030: f58a 66bd 7a99 84bb 9de8 223d f28f 1b3d
00000040: 3dfc 1bbd 6d3e a2bc 45c2 f03c 8dc6 c23c
00000050: 4924 1abc c2c2 7a3c 04d3 ea3c 875c 6bbd
00000060: c1b1 c4ba b411 06bd 1dce 8c3c ca30 a53c
00000070: fb6e 1b3d 5fc8 23bd daa3 9d3c 1e34 e93c
00000080: fe12 a53c 9b23 d9bb b9b9 a1bc 0a63 76bc
00000090: 0f7c 843c 08f8 853c 0faa 14bd 8b95 5cbd
000000a0: 5f08 dfbc 8b16 9e3c 9b98 c53c 83a9 b9bc
000000b0: 097d 6bbd 98cb d6bc 9d69 a53c 6763 0fbc
000000c0: 93a6 223d 1607 37bb a10c 1f3d bdc8 6b3c
000000d0: 52bb 9d3b 1993 94bc d980 763c b147 d6bc
000000e0: 06b0 29bd 9578 febc 3e54 5c3c e0fd a13c
000000f0: 8454 98bc 6811 2ebd eaba 4dbd bd02 913b
00000100: f7be 6ebc 97fb 55bc 0b59 83bd 3e66 6d3c
00000110: e97b 31bd 83c9 1ebd 7b7f 7abd b47e 19bc
00000120: 3b08 573c 9581 36bd 8827 c63b b9b3 843c
00000130: 6811 5dbd c5d2 dfbc 6894 e63c 9afa 503c
00000140: ddfa 6cbd 248a 3a3d de4a 913c 3d3c 14bd
00000150: dfda d5bc 8863 753c 5f39 4b3d 4df7 11bc
00000160: 9c76 0e3d 9460 633d fc6b 283d 21ca 06bd
00000170: d111 67bd ee03 50bd b643 dbbc 751e ea3c
00000180: 32b3 1ebd e9e0 9ebc 56fe 15bc 68ed 913c
00000190: f1ca 71bd 95fc 953c 640c 74bc b682 843d
000001a0: f5ef 60bc 3c85 46bd 0db9 af3c f1ca 82bd
000001b0: 7936 75bc bd5a 133c e336 21bd 030c e6bc
000001c0: 5cb3 bfbc 5fae ac3b 5b1c 48bc 7ed3 51bc
000001d0: ae10 b93c b207 23bb 2f50 403d f416 2fbd
000001e0: 82a9 73bd 15f2 c53c bbbb 1fbd f1c6 1bbd
000001f0: a258 2ebc 2899 483d 0e7b 41bc fccf 9e3c
00000200: 684d dbbb 8998 77bc c71e 9cbc 5b24 adbc
00000210: a89d b2bc 285b c7bc dff6 923c 3021 a9bc
00000220: db7c c3ba 673b 21bd 3ff9 66bd fd11 65bd
00000230: 2e71 8cbd 3aab 97bd 8217 25bd abd4 09bd
00000240: 576c c8bc e813 b03c 7c2d ef3c 767a cebc
00000250: fbba 97bb 0320 093d ba55 c13c c076 4c3d
00000260: 26d8 dfbc f4d5 30bd acf1 b4bc 7f0c 45bc
00000270: 14c8 7c3b 27f5 ffbc e017 c6bd 57f9 65bd
00000280: 28f1 51bd 1bde e73c 064a 2a39 da23 13bc
00000290: d5d4 21bd a090 21bd 5f06 a8bc 4e8c c8bb
000002a0: 0123 ebbc 546c 633c 3ff4 013c d1c5 87bd
000002b0: f937 3cbd 536d 88bd b211 f8bc b4f8 eebc
000002c0: 3edb d7bb 97dc 48bd e9ef f239 82a2 c53c
000002d0: 06b6 6abd 802e 0dbb f634 9fbc c783 45bc
000002e0: 681e d13b 37d2 bbbc 2b01 58bc 30e7 0d3d
000002f0: de9e 1dbd f92c 643b bd72 26bd ac8a eebc
00000300: fbe3 7ebc 3b53 d5bc 9f57 d3bc 6beb ba3c
00000310: 7438 2bbd 90f9 d33c d73e 32bd 8142 22ba
00000320: c2fa 1e3c 315c 04bd 33ce bf3c cb3e b7bb
00000330: 7247 d9bc f552 30bb 4ec8 43bd 477c 1ebd
00000340: 7c99 983c 5bbb 80bd e588 03bd 69d7 a73c
00000350: f65b 48bb 7cd7 393c b1f8 45bd f80d 913c
00000360: 57ac 3f3c c95f c6bc d203 abbb 2a91 993d
00000370: e8fd 11bd ee0a 1bbc 3e19 e2bc 826a 00bc
00000380: b70f 413d 9e17 d3bc bd99 193d c0ac a03c
00000390: c0ec 2d3c 365b 3f3d 4a27 1abd a86e 0abd
000003a0: f538 3abc 8b48 41bd ad92 77bc 5f26 983b
000003b0: 493e 58bd 904c 39bd b394 e13c 5faf 3ebc
000003c0: 43c7 43bc 362f be3c 2c5a 7cbc 89e9 5e3d
000003d0: 561f 4f3d dab2 263d 2943 4c3c 9622 74bc
000003e0: 5b8f f9bb 3717 833d 1f0a 663d fd8e 6b3d
000003f0: 5480 74bd ea01 65bd d667 233d e461 bbbc
-0.043611176 0.028080072 -0.060828302 0.01017299 0.039892077 -0.07087424 0.03759412 0.02701289
-0.01754537 0.029252559 0.018873382 0.03170976 -0.056284864 -0.004046616 0.03977262 0.037979074
-0.03808235 -0.019805158 0.02938951 0.023776317 -0.009408065 0.015305223 0.028665073 -0.057461288
-0.0015006588 -0.032731727 0.017188126 0.020164866 0.037947636 -0.03998601 0.01924317 0.028467234
0.020150658 -0.006626559 -0.01974188 -0.015038261 0.016172437 0.016353622 -0.036294993 -0.053853553
-0.027225671 0.019297859 0.02412062 -0.022663837 -0.05749229 -0.026220128 0.020191962 -0.008751727
0.03970964 -0.0027927808 0.038830403 0.014391121 0.00481359 -0.018136548 0.015045368 -0.026157232
-0.041427635 -0.031063357 0.013447819 0.019774377 -0.018594988 -0.04249707 -0.050227083 0.0044253753
-0.014571897 -0.013060472 -0.06413468 0.0144897085 -0.04333106 -0.038766395 -0.06115673 -0.009368587
0.013124521 -0.044557173 0.006047193 0.01619898 -0.053971678 -0.027322182 0.028146937 0.012755061
-0.05785643 0.045541897 0.017735895 -0.03619026 -0.026105342 0.014977343 0.04961526 -0.008909059
0.034781083 0.055512026 0.041118607 -0.03290761 -0.056413475 -0.050784998 -0.026765686 0.028578976
-0.038745113 -0.019394355 -0.009154877 0.0178134 -0.05903143 0.018308917 -0.014895532 0.06470244
-0.013729085 -0.048466906 0.021450544 -0.06386364 -0.014966601 0.008993802 -0.039358985 -0.0280819
-0.023400955 0.00526981 -0.012213792 -0.012806771 0.022590961 -0.0024876413 0.04695147 -0.0427465
-0.059487827 0.024163285 -0.038997393 -0.038031522 -0.010641249 0.048974186 -0.011809124 0.019386284
-0.006692577 -0.015112051 -0.019057645 -0.0211355 -0.021803692 -0.024335459 0.017939983 -0.020645708
-0.0014914529 -0.03936329 -0.056390043 -0.055925358 -0.06857525 -0.07405706 -0.040305622 -0.03365008
-0.024465723 0.021493867 0.029196493 -0.025204878 -0.004630444 0.033477794 0.023600448 0.049917936
-0.027324747 -0.04317279 -0.022087894 -0.012026905 0.0038571404 -0.031244827 -0.096725225 -0.056145992
-0.051255375 0.02830415 0.00016240039 -0.008980716 -0.039509613 -0.039444566 -0.02051085 -0.0061202412
-0.028703215 0.013880808 0.007931768 -0.06629527 -0.045951817 -0.06661477 -0.030281875 -0.029171325
-0.006587415 -0.049038496 0.00046336584 0.024125341 -0.057302497 -0.0021542609 -0.019434433 -0.012055344
0.0063817985 -0.022927387 -0.013183872 0.034644306 -0.038481586 0.0034816845 -0.040636767 -0.029118858
-0.0155572845 -0.026040664 -0.025798617 0.022817334 -0.041801885 0.025875837 -0.04351696 -0.00061897194
0.00970334 -0.032314483 0.023413753 -0.0055922023 -0.026523326 -0.0026904915 -0.047798447 -0.03869274
0.018627875 -0.06285735 -0.032112975 0.020488458 -0.003057239 0.011342879 -0.048332874 0.017706856
0.011698804 -0.024215596 -0.0052189613 0.07498391 -0.035642534 -0.009463055 -0.027599927 -0.007837893
0.047134127 -0.025768097 0.037500132 0.019613624 0.010615528 0.046717845 -0.037635125 -0.033796936
-0.011366119 -0.047188323 -0.015110654 0.004643246 -0.052793775 -0.04523903 0.027536726 -0.011638491
-0.011949363 0.023215871 -0.015402358 0.054421935 0.050566994 0.04069791 0.012467184 -0.014900824
-0.0076159663 0.06400912 0.056161996 0.05750941 -0.059692696 -0.05591003 0.039893948 -0.022873826

W f4 [128, 256]
00000000: f5f4 e73e fa1c 6f3e d744 e4bd 196b efbe
00000010: 223e c33e 4ad9 17bf 8f00 0f3f 6b89 82be
00000020: b80a 18be 49ca b33e ec45 32bf e563 75bf
00000030: 466d fa3e f340 4cbf 07e4 20be c73a 603b
00000040: 3257 103f a4f2 00bf 8dee 82bf ca60 af3e
00000050: c250 8a3e 7ad9 c53e 47e1 74be d225 b3be
00000060: d779 03bf 77c2 a73e 701f 033f cf8b e83c
00000070: 4af1 093f 4cac 7fbe c822 ab3e 0325 a63e
00000080: 44eb be3b 0c3b b23e 094c a8be 21df 1fbf
00000090: c07a 993f a8ad 003f 81f8 593f 684a 1bbf
000000a0: 3240 5bbe 2039 683f 56d7 d4be f943 9f3d
000000b0: 8529 febe 5a7a cdbe c036 c7be 22d5 3e3d
000000c0: 4e42 403e 39ed 203e 26d8 293f 1917 cb3c
000000d0: bce4 883e d8cf 40be ce6f acbd 522d 17bf
000000e0: b10d 423e f5b0 f93e 1293 e33d 2857 133f
000000f0: 5e79 4abf dedd 44bf 48cb 9ebe ca03 143f
00000100: d93f f8be dc6c 47bf 5a7d 13be 8b30 c13e
00000110: e727 28bf 7e12 5e3f ffed 073f 5bda c33e
00000120: 7731 d43e 6bb7 bf3e 7a6f 2dbf 1af9 ddbe
00000130: f74a fabd 11df 88be 554e ab3e 80b6 a8be
00000140: 546a 073e 9c39 cebd 4afe 083f 5a6d 5bbe
00000150: 9fdd be3e 7047 913e 089d a7be 141b a33d
00000160: 0d75 38be b658 41bd fd2e 183e 8823 4c3e
00000170: d8d4 303f 8aa0 f1bd 8797 483e 6c07 fdbd
00000180: b70f 3bbf 1d37 533f 4fe6 5fbd 0852 32bf
00000190: 9f66 01bc 00d6 553f 1579 71bd a1e7 5bbe
000001a0: b0ac 503f 8fb3 a2be ea3a 9e3e be49 d63b
000001b0: d33a 76be 842d 67bf f819 32bf 6344 b5be
000001c0: 8901 773e 9e2a a0be d942 823f dfdc 7b3f
000001d0: 1a95 143d c2b1 ae3d afd8 163f 15dd b2be
000001e0: 61cc e93d a08d d5be 1b27 3e3e 7881 6cbe
000001f0: f5d2 9f3d f537 60bf 600f af3e 069a 11bf
00000200: 2bfb c03e 9550 753f 37c8 bc3e e032 1d3e
00000210: 38f4 233e 950f a73d 74b4 14bf be33 8dbf
00000220: 6b6e 023f 7a0c 50bf 21d1 35bf 54d8 9d3e
00000230: a7f3 80bf 1eb7 d73e 0792 0bbe 0e39 0bbe
00000240: 3976 39be 79d3 95bf 4fa2 4abe 1fd7 30bf
00000250: 9853 423f 78d7 493e 9100 78be f301 063c
00000260: 8128 053f 1052 ac3e 0d2c 84be 7c75 30bc
00000270: a34e 31bf 2853 773c 0936 ff3c 9c8f a7be
00000280: a81d c63e fde1 c13e 7965 97be 88ba 393f
00000290: 6e70 f8be fd1f 633f 8fac 51be 94c0 7b3f
000002a0: 3455 393f 7863 c53e f150 ef3e 4e3b 86be
000002b0: f268 2a3e a3bd 963e 80f2 b63d 46e9 e6be
000002c0: 25eb 4a3f db58 383f 2ccc 2b3f 70e9 473f
000002d0: e863 39bf a274 803e 82a9 993e 5b23 4a3f
000002e0: 3fec b13c 2e23 c73e 5483 83be 8ba9 74be
000002f0: a68f 1bbe 7b08 39bf 355b 883d f729 8d3d
00000300: 9ea4 05bf 3dd9 743e 19f8 c8bd c0e9 00bf
00000310: 00cf e6be ff75 f43e 7ab8 583f 75ad c23d
00000320: 7c71 0e3e 5db2 5dbf 5831 493f 75ed 843e
00000330: 1a0f 2f3f 27a4 36bf cb09 f0be a144 ed3e
00000340: 869e 293e 54f7 39bf 46b1 f8bd a96e 063f
00000350: b8f6 5e3e b399 e3be dd54 eabe 7ce5 1b3f
00000360: d345 883f 2791 c1be 7f26 183e ec6e 87be
00000370: 1f58 77bd 7a4f abbe 38ff 13be d48c 623e
00000380: 3ade 68bc 21ad 2dbe 8cc0 39bf c24e 0a3c
00000390: 4aa2 8ebd 6f24 ad3f a953 90bd a425 70be
000003a0: cb37 94be f932 ec3c 0ce4 8bbf a7fa dc3e
000003b0: 0517 04be f570 2dbc ef69 bbbe 5a11 59be
000003c0: 6e7b 8d3d a40b 5bbe 995a a73e bb58 f6be
000003d0: 3971 5abf 0467 4cbe b11a 3cbe 83a7 0cbf
000003e0: d0e4 0b3e 954f 5fbe 79c4 0abf e3b1 d9be
000003f0: 8f1c ae3e 3aa5 93bd 3368 9fbe c9ae 0e3e
0.45304075 0.23350897 -0.11145943 -0.46761397 0.3813334 -0.5931593 0.5586023 -0.25495467
-0.14847839 0.3511527 -0.6963794 -0.9585555 0.48911494 -0.79786605 -0.15711986 0.0034214722
0.5638305 -0.5037024 -1.022905 0.34253532 0.27014738 0.38642484 -0.23914061 -0.34989792
-0.5135779 0.32765552 0.51219845 0.028386978 0.538838 -0.2496807 0.33424973 0.32450113
0.0058263857 0.34810674 -0.3287051 -0.6244984 1.1990585 0.5026498 0.8514481 -0.6066041
-0.21411207 0.90712166 -0.41570538 0.07776637 -0.49641052 -0.4013241 -0.38908958 0.046589978
0.18775293 0.15715493 0.6634544 0.024791287 0.2673701 -0.18829286 -0.084197626 -0.5905353
0.18950535 0.4876782 0.11112036 0.57554865 -0.7909144 -0.7690104 -0.31014466 0.5781828
-0.48486212 -0.7790048 -0.14403287 0.37732348 -0.65685886 0.86746967 0.5309753 0.3825253
0.4144399 0.37444624 -0.67748225 -0.43354112 -0.1222133 -0.26732686 0.334582 -0.32951736
0.13224155 -0.10069582 0.53513014 -0.21428433 0.37278458 0.28374815 -0.32736993 0.07964149
-0.18013401 -0.047203742 0.14861675 0.19935429 0.69074774 -0.117981985 0.19589053 -0.12354931
-0.73070854 0.8250597 -0.054663 -0.6965642 -0.007898002 0.83529663 -0.058953363 -0.21475078
0.815135 -0.31777617 0.30904323 0.0065395525 -0.24045877 -0.90303826 -0.69570875 -0.35403737
0.2412168 -0.31282514 1.017665 0.983839 0.036275007 0.08529998 0.5892438 -0.34934297
0.11415935 -0.41709614 0.18569605 -0.23096263 0.07803909 -0.87585384 0.34191418 -0.56875646
0.37691626 0.95826083 0.36871502 0.15351439 0.16011131 0.08157269 -0.5808785 -1.1031415
0.50949734 -0.8126904 -0.7102223 0.30829108 -1.0074357 0.42131895 -0.13629924 -0.13595983
-0.18111505 -1.1705161 -0.19788478 -0.6907825 0.75908804 0.19711101 -0.24218966 0.008179176
0.5201493 0.3365636 -0.25814858 -0.010770198 -0.69260615 0.01509551 0.031153696 -0.32726753
0.386945 0.37867728 -0.29569605 0.7255025 -0.48523277 0.88720685 -0.20475982 0.98340726
0.72395635 0.3855245 0.4674144 -0.2621712 0.16641596 0.29441556 0.08932972 -0.45099849
0.7926505 0.7201058 0.67108417 0.7809057 -0.7241807 0.25088984 0.30012137 0.789602
0.021719096 0.38894027 -0.25686133 -0.238928 -0.15191516 -0.72278565 0.06658021 0.0689277
-0.5220431 0.23910995 -0.09812946 -0.50356674 -0.45079803 0.47746274 0.8465649 0.095057406
0.13910478 -0.86600286 0.7859092 0.25962415 0.6838242 -0.71344227 -0.4688247 0.46341422
0.16564378 -0.7264302 -0.12143187 0.52512604 0.21773803 -0.444532 -0.4576787 0.6089704
1.0646309 -0.37806055 0.14858435 -0.26451814 -0.060386773 -0.33459073 -0.14452827 0.22124034
-0.014213139 -0.16960575 -0.7255943 0.008441629 -0.06964548 1.3526744 -0.07047207 -0.23451859
-0.28948817 0.0288329 -1.0928969 0.43159983 -0.12899406 -0.010586013 -0.36604258 -0.21198025
0.06908308 -0.2139116 0.32686308 -0.4811457 -0.85329014 -0.19961172 -0.18369557 -0.549431
0.13661504 -0.21807702 -0.54206043 -0.4251853 0.34006163 -0.07209249 -0.31134185 0.13933863

hb f4 [1, 128]
00000000: 0249 0abd a1e4 5c3d 2aaf 88bd 998c 5d3d
00000010: 74a8 babc 35a5 b13d 8ee5 05bc 956e 513d
00000020: df36 323d 4bc2 053d 6225 a53d cb4b efbc
00000030: 9c1f c03c 3a0c 38bd 9115 323c 91f5 ff3c
00000040: 8060 4f3c 0ccd b73c 5cd3 b43c fbeb 05bd
00000050: e5a0 86bd 4f9f 223c 9fec adbc c2e2 dcbc
00000060: e762 29bd c85c 39bd 5468 4dbd f531 333d
00000070: 5857 3dbd b60f 84bd 60bf 8b3c dd9c efbb
00000080: 0391 3ebd baf9 07bd 3230 1a3d 6836 b8bc
00000090: 1809 073d d4fa 16bd e5d8 1dbd d2f3 f6bb
000000a0: 74b4 763d 62c5 723c 2fae 763d 6658 f03b
000000b0: 2ff1 99bd 5944 80bd 94ea 8e3b 737d 883d
000000c0: 8847 573d 6fdb 843d 8398 923b fa06 8abd
000000d0: 323a 44bd 669e 0ebd 4048 a03d 7f10 543d
000000e0: 0e73 b5bd c788 b8bd 2cdf 23bd 75d7 32bd
000000f0: e574 033d 9610 c6bc 0e1c f1bc 81af c9bc
00000100: a4fe 3dbd ca94 1abd ad69 86bd 73b5 863d
00000110: d37c 823c d55a 45bd 5dd5 363d f3e4 8b3d
00000120: 3bc3 8c3d 6d92 9e3c 9d4a 69bc 2074 0abd
00000130: 47ee 963d 03d3 4a3d 1178 22bd 6d8d 51bd
00000140: 76bd 713d 3147 0abd 0296 c03d 1b6b e33c
00000150: d8ec 6bbc 0d29 973d 8a77 863d db21 963d
00000160: 055a 893d 7af9 88bb 6dc0 1d3d 663a b93c
00000170: e30f 6fbd 6c9c fcbb 9236 0cbd 8d35 40bd
00000180: 7d9e 413c 23a9 6e3d ed29 863c f8ab 2ebd
00000190: b3a9 433d 4a1a 96bd 5b14 ad3d e7b9 a6bd
000001a0: f108 043c 4cb7 0c3d 3a61 603d b208 0fbd
000001b0: ea24 ac3c abe1 5fbd dd92 3b3d 214e 35bd
000001c0: 2721 f9bc f203 9abc 32e6 80bd bdbb 24bd
000001d0: 05db 243d b610 aabc 9c6b d6bc a0db 883c
000001e0: dec2 9d3d e681 373d 6f4e 22bd dbdf 5abd
000001f0: 2893 093d 7366 5ebd 7af0 eabc e1ac cf3b
-0.033761032 0.053928975 -0.06674035 0.054089162 -0.022785403 0.08674089 -0.008172406 0.05113085
0.04350936 0.032655995 0.08063771 -0.029210946 0.023452573 -0.044933535 0.0108694 0.031245025
0.012657285 0.022436641 0.02207344 -0.03269575 -0.06573657 0.009925677 -0.021230994 -0.026963595
-0.041354086 -0.0452545 -0.050148323 0.043748815 -0.046225876 -0.06448309 0.017059028 -0.0073124007
-0.046525013 -0.033197142 0.03764362 -0.02248688 0.032967657 -0.036860302 -0.038536925 -0.00753639
0.060230687 0.014817568 0.06022471 0.0073347567 -0.07516705 -0.06263036 0.00436146 0.066645525
0.052558452 0.06487166 0.004473747 -0.06739612 -0.047907062 -0.03481903 0.078262806 0.051773544
-0.088598356 -0.09010463 -0.040007755 -0.043662507 0.0320939 -0.02417783 -0.029432323 -0.02461982
-0.046385422 -0.037739553 -0.06563125 0.065775774 0.015928661 -0.048182327 0.044637073 0.06830778
0.06873175 0.01935693 -0.014238981 -0.03380215 0.073696665 0.049517643 -0.039665285 -0.051160265
0.059018575 -0.0337593 0.09403612 0.027761033 -0.01439973 0.07380877 0.06565769 0.07330676
0.06706623 -0.0041801305 0.03851359 0.022610854 -0.05836476 -0.0077090766 -0.03423173 -0.04692607
0.011817572 0.05826677 0.016377414 -0.04264447 0.04776926 -0.07329233 0.08451148 -0.08140927
0.008058772 0.034354493 0.054780222 -0.034920402 0.021013696 -0.054658573 0.045794357 -0.044263963
-0.030411316 -0.01880071 -0.06293906 -0.040218104 0.040247936 -0.020759922 -0.026174359 0.016706288
0.077031836 0.044801615 -0.03962558 -0.05343614 0.033587605 -0.054296922 -0.028679121 0.0063377474
