VAE/docs/Archive/models/corr_vae_1_cont_1_best.pth (torch, 987819 bytes, 14 tensors)

encoder.0.weight f4 [221, 442]
0	0xbded58e2	-0.11589219
1	0xbde24b79	-0.110495515
2	0xbd881f43	-0.06646588
3	0xbdb8cbae	-0.09023224
4	0xbddb1099	-0.10696525
5	0xbd282174	-0.04104753
6	0xbd08fdd9	-0.033445213
7	0xbd8d7b66	-0.06908302
8	0xbdabdbb4	-0.083915144
9	0xbd22e275	-0.039766748
10	0xbdac1581	-0.08402539
11	0xbd2ffde3	-0.042966735
12	0xbd60697f	-0.05478811
13	0xbd3e2614	-0.046423033
14	0xbd336dad	-0.043805767
15	0xbd529ddc	-0.051420078
16	0xbd108add	-0.03528868
17	0xbdec2c77	-0.115319185
18	0xbd95274d	-0.07282887
19	0xbda8a030	-0.08233678
20	0xbd60b28c	-0.054857776
21	0xbd718497	-0.05896434
22	0xbd9c18c3	-0.076219104
23	0xbd6724bb	-0.056431513
24	0x3c3aabf9	0.011393541
25	0x3aefad0d	0.0018285826
26	0xbc506ff7	-0.012722007
27	0xbd1290b9	-0.03578255
28	0xbd2502fd	-0.040286053
29	0x3d1f6f5e	0.038924567
30	0xbbe976fd	-0.00712478
31	0xbd1a658b	-0.037694495
32	0xbaf6986e	-0.0018813738
33	0x3d1bd392	0.038043566
34	0xbb8b091d	-0.0042430297
35	0x3d5d4e75	0.0540299
36	0x3d3dd060	0.0463413
37	0x3d5622d2	0.0522793
38	0xbcda27ca	-0.026630301
39	0xbcc84a67	-0.02444954
40	0x3d102c73	0.03519864
41	0xbcb860bd	-0.022507066
42	0x3cb4c28c	0.022065423
43	0x3cf5e544	0.030016549
44	0x3d958576	0.07300846
45	0x3c8c42cb	0.017121693
46	0xba05b224	-0.00051000924
47	0x3da6bb59	0.081412025
48	0x3cfbd103	0.030739313
49	0x3dac0fb2	0.08401431
50	0x3d8f7b61	0.070059545
51	0x3d752b3e	0.059855692
52	0x3dbefc94	0.09325519
53	0x3d095b0a	0.033534087
54	0x3dd57af3	0.10423841
55	0x3dfb4ed3	0.12270894
56	0x3d83dae8	0.064382374
57	0x3dca825d	0.09888146
58	0x3deb7d37	0.11498492
59	0x3ceaf5a4	0.028681584
60	0x3d5330b8	0.051560134
61	0x3d9d4613	0.07679381
62	0x3dc53ed9	0.09631128
63	0x3d0afbed	0.03393166
64	0x3d4e4459	0.05035815
65	0x3cef437c	0.029206984
66	0x3d12f009	0.035873447
67	0xbbfced39	-0.007718709
68	0x3d15a5be	0.036535017
69	0x3d5e2057	0.05423006
70	0x3c1a1832	0.009405183
71	0x3c3588f8	0.011080019
72	0x3d21d2f9	0.03950784
73	0x3d7802b3	0.06054945
74	0xbc3f9ec2	-0.011695566
75	0x3ce6d9e0	0.028180063
76	0xbcc0090a	-0.02344181
77	0x3cc7db2b	0.0243965
78	0x3a62a100	0.00086452067
79	0x3cd154c7	0.02555312
80	0x3d486517	0.04892453
81	0xbcc9c042	-0.024627808
82	0x3d18bbc5	0.037288446
83	0x3b9365cd	0.0044982196
84	0x3d675795	0.05648001
85	0x3c543dd5	0.012954195
86	0xbd310de4	-0.043226138
87	0xbd018e26	-0.031629704
88	0x3c2f1e50	0.010688379
89	0xbad0a02f	-0.0015916879
90	0xbd34cdcf	-0.044141587
91	0xbd71ebf5	-0.059062917
92	0x3be4b2d4	0.006979326
93	0xbd804b1a	-0.062643245
94	0xbd31ecd6	-0.043438755
95	0xbd9c1126	-0.07620458
96	0xbdb757ae	-0.089522704
97	0xbd6d0286	-0.057863735
98	0xbc9390d2	-0.018013392
99	0xbdabd5ee	-0.08390413
100	0xbdd12086	-0.102112815
101	0xbdf34bdf	-0.11879706
102	0xbd55ee25	-0.052229065
103	0xbd28101e	-0.041030996
104	0xbd8f0832	-0.06983985
105	0xbddbedaa	-0.1073869
106	0xbd85212f	-0.0650047
107	0xbd1df097	-0.038559522
108	0xbcfb939c	-0.030710034
109	0xbdb9638e	-0.09052192
110	0xbd817f92	-0.0632316
111	0xbdd6a046	-0.104797885
112	0xbd2640cc	-0.04058914
113	0xbd471905	-0.048607845
114	0xbd2aaf21	-0.041670922
115	0xbda5f00f	-0.08102428
116	0x3a93e487	0.0011283316
117	0xbd92fe97	-0.071774654
118	0xbd7a9b4f	-0.06118327
119	0xbda39f61	-0.079893835
120	0xbc8f5989	-0.017498748
121	0xbcc57f14	-0.024108447
122	0xbd52997a	-0.051415898
123	0xbc1d6073	-0.009605515
124	0xbd219803	-0.03945161
125	0xbd54ea45	-0.05198123
126	0xbd2dc9c9	-0.042428765
127	0xbd838f2d	-0.06423793
128	0xbd8395eb	-0.06425079
129	0xbc7f5558	-0.015584312
130	0x3c9794c9	0.018503563
131	0x3d104626	0.03522315
132	0x3d282e6a	0.04105989
133	0x3d832928	0.06404334
134	0x3d2b6847	0.041847493
135	0x3d443e9f	0.047911283
136	0x3c892fe7	0.016746474
137	0x3d6d28c2	0.057900198
138	0x3ddbdcd2	0.107354775
139	0x3d40df7b	0.047088128
140	0x3de264b8	0.11054367
141	0x3d269639	0.040670607
142	0x3db00722	0.085951105
143	0x3d87ceed	0.06631265
144	0x3de2db21	0.11076952
145	0x3d00c3ee	0.031436853
146	0x3cbbdedf	0.022933422
147	0x3d29a22e	0.041414432
148	0x3de11c0d	0.109916784
149	0x3c9a63ca	0.018846411
150	0x3d94b020	0.07260156
151	0x3dcc9ed2	0.0999123
152	0x3d1df650	0.03856498
153	0x3db6ce0d	0.0892602
154	0x3cbb3ad0	0.022855192
155	0x3c826bbc	0.015920512
156	0x3d298371	0.041385118
157	0x3d6e4126	0.0581676
158	0x3c5ca8ca	0.013467977
159	0x3d734953	0.0593961
160	0x3d5b273f	0.053504225
161	0x3ce99e70	0.028517932
162	0x3d7155d3	0.05891974
163	0xbc1a32d3	-0.0094115315
164	0x3d04afb2	0.03239412
165	0x3c9855b0	0.018595546
166	0x3d0dfe7f	0.034666535
167	0xbc77dbf8	-0.015128128
168	0x3d6a31bb	0.057176333
169	0x3d37f848	0.044914514
170	0xbc414390	-0.011795893
171	0xbbb906bd	-0.005646555
172	0x3d5a273f	0.053260084
173	0xbca06488	-0.019579187
174	0x3d396f10	0.045271933
175	0x3d07106b	0.03297464
176	0xbb1b1bdf	-0.0023667736
177	0x3cc105b0	0.023562282
178	0x3b867602	0.004103423
179	0xbd0b80c0	-0.034058332
180	0xbd35d1c7	-0.044389512
181	0xbd0c0ea5	-0.034193654
182	0x3d0949d4	0.033517674
183	0xbd3fc383	-0.046817314
184	0xbd150cd2	-0.03638918
185	0xbd46026b	-0.04834215
186	0x384cd92c	4.8839647e-05
187	0xbd89d4aa	-0.067300156
188	0xbd45fa69	-0.048334513
189	0xbd9d7fe2	-0.07690407
190	0xbdbae495	-0.0912563
191	0xbb68b171	-0.0035506154
192	0xbcc3343b	-0.023828616
193	0xbcbed305	-0.023293981
194	0xbd4e9e8e	-0.05044418
195	0xbd4b1164	-0.049577132
196	0xbd89be6c	-0.06725773
197	0xbd817437	-0.06320994
198	0xbda5785d	-0.08079598
199	0xbd097b7d	-0.033565033
200	0xbd8bdd2a	-0.06829293
201	0xbdbd9c4d	-0.09258328
202	0xbd93f70f	-0.07224857
203	0xbd8236be	-0.063580975
204	0xbd6b5c9a	-0.05746136
205	0xbd476779	-0.048682664
206	0xbce83003	-0.028343206
207	0xbd506ff5	-0.05088802
208	0x3d06842a	0.032840885
209	0xbad044ac	-0.0015889606
210	0xbd1b2fc5	-0.037887353
211	0x3d1c21af	0.03811806
212	0xbcd80cf3	-0.026373362
213	0x3d0f79b9	0.035028193
214	0x3c98b176	0.018639307
215	0xbc978947	-0.018498076
216	0xbd131b10	-0.03591448
217	0x3c0d1641	0.008611263
218	0xbcc99f18	-0.024611995
219	0xbbfb61c7	-0.007671568
220	0x3cbd7658	0.02312772
221	0xbd30c04d	-0.043152142
222	0xbd5c4963	-0.053780925
223	0x3d0be0fe	0.034150116
224	0xbd76aba3	-0.06022228
225	0xbd0f4658	-0.034979194
226	0xbce2b736	-0.027675252
227	0xbd74baca	-0.05974845
228	0xbd51d5be	-0.05122923
229	0xbc033905	-0.0080092
230	0x3ae7eb92	0.0017694107
231	0xbd76d866	-0.060264967
232	0xbd2c6fd6	-0.042098843
233	0xbd3f8d2e	-0.0467655
234	0xbcd2da33	-0.025738811
235	0xbd90b286	-0.07065301
236	0xbcb752ca	-0.022378344
237	0xbdbd13a0	-0.09232259
238	0xbc8e163d	-0.017344588
239	0xbd15c49b	-0.03656445
240	0xbdbb96a1	-0.091595896
241	0xbdbd4874	-0.09242335
242	0xbd770d5d	-0.06031548
243	0xbd937e6a	-0.07201846
244	0xbd573268	-0.052538306
245	0xbccfdb68	-0.025373176
246	0xbd6d49b1	-0.057931606
247	0xbd05e98f	-0.032693442
248	0xbd98676b	-0.074416004
249	0xbd4050e5	-0.046952147
250	0xbd4e0436	-0.050296985
251	0xbdc9c05b	-0.09851142
252	0xbd1fe0bf	-0.039032694
253	0xbdad32f7	-0.084569864
254	0xbcdc2595	-0.02687339
255	0xbdab6e0c	-0.08370599

encoder.0.bias f4 [221]
0	0xbc062a3c	-0.00818878
1	0xbd085a1c	-0.03328906
2	0x3c099336	0.008396914
3	0x3d8299a8	0.06376964
4	0x3b2b2836	0.0026116497
5	0x3d0adf80	0.033904552
6	0x3c13b5db	0.009015526
7	0xbcc53837	-0.024074657
8	0xbda2df8b	-0.07952794
9	0xbc6b772a	-0.014371673
10	0xbce1d43e	-0.027567025
11	0xbd9bf80e	-0.07615672
12	0xbda90714	-0.08253303
13	0xba65aa6e	-0.0008761053
14	0xbd3e8587	-0.04651406
15	0x3c49283b	0.012277658
16	0xbd651da2	-0.055936463
17	0x3cbb3462	0.022852127
18	0xbad106d7	-0.0015947473
19	0xba59cb8f	-0.00083082257
20	0xba99a0e2	-0.001172092
21	0x3cf64eff	0.030066965
22	0x3a1c273c	0.0005956774
23	0xbcd36181	-0.02580333
24	0xbdafc1bf	-0.08581876
25	0x3d4f84cd	0.050663758
26	0x3d25ee0e	0.04051023
27	0x3d0be215	0.034151156
28	0x3bd3f122	0.0064679543
29	0xbc16a930	-0.009195611
30	0x3cab8840	0.020938993
31	0x3cccb357	0.02498786
32	0xbadac845	-0.0016691765
33	0x3cd5124c	0.026009701
34	0x3cdcbb6e	0.026944842
35	0x3c908e17	0.017645879
36	0xbd29ce3a	-0.04145644
37	0xbd5baa9c	-0.053629503
38	0x3b3d6919	0.0028901754
39	0x3dc9fdd1	0.09862865
40	0xbb1f6279	-0.002432017
41	0xbd8204a5	-0.06348542
42	0xbdc56005	-0.09637455
43	0xbcfe65b0	-0.031054348
44	0x3c64d138	0.013965897
45	0xbcac9384	-0.021066435
46	0x3da8f8a2	0.08250548
47	0xbd9dedec	-0.077113956
48	0x3bfa28bf	0.007634252
49	0xbd0b7a55	-0.03405221
50	0x3c8b6836	0.017017465
51	0x3cda440d	0.026643777
52	0xbc8e1140	-0.01734221
53	0x3d416884	0.047218814
54	0x3c844eda	0.01615088
55	0xbd549199	-0.051896665
56	0x3d626088	0.05526784
57	0x3d470608	0.048589736
58	0x3d377ca7	0.044796612
59	0xbd2ca785	-0.042151947
60	0x3d39b291	0.04533631
61	0x3d144ada	0.036204197
62	0x3cdf6331	0.027268978
63	0xbd4c7e41	-0.049925093
64	0x3da4c480	0.08045292
65	0x3cd16069	0.025558667
66	0x3d974cf1	0.07387722
67	0xbdc87bab	-0.09789213
68	0x3d75df10	0.060027182
69	0xbc8756a9	-0.016520815
70	0xbc2f827b	-0.010712261
71	0xbd118f48	-0.035537034
72	0xbb4fbe12	-0.0031698984
73	0x3d523cf4	0.05132766
74	0x3cc345c1	0.023836972
75	0x3d75ed03	0.060040485
76	0x3cc08630	0.023501486
77	0xba3458d9	-0.00068796944
78	0xbd29ad3b	-0.04142497
79	0xbd9aea92	-0.07564272
80	0xbc6e93a8	-0.014561571
81	0x3cb8a962	0.022541706
82	0xbd6ff9c7	-0.058587816
83	0x3d2bb248	0.04191807
84	0xbab06858	-0.0013458831
85	0x3ba3d03c	0.0049991887
86	0xbd3a5532	-0.045491405
87	0xbba10908	-0.0049144067
88	0xbd5bb310	-0.053637564
89	0xbad2d718	-0.0016085831
90	0xbd529ab0	-0.051417053
91	0x3d853738	0.06504673
92	0x3c02317b	0.007946367
93	0x3c01f906	0.007932907
94	0xbd7d9b37	-0.061915603
95	0xbd00621f	-0.031343576
96	0xbd52e744	-0.051490083
97	0xbbaa6284	-0.0051997323
98	0xbd508266	-0.050905608
99	0x3c5fc150	0.013656929
100	0x3d3fb69a	0.046805
101	0x3d80078d	0.0625144
102	0x3b0f8865	0.0021901366
103	0xbd86d248	-0.06583077
104	0xbd84b66c	-0.06480107
105	0xbc5abcbf	-0.013350665
106	0xbb1f5ba4	-0.0024316097
107	0xbb1d880f	-0.0024037396
108	0x3bf18e43	0.0073716952
109	0xbd50a350	-0.050936997
110	0x3d56417d	0.05230855
111	0x3ca5b743	0.020228988
112	0x3c2f9784	0.0107172765
113	0xbd68f24d	-0.0568717
114	0x3d6602aa	0.056154884
115	0x3d46e479	0.048557732
116	0xbd06b23a	-0.032884814
117	0x3c4167e1	0.011804552
118	0x3d95909c	0.07302973
119	0xbd517b4d	-0.05114298
120	0x3d27d869	0.04097787
121	0x3d53efc7	0.05174234
122	0xbbc19315	-0.005907426
123	0x3d893d1d	0.067011096
124	0x3c2d7308	0.010586508
125	0x3c7cf9e0	0.015440434
126	0xbc8184f5	-0.01581047
127	0x3c4ff73b	0.012693222
128	0x3d87bf57	0.06628292
129	0xbc6963fe	-0.014245031
130	0xbd0e8a69	-0.034799967
131	0x3d65ccc4	0.056103483
132	0x3bf7e0b7	0.00756463
133	0xbd4d598d	-0.05013423
134	0x3d8a6b0b	0.06758698
135	0xbd28a076	-0.041168652
136	0xbd919230	-0.07107961
137	0xbd9ce286	-0.076603934
138	0xbcd5d11e	-0.026100691
139	0x3d6ce517	0.057835665
140	0x3d604cd1	0.054760758
141	0xbca994ab	-0.020700773
142	0xbd83f8e5	-0.06443957
143	0x3da7eeb1	0.08199824
144	0x3dbbd6a6	0.091718
145	0xbc78a8a1	-0.015176923
146	0x3d9348ab	0.07191595
147	0x3d257993	0.040399145
148	0xbd12d720	-0.03584969
149	0xbab56bdc	-0.0013841349
150	0xbd596ac0	-0.05308032
151	0xbd521fd8	-0.0512999
152	0xbd6cae5e	-0.057783477
153	0xbd021e04	-0.031766906
154	0xbce0f1ef	-0.027459113
155	0x3b73c7fd	0.003719806
156	0xbd8b744f	-0.068092935
157	0x3d1b45af	0.037908252
158	0x3d23c9d3	0.039987396
159	0x3d3b4c29	0.04572693
160	0x3c93a0cf	0.018021015
161	0x3d581ef6	0.0527639
162	0xbc113381	-0.008862377
163	0xbd2016f3	-0.039084386
164	0xbdbd4e3c	-0.09243438
165	0x3a3b3cd7	0.000714255
166	0xbd3e44b0	-0.046452224
167	0x3d856da0	0.0651505
168	0x3b94b47e	0.004538118
169	0x3cffc84a	0.031223435
170	0xbd500657	-0.050787296
171	0x3c331ead	0.010932607
172	0xbb1217dd	-0.0022292056
173	0x3c41968a	0.011815676
174	0xbd91415f	-0.07092547
175	0xbcbb4440	-0.022859693
176	0x3c9d1473	0.01917479
177	0x3cd34d90	0.02579382
178	0x3bdd9151	0.006761708
179	0xbabbf286	-0.0014339245
180	0xbd535640	-0.051595926
181	0xbce709a1	-0.028202834
182	0xbc8afcb3	-0.0169662
183	0xbdc6a6fe	-0.0969982
184	0x3d984eb6	0.07436888
185	0x3c9f1d2d	0.019423092
186	0x3d542bf8	0.051799744
187	0xbc745390	-0.014912501
188	0xbbe50067	-0.0069885734
189	0x3cc2eb33	0.023793792
190	0x3d4ac86f	0.049507555
191	0xbc7715b1	-0.015080855
192	0xbd3add0d	-0.045620967
193	0x3cfdaad4	0.030965246
194	0x39a19071	0.0003081593
195	0x3c3f6a7a	0.011683101
196	0xbd1332d0	-0.03593713
197	0x3d604278	0.05475089
198	0x3d7ca86f	0.06168407
199	0xbd239202	-0.039934166
200	0xbd05870b	-0.03259949
201	0xbd7a1bed	-0.06106179
202	0x3d079ff7	0.03311154
203	0x3d074c25	0.0330316
204	0x3c0fb886	0.008772021
205	0xbd0ff6d9	-0.03514752
206	0x3d17e88a	0.037087
207	0x3d99e926	0.07515173
208	0x3d6f1aed	0.058375288
209	0xbae4885b	-0.0017435657
210	0x3ca2d0b3	0.019874906
211	0xbcfc88cc	-0.030826949
212	0xbda8c8eb	-0.08241447
213	0xbd0fe822	-0.03513349
214	0xbc853d89	-0.016264694
215	0xbb584a24	-0.0033003176
216	0xbc341c4c	-0.010993075
217	0xbcdeb815	-0.027187387
218	0x3b0f7427	0.00218893
219	0xbd8f5b26	-0.06999807
220	0xbc96d537	-0.018412216

encoder.2.weight f4 [110, 221]
0	0x3cc3caa4	0.023900338
1	0xbd4f2f6b	-0.05058233
2	0xbcebf0d0	-0.028801352
3	0x3cd8331b	0.026391556
4	0x3c8bb6b5	0.017054895
5	0xbd652c66	-0.055950545
6	0xbd2c61ab	-0.04208533
7	0xbd77b18f	-0.060472067
8	0x3d25daeb	0.04049198
9	0x3d5fd9aa	0.05465094
10	0xbb027288	-0.0019904692
11	0x3c1c66ed	0.009546024
12	0x3c80a51b	0.015703728
13	0xbd0d6fb7	-0.034530368
14	0xbcbf5203	-0.023354536
15	0x3b95b525	0.0045687133
16	0xbcd96c63	-0.02654094
17	0x3c7c4b88	0.015398867
18	0xbd659ad0	-0.056055844
19	0xbc17e8be	-0.009271799
20	0x3c2b399e	0.010450749
21	0xbca97412	-0.02068523
22	0x3b2f6bab	0.0026767056
23	0xbb92311a	-0.00446142
24	0x3d2c792b	0.042107742
25	0x3d051a3e	0.03249573
26	0x3ce0b8db	0.027431896
27	0xbbd81521	-0.0065943156
28	0xbbfbfd44	-0.0076901037
29	0xbd14f217	-0.036363687
30	0x3b8760be	0.0041314056
31	0xbd535cd1	-0.05160219
32	0x3c41ee7c	0.011836644
33	0xba8e160b	-0.001084031
34	0xbcf53355	-0.029931704
35	0xbd8a7b51	-0.06761802
36	0x3d4e3f37	0.050353255
37	0x3ad29930	0.0016067382
38	0xbc808807	-0.015689863
39	0x3d5f9c1b	0.054592233
40	0x3a3e43d8	0.00072580343
41	0xbd3476fe	-0.044058792
42	0x3ce1e024	0.027572699
43	0xbd35f28e	-0.04442077
44	0xba857005	-0.0010180479
45	0x3d3cb51f	0.046071168
46	0x3d7cf222	0.061754353
47	0x3cd648f5	0.026157835
48	0xbd83223a	-0.064030126
49	0x3d12b790	0.03581959
50	0xbca95c92	-0.020674024
51	0xbc0f7d5e	-0.008757917
52	0x3d59d278	0.053179234
53	0x3d92bced	0.07164941
54	0xbd3ad732	-0.045615382
55	0xbcdd0fab	-0.02698501
56	0x3c78ef7e	0.015193818
57	0xbccbc1fb	-0.02487277
58	0xbc2a915e	-0.010410635
59	0x3d37ce37	0.044874396
60	0x3cd122c3	0.025529271
61	0x3d495edf	0.04916274
62	0xbccea63c	-0.025225751
63	0x3ca8dc1f	0.020612774
64	0xbcd4a5ce	-0.025957968
65	0xbda2f1d6	-0.07956283
66	0x3c8d2f9a	0.017234612
67	0x3d7c297b	0.061562996
68	0xbd3e2da7	-0.046430256
69	0xbc5cdb7d	-0.013480064
70	0xbd3cf5ee	-0.046132974
71	0x3b225900	0.0024772286
72	0xbaea54de	-0.0017878076
73	0x3d51ad3f	0.05119061
74	0xbd516084	-0.051117435
75	0xbd65f661	-0.05614317
76	0xbcd0a42d	-0.02546891
77	0x3d3a782a	0.045524754
78	0x3c64dcb2	0.0139686335
79	0xbc8ce05f	-0.017196832
80	0x3d07867c	0.03308724
81	0x3c52ab4c	0.012858223
82	0xbd7bec08	-0.061504394
83	0x3ce37856	0.027767342
84	0xbb0ed9b7	-0.0021797249
85	0x3d58e4a6	0.05295243
86	0xbc93a7ad	-0.01802429
87	0xbd43ab13	-0.04777057
88	0xbd34a00d	-0.04409795
89	0xbd31904b	-0.0433505
90	0x3d9eed21	0.077600725
91	0x3ca93646	0.020655762
92	0xb9dc2e34	-0.00041996094
93	0xbd46b997	-0.048516836
94	0xbd4c857c	-0.049931988
95	0x3d52091f	0.05127823
96	0xbcc9947d	-0.024606938
97	0xbd55de6e	-0.05221408
98	0x3cdfcf19	0.027320432
99	0xbca2a19f	-0.019852458
100	0xbd6fd631	-0.05855388
101	0x3d492551	0.049107853
102	0xbcd6bfd6	-0.026214521
103	0xbcc93671	-0.024562092
104	0xbd5f2f1b	-0.054488283
105	0xbd16a815	-0.03678139
106	0xbcfcb6d8	-0.030848905
107	0x3d45e289	0.048311744
108	0xbd6448cb	-0.055733483
109	0x3bd3c162	0.006462262
110	0x3c70a655	0.014688094
111	0x3d2f9497	0.042866316
112	0xbd8c1258	-0.06839436
113	0xbd407f9a	-0.04699669
114	0xbc0fdb59	-0.008780324
115	0xbd317e82	-0.043333538
116	0xbc3471aa	-0.011013428
117	0x3bb6309f	0.0055599953
118	0xbcc70fdd	-0.024299556
119	0x3d49e1f8	0.049287766
120	0xbd7ca958	-0.061684936
121	0xbd4d247f	-0.050083634
122	0xbb81b621	-0.003958479
123	0xbc81c84d	-0.015842581
124	0x3ca91ba8	0.02064307
125	0xbd20030f	-0.039065417
126	0x3d439147	0.04774597
127	0xbcd89bd3	-0.02644149
128	0x3c1c54ce	0.009541703
129	0xbd2673d8	-0.04063782
130	0x3bcb8bb2	0.0062117213
131	0xbd0d0905	-0.03443243
132	0x3c8897ab	0.016673883
133	0xbd39012e	-0.04516714
134	0xbd998728	-0.07496482
135	0x3d6ca0b2	0.05777044
136	0xbc3f35bd	-0.011670527
137	0xbbdfdbae	-0.006831608
138	0xbcc8e5a2	-0.02452356
139	0x3d010127	0.03149524
140	0x3d0bcaca	0.03412894
141	0x3d47b278	0.048754185
142	0xbc9d530b	-0.019204637
143	0x3c7a36ba	0.015271837
144	0xbc733d87	-0.014846212
145	0xbc00ff74	-0.007873405
146	0xbd859388	-0.0652228
147	0x3be95532	0.007120752
148	0x3d953ce3	0.07287004
149	0xbcb6db89	-0.02232148
150	0xbd474957	-0.048653927
151	0xbc2e78fc	-0.010648962
152	0x3d255018	0.040359586
153	0x3d89419c	0.06701967
154	0xbc613033	-0.013744402
155	0xbcbcec17	-0.023061795
156	0xbcfbdbcb	-0.030744454
157	0x3d0e539a	0.034747697
158	0xbb01fe48	-0.0019835401
159	0x3d13b2ea	0.036059298
160	0xbd8cba96	-0.06871526
161	0xbd4fa565	-0.050694842
162	0xbd4c8e28	-0.04994026
163	0x3c8c4c8b	0.017126342
164	0xbd894d1e	-0.06704162
165	0xbcdd3974	-0.027004935
166	0xbc97b58a	-0.018519182
167	0x3ce7bd71	0.028288575
168	0xbb7f55cb	-0.0038961049
169	0x3c99983c	0.018749349
170	0xbd168d79	-0.036756013
171	0xbd7317cc	-0.059348866
172	0xbc63ff78	-0.013915889
173	0xbd1a9ae7	-0.037745383
174	0xbd5e123a	-0.0542166
175	0xbd730662	-0.05933226
176	0x3cb22967	0.021748258
177	0xbd544761	-0.051825885
178	0x3be6a3bd	0.007038562
179	0xbd950b09	-0.072774954
180	0x3d9a59ab	0.07536634
181	0x3d7abb0c	0.061213538
182	0xbd886236	-0.06659357
183	0x3b27c524	0.0025599683
184	0x3d90d81b	0.07072469
185	0xbdbe04de	-0.09278272
186	0x3c770efe	0.015079258
187	0xbc5aa984	-0.01334608
188	0xbd43be1f	-0.047788735
189	0xbd4256ba	-0.04744599
190	0xbd48f46d	-0.049061228
191	0x3d3fcae4	0.04682435
192	0xbb5a50a7	-0.0033312233
193	0xbc9d0484	-0.019167192
194	0x3cfcb1bc	0.03084647
195	0x3d2587bb	0.040412646
196	0xbc0c24fb	-0.008553739
197	0x3d1d6cd1	0.038433854
198	0x3cb726ea	0.022357423
199	0xbd373058	-0.04472384
200	0x3ca178a0	0.019710839
201	0x3c6d1cfc	0.014472242
202	0x3cca1dfa	0.024672497
203	0xbdbe9887	-0.09306436
204	0xbd479230	-0.0487234
205	0x3d16ad88	0.036786586
206	0xbd1c457e	-0.03815221
207	0xbcde4fdb	-0.027137687
208	0x3d11d064	0.035599127
209	0x392a86f3	0.00016262736
210	0xbcd130fc	-0.025536053
211	0x3c6197ea	0.013769129
212	0xbd4399bd	-0.047754038
213	0xbb925d64	-0.0044666994
214	0x3be11136	0.006868507
215	0xbc7d960d	-0.015477669
216	0x3c0624b3	0.008187461
217	0xbd346c6e	-0.04404872
218	0xbda57830	-0.080795646
219	0x3cf87b5a	0.030332256
220	0xbd0eac10	-0.03483206
221	0xbd64f198	-0.055894464
222	0xbc76ee3f	-0.015071451
223	0xbd1f610f	-0.03891092
224	0x3d94a1dd	0.072574355
225	0x3d3a6eb8	0.045515746
226	0x3ca47397	0.020074649
227	0xbcc96276	-0.024583083
228	0x3bf29f49	0.007404242
229	0x3d0d6088	0.034515887
230	0xbd50528c	-0.050859973
231	0x3c8827dd	0.01662057
232	0xbd010ee2	-0.031508334
233	0x3c7f442f	0.015580221
234	0xbd9a7f37	-0.075437956
235	0x3b345d7c	0.0027521541
236	0xbd928908	-0.07155043
237	0xbc2b6a70	-0.010462388
238	0x3d59f08a	0.05320791
239	0x3d5fdc47	0.054653432
240	0xbb4b138f	-0.0030987
241	0x3d03b0e3	0.032151114
242	0x3d00b45a	0.031421997
243	0x3d67c057	0.056579914
244	0x3d04fbb0	0.03246659
245	0x3d4cd1eb	0.05000488
246	0x3c97f608	0.018549934
247	0x3d06cd5a	0.032910682
248	0x3c468117	0.012115738
249	0x3d803cc5	0.06261591
250	0xbc2baba8	-0.010477938
251	0x3b935538	0.004496243
252	0x3cbbbcfa	0.02291726
253	0x3d305386	0.043048404
254	0xbc13985d	-0.009008494
255	0xbad8bbee	-0.00165355

encoder.2.bias f4 [110]
0	0x3cd6b3b1	0.02620873
1	0xbc382a54	-0.011240561
2	0xbcdc53b0	-0.026895374
3	0xba3061b7	-0.0006728428
4	0x3d22b10e	0.039719634
5	0x3d00bbd7	0.031429138
6	0xbd30ac92	-0.043133326
7	0xbd934d16	-0.07192437
8	0xbda4a9b0	-0.08040178
9	0xbdb22a8a	-0.0869952
10	0x3d8d9576	0.06913273
11	0x3a862f7c	0.001023754
12	0xbcca979c	-0.024730496
13	0x3d79bbef	0.060970243
14	0xbdc37499	-0.095437236
15	0xbcb98ba3	-0.022649592
16	0x3d8e5e06	0.06951527
17	0xbd275cf2	-0.040860124
18	0xbd3dceb4	-0.046339706
19	0xbd809128	-0.06277686
20	0xbcdf9495	-0.02729253
21	0x3cf7f224	0.030266829
22	0x3cb0c5c0	0.02157867
23	0xbbbed689	-0.0058239144
24	0x3b53a135	0.0032292132
25	0x3d1f63e2	0.038913615
26	0xbd1ac792	-0.03778798
27	0xbceb5ce4	-0.028730817
28	0xbd40648a	-0.04697088
29	0x3d9d6598	0.07685393
30	0xbc0e0aba	-0.00866955
31	0x3c13d8e8	0.009023882
32	0xbcfe14d3	-0.03101579
33	0xbd984fe3	-0.07437112
34	0xbcdf445b	-0.027254274
35	0xbd93a21e	-0.07208656
36	0xbd1f70f3	-0.038926076
37	0xbb35d634	-0.0027746083
38	0xbd3106f0	-0.043219507
39	0x3ca01159	0.019539522
40	0x3d5824db	0.052769523
41	0x3d933548	0.07187897
42	0xbcd71168	-0.026253417
43	0x3c4eeb88	0.012629397
44	0xbd2eaf68	-0.04264775
45	0x3db7a8af	0.08967721
46	0x3d365b94	0.04452093
47	0xbd6ecf87	-0.058303382
48	0x3d987c2c	0.07445559
49	0x3b737c6c	0.0037153019
50	0xbd19ce48	-0.03755024
51	0xbd10c2fc	-0.0353422
52	0xbb2bf974	-0.0026241215
53	0x3b1bd3e9	0.0023777431
54	0x3dbcb9b0	0.092151046
55	0xbc598250	-0.013275698
56	0x3c438c2c	0.011935275
57	0xbb96601e	-0.004589095
58	0x3d018357	0.031619396
59	0x3c12e5cc	0.008965921
60	0x3cb642d2	0.02224866
61	0x3d518f47	0.05116203
62	0x3c34c972	0.011034356
63	0xbc8ae9e5	-0.016957233
64	0xbd8606e3	-0.06544282
65	0x3d4a9da5	0.049466748
66	0xbd84016c	-0.06445584
67	0xbd8941dc	-0.06702015
68	0x3d12042d	0.035648514
69	0x3d6d212b	0.05789296
70	0xbcfb42a6	-0.030671429
71	0xbcce984c	-0.025219105
72	0x3d802118	0.06256312
73	0x3b759d72	0.0037477878
74	0x3d1e8521	0.03870118
75	0xbccf66e2	-0.025317613
76	0xbd4b8874	-0.04969068
77	0x3d3b6aca	0.04575614
78	0x3d6a0056	0.057129227
79	0x3d60b272	0.05485768
80	0xbd836aee	-0.064168796
81	0xbd4de667	-0.050268557
82	0x3d425fa1	0.04745448
83	0xbc9d4bd0	-0.01920119
84	0xbd80d6ea	-0.062909916
85	0x3d0ae947	0.033913877
86	0x3d3b01b2	0.045655914
87	0x3d0d6033	0.03451557
88	0xbd9965f0	-0.07490146
89	0x3d965443	0.073402904
90	0x3cf31c96	0.029676717
91	0x3d6b6b0c	0.057475135
92	0xbdc4a2d3	-0.09601369
93	0x3c44a951	0.012003259
94	0x3cc4a84e	0.024006035
95	0xbcf5202c	-0.029922567
96	0x3d5ed7e2	0.0544051
97	0x3d227fb4	0.03967257
98	0x3d0c77ef	0.034294065
99	0x3d1e91b5	0.038713176
100	0x3c58587a	0.013204688
101	0xbd62b045	-0.055343885
102	0xbdc0a55c	-0.0940654
103	0xbd6ad7dc	-0.057334766
104	0xbdaff904	-0.08592418
105	0x3c42abff	0.011881827
106	0xbdcae8fc	-0.099077195
107	0x3cd801ff	0.02636814
108	0xbd98ecd9	-0.0746705
109	0x3d413735	0.04717179

mean_layer.weight f4 [2, 110]
0	0xbd977f03	-0.073972724
1	0x3d49b3d4	0.049243763
2	0x3df31494	0.11869159
3	0xbcea6b9d	-0.028615767
4	0x3c289cad	0.010291261
5	0x3d2ff930	0.042962253
6	0xbd90f5bf	-0.07078122
7	0xbd060ffa	-0.03273008
8	0x3d5897b0	0.052879035
9	0xbcb57eed	-0.02215525
10	0xbdd20f97	-0.1025688
11	0x3e1be100	0.1522255
12	0x3d2ceb35	0.0422165
13	0x3c8ab7dc	0.016933374
14	0x3d97154a	0.073771074
15	0xbdae3d4e	-0.08507787
16	0x3d05133d	0.03248905
17	0xbb0f7b50	-0.0021893568
18	0xbcd4b22d	-0.025963867
19	0xbdc900d5	-0.09814612
20	0xbe005cb6	-0.12535366
21	0xbdcb1813	-0.09916701
22	0xbda3a53b	-0.079904996
23	0xbe64aaca	-0.22330776
24	0x3d87d182	0.06631757
25	0x3d907238	0.070530355
26	0x3df9b330	0.121923804
27	0x3d5d4e22	0.05402959
28	0x3cce1279	0.025155293
29	0xbdf21463	-0.11820295
30	0x3d8ce565	0.06879691
31	0xbe753c8b	-0.23948877
32	0xbba389b1	-0.0049907793
33	0x3c8781be	0.016541358
34	0x3e791839	0.24325646
35	0xbe01e63c	-0.12685484
36	0x3cc6151c	0.024179988
37	0xbca0cdcf	-0.019629387
38	0xbdb652cf	-0.08902513
39	0xbd460d57	-0.048352566
40	0xbe132f9a	-0.14373627
41	0x3df8c014	0.12146011
42	0xbcb4e476	-0.022081595
43	0x3bd79d56	0.006580035
44	0xbd5174c1	-0.051136736
45	0x3d32aad1	0.043619934
46	0xbca58a8c	-0.020207666
47	0xbde26cdd	-0.1105592
48	0xbd5588d3	-0.05213244
49	0x3df5a394	0.11994091
50	0xbdc6c7ee	-0.09706102
51	0xbd1762a3	-0.0369593
52	0x3d7ff098	0.062485307
53	0xbd63397a	-0.055474736
54	0x3d7bf2cf	0.061510857
55	0x3d7df36c	0.061999723
56	0xb9e13419	-0.0004295416
57	0xbd796208	-0.060884506
58	0xbbc5fbb1	-0.006041967
59	0x3d0ea884	0.034828678
60	0xbbe77200	-0.0070631504
61	0xbd8194cf	-0.06327211
62	0x3db32ce2	0.08748795
63	0xbc2cd624	-0.010549102
64	0xbd6ea0c7	-0.058258798
65	0x3dc99359	0.098425575
66	0x3c75140a	0.014958391
67	0xbd46280b	-0.04837803
68	0xbddaa071	-0.10675133
69	0x3b0d02f1	0.0021516646
70	0x3c890a7e	0.016728636
71	0xbd63e811	-0.055641238
72	0xbdba2806	-0.09089665
73	0x3d31f121	0.04344285
74	0x3e07562d	0.13216467
75	0x3b5c309c	0.003359831
76	0xbdd3ee1e	-0.103481516
77	0xbcd67fa3	-0.026183909
78	0x3d95f141	0.07321406
79	0x3c26f0ae	0.010189218
80	0xbc6e5d6d	-0.014548642
81	0xbc654b02	-0.013994934
82	0xbaf997a0	-0.001904238
83	0xbd63bbab	-0.055598896
84	0x3d9e2171	0.07721222
85	0x3d39c9c5	0.045358438
86	0x3d230fa4	0.039809838
87	0xbdfae369	-0.12250406
88	0x3d605087	0.054764297
89	0xbe4e7d13	-0.201649
90	0x3bfe3913	0.0077582686
91	0xbd0d1810	-0.034446776
92	0x3e71fca0	0.23631525
93	0xbd8788bd	-0.06617878
94	0xbd1457e9	-0.03621665
95	0x3d5e673c	0.05429767
96	0xbca09f69	-0.019607263
97	0x3de72993	0.112872265
98	0xbdb4c164	-0.08825949
99	0xbce207be	-0.027591582
100	0xbd90f578	-0.070780694
101	0xbdb10585	-0.08643631
102	0x3cad49d1	0.021153362
103	0xbe748045	-0.23877056
104	0xbd2c1013	-0.042007517
105	0xbdb5b345	-0.088720836
106	0xbe27e787	-0.16396914
107	0x3d6cb24e	0.057787232
108	0x3e83d775	0.25750318
109	0xbddfdb94	-0.10930553
110	0xbbc56e4f	-0.0060251127
111	0x3b17221e	0.0023061107
112	0xbd98bd28	-0.07457954
113	0xbd618565	-0.055058856
114	0x3d6114a6	0.054951333
115	0xbdb286c4	-0.08717111
116	0x3dca7546	0.098856494
117	0xbc2d7d6f	-0.010588988
118	0xbcfad15b	-0.030617407
119	0x3c85a027	0.016311718
120	0xbd1a91d8	-0.037736744
121	0x3d0654ff	0.032795902
122	0x3d91a197	0.07110899
123	0xbd95ccc8	-0.073144495
124	0xbdb27b7a	-0.087149575
125	0x3b069462	0.002053522
126	0xbdd88850	-0.105728745
127	0xbcf67409	-0.030084627
128	0x3b98c1ed	0.0046617896
129	0x3d199425	0.037494797
130	0xbd901613	-0.0703546
131	0xbd58be65	-0.05291595
132	0xbd58c1b5	-0.05291911
133	0x3d1241f4	0.03570743
134	0x3e06f113	0.131779
135	0x3d2d676a	0.04233495
136	0x3d975ef9	0.073911615
137	0xbdb8eb95	-0.09029309
138	0x3a4e4fe5	0.00078701816
139	0xbda56ea1	-0.080777414
140	0x3d3de88b	0.04636435
141	0xbd8ed6ae	-0.06974541
142	0xbc8e51c3	-0.017372971
143	0xbd3eba1d	-0.04656421
144	0x3b68dbcc	0.00355314
145	0xbcbdacc0	-0.023153663
146	0xbc784470	-0.0151530355
147	0x3daada5d	0.08342431
148	0x3d29c8e6	0.041451357
149	0xbd0784bd	-0.033085573
150	0xbd43eb77	-0.04783198
151	0x3d7714bf	0.06032252
152	0xbd20509a	-0.039139368
153	0x3dc4d9d0	0.09611857
154	0xbd5f1849	-0.05446652
155	0xbd37018d	-0.044679213
156	0xbd00b323	-0.031420838
157	0xbd5a781b	-0.053337198
158	0x3d05b009	0.032638583
159	0x3c9eb1a9	0.019371824
160	0xbc6de132	-0.014519023
161	0xbdc6d838	-0.09709209
162	0x3d07f139	0.033189032
163	0xbd820f70	-0.06350601
164	0x3bcd6f6e	0.006269387
165	0xbcb96069	-0.02262898
166	0x3cb039e3	0.021511978
167	0xbb8f2635	-0.0043685683
168	0x3d48759f	0.048940297
169	0x3b0668c7	0.002050923
170	0xbbec2188	-0.0072061457
171	0xbd36fe27	-0.044675972
172	0xbbc3734a	-0.0059646713
173	0xbd58f208	-0.052965194
174	0x3d18bdea	0.03729049
175	0x3ce28b1d	0.027654225
176	0x3c8185b8	0.015810832
177	0x3da04d67	0.07827263
178	0xbde591b0	-0.11209428
179	0x3cb3f887	0.021969093
180	0xbd039d91	-0.03213269
181	0xbdc05acd	-0.09392319
182	0x391e0cbb	0.00015072797
183	0x3da29d1a	0.07940121
184	0x3d306b2e	0.043070965
185	0x3d836d90	0.06417382
186	0x3bacbb64	0.005271362
187	0xbd3856d1	-0.04500467
188	0x3ca0ca9c	0.019627862
189	0x3c40f5d7	0.011777363
190	0x3dca605d	0.09881661
191	0xbc975230	-0.018471807
192	0x3c8a52f8	0.016885266
193	0x3c06f68a	0.00823749
194	0x3cffb7e3	0.031215614
195	0x3d7e7552	0.062123604
196	0xbd61dabd	-0.055140246
197	0xbcdd88d0	-0.027042776
198	0x3d765082	0.060135372
199	0x3ba75712	0.005106815
200	0x3c393cf3	0.011306035
201	0x3b252ee6	0.0025204956
202	0xbcff051a	-0.031130362
203	0xbc0fedf6	-0.008784762
204	0xbd292402	-0.041294105
205	0x3d122d13	0.035687517
206	0xbd8a33c4	-0.06748155
207	0x3c6af77b	0.0143412305
208	0x3d81533e	0.06314705
209	0xbdb395d5	-0.087688126
210	0xbd0b7f58	-0.03405699
211	0x3c43df56	0.011955103
212	0x3d75762c	0.05992715
213	0x39cedb7f	0.0003945492
214	0xbe20cdf8	-0.15703571
215	0x3dc119e5	0.09428767
216	0x3c2971cd	0.010342074
217	0xbd5fbc84	-0.054623142
218	0xbcb074b6	-0.021540027
219	0xbd01de1e	-0.031705968

mean_layer.bias f4 [2]
0	0x3db8829c	0.09009287
1	0xbcf8e2c0	-0.03038156

logvar_layer.weight f4 [2, 110]
0	0x3d714306	0.05890181
1	0xbd0c29f5	-0.0342197
2	0x3b99a22e	0.004688523
3	0xbcf4bbbd	-0.029874677
4	0xbd34398d	-0.044000197
5	0xbc53c42c	-0.012925189
6	0xbd376db5	-0.04478236
7	0xbbb4d13f	-0.005518108
8	0xbcdf9c8f	-0.027296333
9	0x3c01303e	0.007885037
10	0x3bd45720	0.0064801127
11	0x3ba4c035	0.0050277957
12	0x3be21174	0.006899053
13	0xbd9caab2	-0.07649745
14	0x3c21b1b4	0.009869028
15	0x3cdb786c	0.02679082
16	0x3c29f305	0.010372882
17	0x3bef5c95	0.007304738
18	0x3c06b871	0.008222685
19	0x3bae4b34	0.0053190235
20	0xbca4fbf0	-0.020139664
21	0x3ba3eadf	0.005002364
22	0x3b857114	0.004072318
23	0x3c81fb28	0.015866831
24	0x39fbe7fe	0.00048047298
25	0xbd601758	-0.054709762
26	0x3bec187b	0.0072050667
27	0x3dcb3977	0.0992307
28	0x3d1c3415	0.038135607
29	0x3c7bc6c8	0.015367217
30	0x3b11e444	0.00222613
31	0xbb689252	-0.0035487604
32	0xbc98a9f9	-0.018635737
33	0xbbdd67a7	-0.006756741
34	0x3baad203	0.0052130236
35	0x3a0916b4	0.0005229518
36	0xbd543fbe	-0.0518186
37	0xbd83f267	-0.06442719
38	0xbba30315	-0.0049747326
39	0xbc318c7a	-0.010836715
40	0xbd55520c	-0.0520802
41	0xbcea4681	-0.028598072
42	0xbc550835	-0.013002445
43	0x3a8222c9	0.000992858
44	0x3ad14087	0.0015964665
45	0x3ce79c2e	0.028272714
46	0xbd4d13e4	-0.050067797
47	0xb9c87e46	-0.00038241054
48	0x3a4fee94	0.0007931974
49	0x3d376517	0.04477414
50	0x3a9e6c61	0.0012086743
51	0xbbc65026	-0.006052035
52	0xbbb45fc4	-0.00550458
53	0xbd6e4aca	-0.058176793
54	0xbd52d096	-0.051468454
55	0x3c2cc702	0.010545494
56	0xbc346efc	-0.011012789
57	0xbdffd6ee	-0.124921665
58	0x3cc597cc	0.024120234
59	0x3d4ef01a	0.050521947
60	0x3bf3d4de	0.007441147
61	0xbc4dfd76	-0.012572637
62	0xbd32fd14	-0.043698385
63	0x3c854f33	0.016273117
64	0x3ce1aa6c	0.027547084
65	0xbbe3de78	-0.0069540106
66	0xbd20c6ae	-0.039251976
67	0x3cfc7105	0.03081561
68	0xbbe339f3	-0.0069343983
69	0xbc62dc22	-0.013846429
70	0x3c7bdca1	0.015372426
71	0x3d24ae93	0.04020555
72	0xbd47046b	-0.048588198
73	0xbdc3a042	-0.09552051
74	0xbb4b8c96	-0.0031059138
75	0xbb1d5ec7	-0.002401279
76	0xbc3f2189	-0.01166571
77	0x3c4dc59b	0.01255932
78	0xbb2a5577	-0.0025990882
79	0x3dbe9cdd	0.09307263
80	0x3c96d97f	0.018414257
81	0xbcb9f928	-0.022701815
82	0x3d003ba0	0.031306863
83	0xbdaf781b	-0.0856783
84	0x3d2e97c0	0.04262519
85	0x3d2eec13	0.042705607
86	0x3d71c15a	0.059022285
87	0x3c9078d0	0.017635733
88	0xb8e042e0	-0.00010693609
89	0x3bf77382	0.0075516114
90	0x3cb235c1	0.021754147
91	0xbb9738d9	-0.004614931
92	0xbc9c3ed1	-0.019072922
93	0x3d58e835	0.052955825
94	0xbceeec6f	-0.029165475
95	0x39aead0b	0.00033316793
96	0x3cc2e45d	0.023790533
97	0x3c8c7130	0.017143816
98	0xbb0f2e6e	-0.0021847743
99	0xbcda79a6	-0.026669335
100	0xbd8ebd77	-0.06969731
101	0x3bf5d366	0.0075020073
102	0xbcc56b95	-0.02409915
103	0xbb8ff8e1	-0.0043936823
104	0x3af26a33	0.0018494785
105	0x3c7814aa	0.015141645
106	0xbc3a747c	-0.011380311
107	0xbd504b68	-0.050853163
108	0x3c79ffb4	0.015258718
109	0x3cbc4bae	0.022985306
110	0xbd9d11b3	-0.076693915
111	0x3c2829f0	0.010263905
112	0x39c8b406	0.000382811
113	0x3dd00406	0.101570174
114	0xbda07777	-0.07835286
115	0xbcc2ce8b	-0.023780128
116	0xbd9218cb	-0.07133635
117	0x3d1408b3	0.03614111
118	0xbb8da091	-0.0043221195
119	0x3d225607	0.039632823
120	0x3c78e702	0.015191795
121	0x3975aa18	0.00023428386
122	0x3c61a380	0.013771892
123	0xbcf365ee	-0.02971169
124	0x3b0404d3	0.0020144477
125	0x3c9d0207	0.019166006
126	0x3d7de2fa	0.06198404
127	0xbba0a573	-0.0049025356
128	0xbbe4c833	-0.0069818734
129	0x3ad048fc	0.0015890892
130	0xbc61f704	-0.013791803
131	0xba9c4292	-0.0011921695
132	0xbc13de41	-0.009025157
133	0x3b6c81fa	0.0036088214
134	0xbace26e8	-0.0015728148
135	0x3cd99b24	0.026563235
136	0x3c96b3d2	0.018396292
137	0x3d9e2c8e	0.07723342
138	0xb9c2fd3a	-0.00037191232
139	0x3d956884	0.072953254
140	0x3c09251a	0.008370662
141	0xbba7dae0	-0.0051225275
142	0xbc88adc2	-0.016684417
143	0xbc0cb816	-0.008588811
144	0xbc1586c3	-0.009126368
145	0x3abb8988	0.0014307955
146	0x3da087d1	0.07838405
147	0x3ccc0df6	0.024909
148	0xbb995f1a	-0.0046805264
149	0x3b0af9bd	0.0021205985
150	0x3ca05aaf	0.019574491
151	0xbcf20231	-0.02954206
152	0x3abd8e9a	0.0014462054
153	0x3810c693	3.4517212e-05
154	0xbab81d56	-0.0014046829
155	0x3c28b5e6	0.010297274
156	0xbd562ec2	-0.052290685
157	0xbd8ff3b4	-0.070289046
158	0xbc73d7de	-0.01488301
159	0x3cdcfd6a	0.026976306
160	0xbb37134f	-0.0027935093
161	0x3d56252b	0.05228154
162	0xba72a821	-0.00092566205
163	0xbcb2c5c0	-0.02182281
164	0xbc95aecf	-0.018271832
165	0x3d97dc67	0.07415085
166	0xbc637bb2	-0.013884472
167	0xbc90654a	-0.017626423
168	0xbd029a2f	-0.031885322
169	0x3d0217db	0.03176103
170	0xbd92c2d3	-0.07166066
171	0x3ccf501b	0.025306752
172	0xbd55bb71	-0.05218071
173	0x3cbd05f3	0.023074126
174	0x3d09fd60	0.033688903
175	0xba153fd7	-0.0005693412
176	0x3cbf2ba8	0.023336247
177	0xbcd1c8f0	-0.02560851
178	0x37b66984	2.1745225e-05
179	0xbcd6a34c	-0.026200913
180	0xbcefbdb1	-0.029265257
181	0x3dc0e8ec	0.09419426
182	0x394515c1	0.00018795488
183	0x3cff6fb7	0.0311812
184	0x3b6c42d6	0.003605058
185	0xbc48ac25	-0.012248074
186	0xbb48dd8e	-0.0030649635
187	0x3d5a739e	0.053332917
188	0xbcf7f283	-0.030267006
189	0x3cad2408	0.021135345
190	0xbcaeb1eb	-0.021325072
191	0xbca6babd	-0.020352716
192	0xbc790bc5	-0.01520056
193	0x3c0cbf9b	0.008590604
194	0xbcff5600	-0.031168938
195	0x3d2acb54	0.041697815
196	0x3d3eb6a2	0.04656089
197	0xbc08ba25	-0.008345162
198	0x3d007046	0.031357072
199	0xbb9880e5	-0.0046540373
200	0xbdb80544	-0.08985379
201	0xbd828682	-0.063733116
202	0x3bd0cd73	0.0063721477
203	0xbd3dc968	-0.046334654
204	0xbd86415c	-0.06555435
205	0xbb90c3b8	-0.0044178627
206	0x3c10ab57	0.008829913
207	0xbcf610a0	-0.030037224
208	0x3c6852d7	0.014179907
209	0xbd1a11bd	-0.037614573
210	0x3d0a386a	0.033745207
211	0xbc804f7c	-0.015662901
212	0xbd4e0cfd	-0.050305355
213	0xb90a2607	-0.00013174872
214	0x3b2c9261	0.0026332366
215	0xbc10b519	-0.00883224
216	0x3bce3895	0.006293366
217	0x3c298cfd	0.010348556
218	0x3cdf321e	0.027245577
219	0xbbb88564	-0.005631136

logvar_layer.bias f4 [2]
0	0x3cdae77f	0.026721714
1	0x3d2e0ac7	0.042490747

decoder.0.weight f4 [110, 2]
0	0x3da07f3f	0.0783677
1	0x3b127809	0.0022349379
2	0x3f09efc6	0.5388149
3	0x3f73a0b2	0.95167077
4	0x3d14d3ea	0.03633491
5	0x3e2348b7	0.15945707
6	0x3f24b939	0.6434513
7	0xbe96172c	-0.29314554
8	0x3e552d51	0.20818068
9	0x3eaabdbb	0.33347878
10	0xbf44ba15	-0.7684644
11	0xbefb90ff	-0.4913406
12	0x3efdc53f	0.4956455
13	0x3e55c4c2	0.20875838
14	0xbf057f6e	-0.5214757
15	0xbf5e221d	-0.867708
16	0xbe824732	-0.25444943
17	0x3f424899	0.75892025
18	0x3f2d3410	0.67657566
19	0x3f024a14	0.50894284
20	0x3f4ac8f9	0.7921291
21	0x3e956bce	0.2918381
22	0xbeee036a	-0.4648698
23	0x3f235d3b	0.63814133
24	0x3f021e86	0.50827825
25	0xbf29e84e	-0.66370094
26	0x3e93e6c5	0.28887
27	0xbeb47650	-0.35246515
28	0x3f44f928	0.7694268
29	0x3f412aa3	0.75455683
30	0x3e76f44e	0.24116632
31	0xbf06f2c5	-0.52714187
32	0x3bcb76f4	0.0062092487
33	0x3e96a239	0.2942064
34	0xbd41f713	-0.04735477
35	0x3ec696bf	0.38786885
36	0xbdcb3bb5	-0.099234976
37	0x3f107a11	0.5643626
38	0xbe481cf2	-0.19542292
39	0xbec778e9	-0.38959435
40	0x3f225504	0.63410974
41	0xbe340315	-0.175793
42	0xbf492e96	-0.7858671
43	0xbf059230	-0.5217619
44	0x3ef69964	0.48163903
45	0x3f79583c	0.9740026
46	0xbf01700b	-0.5056159
47	0x3f72f293	0.9490139
48	0x3f18681f	0.59533876
49	0xbf095d74	-0.53658223
50	0xbc68e51f	-0.014214783
51	0xbf285af3	-0.6576378
52	0x3f3c30fd	0.7351225
53	0xbe93980c	-0.2882694
54	0xbe835f22	-0.25658518
55	0xbe8c0451	-0.27347043
56	0x3f8d42e5	1.103604
57	0xbf6e4bac	-0.93084216
58	0xbd68980b	-0.056785624
59	0x3eaf0b65	0.3418838
60	0x3f31b70a	0.6941992
61	0xbd4cd232	-0.050005145
62	0x3f319c98	0.6937957
63	0xbf568004	-0.83789086
64	0x3e331209	0.17487349
65	0x3f4f71c0	0.81032944
66	0xbedf5751	-0.43621305
67	0xbe88aa35	-0.26692358
68	0xbeda5859	-0.4264553
69	0x3ebe005d	0.37109652
70	0x3d4785e9	0.04871169
71	0x3f13c66f	0.5772466
72	0x3f3e2641	0.7427712
73	0x3ddb9247	0.107212596
74	0x3ea8fd96	0.3300597
75	0xbee639aa	-0.4496587
76	0x3e513d4c	0.20433539
77	0x3f4119df	0.754301
78	0x3ed5374c	0.4164375
79	0x3f2ab580	0.666832
80	0xbe98af09	-0.2982104
81	0x3eb4f461	0.35342696
82	0xbeb8d734	-0.36101687
83	0x3e3d1776	0.18465981
84	0x3ec46bfe	0.38363642
85	0xbcba81c7	-0.02276696
86	0x3ed2fdcc	0.41209257
87	0x3f4c14be	0.7971915
88	0x3eef8b11	0.46785787
89	0x3c9268f4	0.017872311
90	0x3c6f054c	0.014588665
91	0x3f019de3	0.5063154
92	0xbf5ef40b	-0.8709113
93	0x3e1496a9	0.14510597
94	0xbf356b69	-0.7086702
95	0x3f006b31	0.5016356
96	0x3d42b5de	0.047536723
97	0x3d5cc592	0.053899355
98	0x3ef74cea	0.48300868
99	0x3eac9c70	0.33713102
100	0x3e83368e	0.2562756
101	0xbe6adbce	-0.22935411
102	0x3f5051b9	0.813747
103	0x3f1e7c80	0.6190872
104	0xbe3a7dde	-0.18212077
105	0xbe476f95	-0.19476159
106	0x3f091dde	0.535612
107	0xbe12ac15	-0.14323457
108	0x3f326d53	0.69698066
109	0x3c704e22	0.014667066
110	0x3ec2e856	0.38067883
111	0x3e936cd2	0.2879396
112	0xbde0100e	-0.10940562
113	0x3ddf92ca	0.1091667
114	0xbf4d76a6	-0.8025917
115	0xbef33e6d	-0.47508565
116	0x3ee59ada	0.44844705
117	0x3e902a33	0.28157195
118	0x3f46b003	0.7761232
119	0xbfa05499	-1.2525817
120	0x3eb31b82	0.34981924
121	0x3f16a0e6	0.5883926
122	0x3e55fed2	0.20897987
123	0x3efadf6c	0.48998582
124	0x3f3dfa09	0.7420965
125	0xbf8d4c73	-1.1038955
126	0xbf63be87	-0.88962597
127	0x3db4fb68	0.088370144
128	0xbf247fb6	-0.6425737
129	0x3ecc6af3	0.39925346
130	0xbd85fcc0	-0.06542349
131	0x3f176e8a	0.59153044
132	0x3f08b9eb	0.5340869
133	0x3f3ae3b7	0.73003715
134	0xbf222af9	-0.6334682
135	0x3e8cb2c5	0.2748014
136	0xbf02c053	-0.51074713
137	0x3e016c1e	0.126389
138	0x3f304f0f	0.68870634
139	0xbf8a6a77	-1.081374
140	0x3e0e19d8	0.13877046
141	0xbec4e481	-0.38455585
142	0x3f8a4001	1.0800782
143	0xbec5b4a6	-0.38614386
144	0x3f4b58f7	0.79432625
145	0xbf80f8ee	-1.0075967
146	0x3e745fdb	0.23864691
147	0x3eccacc4	0.3997556
148	0x3ce5a71a	0.028033782
149	0x3de9b5db	0.11411639
150	0x3f0f6c78	0.56024885
151	0x3f173d5b	0.59077996
152	0x3d996c6b	0.07491382
153	0x3f3dd7b2	0.7415725
154	0xbf3baad1	-0.7330752
155	0xbeae0b6e	-0.33993095
156	0x3f1ab731	0.6043578
157	0x3f51f4cb	0.8201415
158	0x3f4906e6	0.7852615
159	0xbf15183a	-0.5824009
160	0xbf1eb0f2	-0.6198875
161	0x3f0057c3	0.50133914
162	0x3f4cd082	0.8000566
163	0xbf25dc37	-0.64789146
164	0x3f1f9337	0.6233401
165	0x3e85cc79	0.26132563
166	0xbb8baea3	-0.0042627617
167	0xbea02604	-0.31279004
168	0x3f78866d	0.9708012
169	0x3f070901	0.52748114
170	0x3ebc1d70	0.3674121
171	0xbf8dde9f	-1.1083564
172	0x3e0df89e	0.13864371
173	0xbf535926	-0.82557905
174	0xbefe63f0	-0.4968562
175	0xbe131869	-0.1436478
176	0xbf45e294	-0.77298856
177	0x3e00e088	0.12585652
178	0x3f260865	0.6485656
179	0xbed42294	-0.4143263
180	0x3f2c4515	0.6729291
181	0xbf8e3548	-1.111001
182	0x3f21b36c	0.631644
183	0x3ec27b0c	0.37984502
184	0x3f19f60c	0.6014106
185	0xbf733e65	-0.9501708
186	0x3ea17032	0.3153091
187	0x3dd737a6	0.10508661
188	0xbf6f0bfa	-0.9337765
189	0x3e9032d5	0.28163782
190	0xbe5aac48	-0.21354783
191	0x3dcc3f2f	0.09972989
192	0xbf4f3796	-0.8094419
193	0xbef7ade6	-0.4837486
194	0xbe9c2bc9	-0.30502155
195	0xbf461e44	-0.7738993
196	0xbf36ae1a	-0.7135941
197	0x3eaf0bd4	0.34188712
198	0xbf1c1037	-0.6096224
199	0x3da3769c	0.07981607
200	0xbe8a3da5	-0.27000156
201	0xbd5485b9	-0.05188534
202	0x3f93c029	1.1543018
203	0xbf125abf	-0.5716972
204	0xbe680d8f	-0.22661422
205	0x3e4c7ba2	0.19969037
206	0xbe61abb4	-0.22038156
207	0xbdc324aa	-0.095284775
208	0x3e8445e4	0.25834572
209	0xbd998e84	-0.07497886
210	0x3f2ba172	0.6704322
211	0xbcd89ee6	-0.026442956
212	0xbdae3e8d	-0.08508024
213	0xbefb6e40	-0.49107552
214	0xbe82a82a	-0.25518924
215	0xbf215cd2	-0.6303226
216	0x3f44b07f	0.7683181
217	0xbf90058a	-1.125169
218	0x3e231074	0.15924245
219	0x3eb81fff	0.3596191

decoder.0.bias f4 [110]
0	0xbf135ed2	-0.5756656
1	0xbdb6ba65	-0.08922271
2	0x3f1eb29a	0.61991274
3	0x3f13dd61	0.5775967
4	0xbf25cfaf	-0.64770025
5	0xbe2dbb52	-0.16965988
6	0x3eab27ed	0.33428898
7	0x3e719517	0.2359203
8	0xbd247d8b	-0.04015879
9	0xbeb72f4c	-0.35778272
10	0x3da0ab84	0.07845214
11	0x3ea2c9bd	0.3179454
12	0xbe2f0199	-0.17090453
13	0xbefa6f00	-0.4891281
14	0xbf1fa3c2	-0.6235925
15	0xbec1c80f	-0.37847945
16	0xbf091c9b	-0.53559273
17	0x3e68b612	0.22725704
18	0xbc92d6ec	-0.017924748
19	0xbf12e4bd	-0.57380277
20	0x3d8a60bf	0.06756734
21	0xbe8a47f8	-0.27008033
22	0xbd9ab0c6	-0.07553248
23	0xbda4a437	-0.08039134
24	0x3e622531	0.220845
25	0x3ef28f3c	0.47374904
26	0xbeeac77f	-0.45855328
27	0xbec01c74	-0.37521708
28	0x3e4eadd2	0.20183495
29	0x3d390292	0.045168467
30	0x3ec124d3	0.37723407
31	0x3edb2e28	0.42808652
32	0xbf0fff6a	-0.56249106
33	0xbf3257de	-0.69665325
34	0xbf1102ed	-0.5664509
35	0xbf239236	-0.63894975
36	0x3da32558	0.07966107
37	0x3ee2d63a	0.44304067
38	0x3d0dbed8	0.03460583
39	0x3f3ae8e6	0.73011625
40	0x3cf7eb99	0.030263709
41	0x3cbda867	0.02315159
42	0x3f2ef4bb	0.6834218
43	0x3e9e9e19	0.30979994
44	0x3eaf4583	0.3423272
45	0xbf14ea4e	-0.5817002
46	0xbedcbe93	-0.43114147
47	0xbf13edec	-0.57784915
48	0x3f1b45d3	0.6065342
49	0xbee7f2ae	-0.45302337
50	0xbe2fb3ec	-0.17158478
51	0x3e95b1fa	0.29237348
52	0x3ecaf1cc	0.396376
53	0x3d9ec27a	0.07751937
54	0xbef81755	-0.484553
55	0x3ed4a797	0.4153411
56	0x3ebedc26	0.37277335
57	0xbec12d6c	-0.37729967
58	0xbe26e8ad	-0.16299696
59	0x3dd53364	0.104101926
60	0xbf28bddb	-0.65914696
61	0xbf07e60b	-0.5308539
62	0x3dbdd86b	0.09269794
63	0x3c91dc41	0.01780522
64	0xbce58f7e	-0.028022524
65	0xbe937c3f	-0.2880573
66	0xbede911c	-0.43470085
67	0x3f165bde	0.5873393
68	0xbf316f14	-0.69310117
69	0x3db8edbe	0.09029721
70	0xbf25c22a	-0.64749396
71	0x3d8d278f	0.06892311
72	0x3dad7e13	0.084713124
73	0xbf124607	-0.57138103
74	0x3f19dbbf	0.6010093
75	0x3f325e45	0.69675094
76	0xbf2d5ade	-0.6771678
77	0xbeff406e	-0.49853843
78	0x3d79578b	0.060874503
79	0x3f2a212a	0.66456854
80	0x3f124907	0.5714268
81	0x3f1f1070	0.62134457
82	0xbe88b9ce	-0.26704258
83	0xbee496c6	-0.4464628
84	0xbde2d1c9	-0.110751696
85	0x3e265e89	0.16247
86	0x3f1fc735	0.6241334
87	0xbf33373b	-0.7000615
88	0x3e97cf75	0.29650465
89	0xbf2d31ae	-0.6765393
90	0x3dbc4356	0.09192531
91	0x3d31ca84	0.043406025
92	0x3da2482d	0.07923923
93	0x3ec41143	0.3829442
94	0xbdeeffb1	-0.11669863
95	0xbe1a7501	-0.15083696
96	0xbee26eba	-0.44225103
97	0x3f1ef177	0.62087196
98	0x3e4cfa42	0.20017341
99	0x3f2bacde	0.6706065
100	0x3f0c4b39	0.5480228
101	0x3e2b593a	0.16733256
102	0x3f213ab1	0.6298018
103	0x3f30f1b2	0.691188
104	0x3eab47d8	0.3345325
105	0x3de34d69	0.11098749
106	0x3f1dc14b	0.61623067
107	0xbf1c5d08	-0.61079454
108	0x3dc17cea	0.094476536
109	0x3ef3f22f	0.4764571

decoder.2.weight f4 [221, 110]
0	0xbdaec108	-0.085329115
1	0xbde1af6b	-0.110197864
2	0x3cb640e7	0.022247745
3	0x3da1cc47	0.07900291
4	0x3ca96e76	0.020682555
5	0xbd0e62fc	-0.034762368
6	0x3d844dd2	0.064601555
7	0xbd421f24	-0.04739298
8	0x3deb784c	0.11497554
9	0x3b8d6170	0.004314594
10	0xbd38e1a3	-0.04513706
11	0x3de90040	0.11377001
12	0x3d81cd44	0.063379794
13	0xbd99c52a	-0.07508309
14	0xbd813f0a	-0.06310852
15	0xba89ae93	-0.0010504298
16	0xbdc2ccf5	-0.09511749
17	0x3c6328a9	0.013864675
18	0x3deca15d	0.11554215
19	0xbd9a51ef	-0.07535159
20	0xbd9e8225	-0.07739667
21	0x3d8623cc	0.065497965
22	0xbd8d433a	-0.06897588
23	0x3ea2b745	0.3178045
24	0xbe8ad169	-0.27112892
25	0xbd7f1df5	-0.06228443
26	0xbcd6922d	-0.026192749
27	0xbdb37cf0	-0.08764064
28	0xbd67880e	-0.056526236
29	0x3dad6ea8	0.08468372
30	0xbda0e21a	-0.078556255
31	0xbd7fe586	-0.06247475
32	0xbd88a596	-0.06672208
33	0x3bada157	0.005298774
34	0xbd0548cb	-0.032540124
35	0xbca95a0b	-0.020672819
36	0x3d383589	0.04497293
37	0x3daae238	0.08343929
38	0xbc106f4e	-0.0088156
39	0x3c3238f4	0.0108778365
40	0x3cc90c94	0.02454213
41	0x3cc2a567	0.02376051
42	0x3d3ddba8	0.04635206
43	0x3dda4f72	0.10659684
44	0x3d39039c	0.045169458
45	0x3d5612e9	0.052264128
46	0xbc824e7f	-0.01590657
47	0x3d711a44	0.05886294
48	0xbc71ccda	-0.014758313
49	0x3c6f763f	0.014615594
50	0xbc15d3c7	-0.00914473
51	0xbd86ece8	-0.06588155
52	0x3da393c4	0.079871684
53	0xbd8957c5	-0.06706194
54	0x3be254c7	0.006907079
55	0x3d432689	0.047644172
56	0x3ca231be	0.01979911
57	0xbd01392c	-0.031548664
58	0x3dda81b6	0.10669272
59	0xbd247adb	-0.040156227
60	0x3d9025f1	0.07038487
61	0xbb52eb9d	-0.0032183893
62	0x3dd670da	0.104707435
63	0x3cc70472	0.024294112
64	0x3d1f3b56	0.038874947
65	0x3d961cd6	0.07329719
66	0x3dd30112	0.103029385
67	0x3cddb2ca	0.027062792
68	0xbb7018d6	-0.0036635897
69	0x3e4c6a44	0.19962412
70	0xbd8d20b6	-0.06891005
71	0xbd6783b2	-0.05652208
72	0x3c7baac0	0.015360534
73	0x3d3822e3	0.044955146
74	0x3de141e4	0.10998896
75	0xbc4bd1da	-0.012440169
76	0x3d666061	0.056244258
77	0xbd9063dd	-0.070502974
78	0xbd4f5c4b	-0.050625127
79	0x3c86b758	0.016444847
80	0x3d5c7a76	0.053827725
81	0x3d570397	0.052493658
82	0xbd5f7b84	-0.054561153
83	0xbc78af7c	-0.0151785575
84	0x3dd524d2	0.104074135
85	0xbe96a3ec	-0.29421937
86	0xbc58a4f1	-0.013222919
87	0x3cbc1196	0.022957604
88	0xbd97fc45	-0.074211635
89	0xbd8d8d7e	-0.06911753
90	0x3c500e31	0.012698696
91	0x3df063d5	0.117377914
92	0x3cc38e24	0.023871489
93	0x3d591eb8	0.05300781
94	0x3e6b4ea4	0.22979218
95	0xbce17695	-0.027522365
96	0xbdad4d5e	-0.08462022
97	0xbc97dae2	-0.018536989
98	0x3da63f36	0.08117525
99	0xbd840623	-0.06446483
100	0x3d068910	0.032845557
101	0xbdaf3006	-0.085540816
102	0x3dd03b69	0.101675816
103	0x3d98e21d	0.07465003
104	0x3cb975d2	0.022639189
105	0xbd22d5dc	-0.039754733
106	0x3ddc9cea	0.107721165
107	0xbc98dfa6	-0.018661331
108	0x3d9a1699	0.075238414
109	0x3ca9258a	0.020647783
110	0xbcd65fba	-0.026168693
111	0xbda2dc24	-0.07952145
112	0xbd4856c9	-0.04891089
113	0x3cd2cac2	0.025731448
114	0x3d55b174	0.052171186
115	0xbd0d7d17	-0.034543123
116	0x3ce62eae	0.02809843
117	0x3cb02e6e	0.021506514
118	0xbbf92b4a	-0.0076040374
119	0xbd2b36d5	-0.04180034
120	0xbb92d290	-0.0044806674
121	0x3d0ef33d	0.03489994
122	0xbd04264d	-0.03226309
123	0xbd9aa1f3	-0.075504206
124	0xbb61f016	-0.0034475378
125	0xbd9d7e4c	-0.07690105
126	0xbb49b81f	-0.003077991
127	0x3d0f741e	0.035022847
128	0x3d553d2d	0.052060295
129	0x3d25a814	0.040443495
130	0x3da46d59	0.08028669
131	0x3daca4ff	0.08429908
132	0xbd9768e8	-0.07393056
133	0xbef4ad51	-0.4778848
134	0x3e211a7d	0.1573276
135	0xbd48ef20	-0.049056172
136	0x3d7a9aab	0.06118266
137	0x3d93df1e	0.072202906
138	0x3dc6d696	0.09708898
139	0x3d25d1fc	0.04048346
140	0x3d8ceb0f	0.06880771
141	0x3e54d448	0.20784104
142	0xbccaf318	-0.02477412
143	0xbd101740	-0.035178423
144	0xbd063d0d	-0.032773066
145	0xbd4daf05	-0.05021574
146	0x3d419772	0.04726357
147	0xbbc25c61	-0.0059314226
148	0x3b20ef38	0.0024556648
149	0xbd1636f2	-0.036673494
150	0x3c8e7eeb	0.017394504
151	0x3dab1c3a	0.08354993
152	0xbd6e6d17	-0.058209505
153	0x3d16023e	0.036623232
154	0xbb3b32b5	-0.002856416
155	0x3d2c64bf	0.042088266
156	0x3d9b89ad	0.07594619
157	0x3d4928ab	0.04911105
158	0x3b5d822e	0.0033799517
159	0xbcf7662f	-0.030200092
160	0xbdcdcb9a	-0.100485995
161	0x3c2933b9	0.010327273
162	0xbcaad1d8	-0.020852014
163	0xbc555481	-0.013020636
164	0x3d2ed11e	0.0426799
165	0x3d3ad5b1	0.04561395
166	0xbd730de0	-0.059339404
167	0x3db4ec8f	0.088341825
168	0x3da1a185	0.078921355
169	0x3e23b850	0.15988278
170	0xbd074e1d	-0.03303348
171	0x3c819a71	0.015820714
172	0xbd440529	-0.047856484
173	0xbac67dfe	-0.001514375
174	0xbeb8aaaf	-0.3606772
175	0x3d1d8515	0.038456995
176	0x3db1eabb	0.086873494
177	0xbc8e2c26	-0.017355036
178	0x3d51b0f1	0.051194135
179	0x3cc93c10	0.024564773
180	0xbd2100ad	-0.039307285
181	0x3e1ec3f6	0.1550444
182	0xbd13b9e9	-0.03606597
183	0x3d9d1c35	0.07671396
184	0x3c73d8a4	0.014883194
185	0x3a99e325	0.0011740668
186	0x3dea82f8	0.114507616
187	0xbceeb2b6	-0.02913795
188	0xbdde725b	-0.10861655
189	0x3dd45a28	0.103687584
190	0x3ddfdd11	0.10930837
191	0x3da3efdb	0.08004733
192	0x3d2efae1	0.042719726
193	0x3d877005	0.06613163
194	0x3d9aa08d	0.07550154
195	0x3ebb7d08	0.3661883
196	0xbd853ab0	-0.065053344
197	0xbd92b785	-0.0716391
198	0x3d9e6873	0.07734766
199	0x3c7bf473	0.015378105
200	0xbd54ff63	-0.05200137
201	0xbe2c0861	-0.16800071
202	0xbd05eb93	-0.032695364
203	0xbdad8630	-0.0847286
204	0x3d34294e	0.043984704
205	0xbd6d608e	-0.05795341
206	0xbc791852	-0.015203552
207	0xbcb6f1dd	-0.022332126
208	0x3c8706aa	0.01648267
209	0x3c972514	0.018450297
210	0x3a5ac16d	0.0008344863
211	0x3e36d5b0	0.17854953
212	0x3d093d72	0.033505864
213	0xbc316bc4	-0.010828916
214	0xbc4bec3e	-0.012446461
215	0xbd04d848	-0.032432824
216	0x3cfe56f0	0.031047314
217	0x3d88a207	0.06671529
218	0xbcbfbfee	-0.023406949
219	0xbc6c00a9	-0.014404454
220	0xbc13c90d	-0.009020102
221	0xbed13740	-0.40862465
222	0xbd0c8561	-0.034306888
223	0x3cf62b55	0.03004996
224	0x3dc2b302	0.09506799
225	0x3d872ef8	0.066007555
226	0x3da1207b	0.07867523
227	0x3d58c0c5	0.052918214
228	0xbe0be837	-0.13662802
229	0x3c909604	0.017649658
230	0xbc02cf3a	-0.007983977
231	0x3dc62abf	0.09676122
232	0x3dce064a	0.10059793
233	0x3d1a35f1	0.0376491
234	0x3dfd8116	0.12378137
235	0x3d42c022	0.047546513
236	0x3b8eb8de	0.004355534
237	0x3bdfabe6	0.006825912
238	0xbe2643e0	-0.1623683
239	0xbcc17d55	-0.023619333
240	0x3e811ede	0.25218862
241	0xbdbbc12d	-0.09167705
242	0xbe3eaba2	-0.1862016
243	0xbecce12b	-0.4001554
244	0x3e8a8518	0.27054667
245	0x3d821813	0.06352248
246	0x3dcb994b	0.09941348
247	0x3d9540d8	0.072877586
248	0x3e85acea	0.26108485
249	0x3c40e226	0.011772668
250	0x3d70a172	0.058747716
251	0x3e0ca1bd	0.13733573
252	0x3deab1d0	0.11459696
253	0x3c7ee2d3	0.015557009
254	0x3d6b4233	0.05743618
255	0x3d9f4da8	0.07778484
