VAE/docs/Archive/models/corr_vae_1_best.pth (torch, 987451 bytes, 14 tensors)

encoder.0.weight f4 [221, 442]
00000000: 02f7 48bd 6c5d 4bbd 6ba9 7ebb 162a e1bc
00000010: ab2b 2ebd 915a d53c 2e02 123d ae1c 9e3a
00000020: e943 49bc 323d 0c3d a74e dcbb 0271 1c3d
00000030: daf8 f03c 096a 1c3d 3bcc 1b3d 6fd1 d53c
00000040: 2ced 1d3d e070 32bd d935 2abb 902a 77bc
00000050: d297 e53b 4230 88bb f38a eabc 498e 75bc
00000060: 3b11 403d 8824 fb3c 03f6 0a3c 6b37 b0bc
00000070: a5df ffbc a9df 313d 9b7e e8bb 69f7 2abd
00000080: 4a0c 0abc c7c6 f93c b7bc 54bc 83c5 313d
00000090: 7cef 073d 5460 163d c37a 2bbd 1cc5 22bd
000000a0: 3b36 a13c caf9 22bd c0ca 793a 6cfc 563b
000000b0: a85f 223d 7d6c b5bc d711 35bd ead0 083d
000000c0: c708 b5bc 7fcd d63c 98a7 043c 2077 bcbb
000000d0: 36a9 c83c dd39 1cbd 1443 f73c af4d 423d
000000e0: 182d 39bc f0f6 bb3c e9f3 1f3d a2f5 37bd
000000f0: 29d8 90bc 1fbb 683c 6d62 283d 4283 51bc
00000100: f80c 433c f5d4 98ba 933e 523c e5f9 d6bc
00000110: 39d7 ac3c 3114 243d c1c8 93bb 14f9 5fbb
00000120: c11c bf3c 5fda 2c3d f889 04bd 023a b33b
00000130: e943 45bd 5d23 19bb f69c ddbc 4796 16bb
00000140: f9e9 b83c 38bd 47bd dddb 813c 87c5 68bc
00000150: 4b34 273d b0f9 183a ba39 54bd 7e7e 12bd
00000160: c20e 3a3c e35c 8e3b 5feb 04bd ea8a 29bd
00000170: 3c34 fa3c c4ed 06bd 5d27 03bc 23a0 0dbd
00000180: 53c0 2bbd 440c a7bb 3d56 1f3d 8265 c3bc
00000190: 209e 20bd f26c 57bd f7dc 8f3c 6507 013d
000001a0: a81d 603b 0d80 0fbd e82c b83b 53d9 f93c
000001b0: 27c9 173d 9ea9 c7bc 1dfe 253a 1ea5 36bd
000001c0: f5b3 6f3c 2989 5a3a 5874 e33a 42b0 2abd
000001d0: f14d 203d 3fae 09bd e0e9 a7bc 734e 19bd
000001e0: 47e5 cd3c 75fb 923c f72d 31bc 549e f43c
000001f0: 447e 8cba e5e8 6fbc b0f8 dabb 2759 00bd
00000200: 53ea 11bd f5d7 f13b c28f 0a3d 8087 253d
00000210: 98ae 0d3d dede 3b3d 9756 4e3c 556d 043c
00000220: b438 07bd 700c aa39 3bb8 373d ff24 90bc
00000230: 6fcc 3b3d e5af c0bc a6ac b93c 0fb7 593b
00000240: 608f 453d 8f7e fdbc b0c2 20bd af9b a7bc
00000250: 6abd 473d 673a 27bd ac94 6e3c bc17 303d
00000260: de23 8fbc 34a4 0d3d 8173 f4bc c04a 0dbd
00000270: 8bde dabb ad91 4e3c 1544 efbc 6598 a13c
00000280: d43c 8b3c af25 96bb ea71 ef3c ef3b 13bd
00000290: 3e65 0f3c e415 21bb cca4 833c 0511 02bd
000002a0: fc3d 2c3d 43f8 fe3c 6e15 c7bc b661 87bc
000002b0: b92c 333d cc1b ebbc aff6 113d 7f28 b93c
000002c0: d263 48bc d5bc 7b3c f643 c2ba a747 14bd
000002d0: f667 2fbd 6f1b eabc 5941 303d 0adf 09bd
000002e0: 7ce4 9ebc ab82 ddbc 2c4a d53c 8a5d 17bd
000002f0: 702e 68bc a481 20bd c068 4bbd d3f9 2c3d
00000300: 136a d43c 4c6e f53c 95df a83b 22ee fc3b
00000310: da6a 16bc 3475 acbb 6f68 c7bc fc56 a33c
00000320: 310a 97bc 2c31 40bd 3f12 ffbc e4a6 e2bc
00000330: 00c8 d8bc ce53 b4bc e9fd bfbb 44da 05bd
00000340: 7a48 3d3d 656d db3b 799d 0cbd 5d34 1b3d
00000350: 1f49 f0bc 0915 f63c 148a 4e3c 1ca4 cbbc
00000360: ce72 2bbd c924 8e3b 2710 dbbc fd7e e2bb
00000370: 6830 de3c 7be8 14bd 2eb7 37bd 7104 373d
00000380: da1c 46bd 1235 b3bc 6f35 5fbc 0bdb 32bd
00000390: c88c 00bd 6bf0 8a3c b875 033d 969a c8bc
000003a0: 2565 e0ba 8498 ebba 6b63 b83c 723f a8bc
000003b0: 0a24 e53c 3e62 31bd 4c0f f33c b3af 0f3c
000003c0: 4b74 42bd d262 47bd dd30 83bc 10bb d8bc
000003d0: cd3a abbb dde6 c83c d751 a4bb bf9d bb3c
000003e0: 4283 8dbc 2db7 2e3c ae26 d43b a23c 35bd
000003f0: d8a8 3e3c 2b80 1ebd 10a9 793c 095a 38bd
-0.04906369 -0.04964964 -0.0038858305 -0.027485888 -0.042522114 0.026044162 0.03564661 0.001206299
-0.012284257 0.034238048 -0.0067232433 0.03819371 0.029415537 0.03818706 0.038036566 0.026100842
0.038556263 -0.043564677 -0.0025972037 -0.015085831 0.007006624 -0.0041561434 -0.02863071 -0.014987537
0.046891432 0.030657068 0.008481505 -0.0215108 -0.031234572 0.04342619 -0.0070951707 -0.041739855
-0.0084257815 0.030490292 -0.012984446 0.043401252 0.033187374 0.03671296 -0.04186512 -0.03973876
0.01967918 -0.039789 0.00095288083 0.0032804264 0.039642006 -0.022146458 -0.044206467 0.03340236
-0.022098912 0.026221035 0.008096598 -0.0057515055 0.024494749 -0.03814112 0.030183353 0.047437366
-0.011302255 0.022944897 0.03905097 -0.044911988 -0.017681198 0.014204769 0.04110949 -0.012787642
0.011904947 -0.0011660146 0.012832302 -0.026242206 0.02109872 0.04005832 -0.0045100157 -0.0034175562
0.02332914 0.042200442 -0.03235814 0.0054695616 -0.048160467 -0.0023367025 -0.027052384 -0.0022977756
0.022572504 -0.048764437 0.01585191 -0.01420725 0.040821355 0.0005835546 -0.051812865 -0.035765164
0.011356058 0.004344569 -0.03245103 -0.041392244 0.030542485 -0.032941595 -0.00800499 -0.034576546
-0.04193146 -0.0050978977 0.038900603 -0.023852114 -0.0392133 -0.052594133 0.017561419 0.031501193
0.0034197364 -0.035034228 0.0056205876 0.030499136 0.03705707 -0.024372872 0.00063321163 -0.04459106
0.014630307 0.00083364785 0.0017353399 -0.041672 0.03913683 -0.03361344 -0.020497262 -0.03742833
0.025133742 0.01794217 -0.0108141815 0.029860653 -0.0010718782 -0.014642929 -0.006682478 -0.031335022
-0.03562386 0.0073804804 0.033828504 0.040412426 0.034590334 0.04586684 0.012593887 0.008082707
-0.03301306 0.00032434193 0.04485343 -0.017595766 0.04584926 -0.023521373 0.022665333 0.0033220684
0.048232436 -0.030944137 -0.03924817 -0.020459978 0.048764624 -0.04082718 0.014561813 0.042991385
-0.017473157 0.034580424 -0.029840233 -0.034495115 -0.006679361 0.012607974 -0.029207269 0.019725988
0.016996779 -0.004582129 0.029229123 -0.03594583 0.008752165 -0.0024579698 0.016069792 -0.031754512
0.0420513 0.03112424 -0.02430221 -0.016526084 0.043743823 -0.028699778 0.035635646 0.022602318
-0.01223083 0.015364845 -0.0014821279 -0.036201145 -0.042823754 -0.028577534 0.04303107 -0.033659972
-0.01939606 -0.027039846 0.026036344 -0.03695444 -0.014171228 -0.039186135 -0.049660444 0.04223044
0.025929486 0.02995982 0.005153606 0.0077188173 -0.009180749 -0.005262995 -0.02434179 0.019938938
-0.018437477 -0.046921894 -0.03113663 -0.02766747 -0.026462555 -0.022012617 -0.005859126 -0.032678857
0.046211697 0.0066963905 -0.034329865 0.037891734 -0.029331742 0.030039327 0.012606163 -0.024858527
-0.041857533 0.004337881 -0.0267411 -0.006912111 0.027122691 -0.036354523 -0.04485243 0.04468197
-0.04836736 -0.021875892 -0.013623579 -0.043665927 -0.03138426 0.016960343 0.032094687 -0.024487775
-0.0017119987 -0.001797453 0.022508344 -0.020538066 0.027971286 -0.04330658 0.02967038 0.008769917
-0.047474187 -0.048678227 -0.01601451 -0.026456386 -0.0052255155 0.024524147 -0.005014639 0.022902368
-0.017274503 0.01066379 0.0064743375 -0.044247277 0.011636935 -0.03869645 0.015238062 -0.04500774

encoder.0.bias f4 [221]
00000000: 73ac 0fbc dca7 0dbd 3a7f ee3b 113f 8c3d
00000010: 6ca4 97b8 ae30 e93c 3d76 c33b 604d dcbc
00000020: 3846 b0bd 1182 38bc 7003 00bd acce a0bd
00000030: 16a3 b0bd c117 89bb 9278 45bd 7a05 693c
00000040: 28d8 7dbd d86e bd3c 1df0 083d a18b 0fbb
00000050: 96b3 ed3b eff8 9f3d ce03 1ebb 430d e8bc
00000060: 0994 b5bd 4b94 863d 2a1e 723d 78fc 583d
00000070: ecd8 b93b e21a 08bc feb6 173d 15e4 e93c
00000080: 615c 5d3c b434 293d 2a70 353d 09d0 a93c
00000090: 24de 1dbd d56c 67bd 1254 8f3d c979 ce3d
000000a0: 479f 55bb 2338 91bd 6796 c3bd d463 02bd
000000b0: 0302 863c cb92 b5bc 64ab 993d 1072 a3bd
000000c0: c56f 833c 272a 30bd 4c6a 8c3c e37e 213d
000000d0: 7d00 62bc ab2f 703d af23 ff3c 4e08 87bd
000000e0: 26ed 983d 6f5c 863d abed 563d f611 4fbd
000000f0: 4016 7f3d 4166 213d 2900 f93c 09fa 38bd
00000100: 39a8 cf3d d287 d33c 9ad0 a63d 665b c0bd
00000110: d4f7 9f3d df86 debc eded 6ebc daec 19bd
00000120: ed8f 6e3a b53e 6f3d 85f5 0f3d 2da2 813d
00000130: 5894 fd3c 8b3c 913b 2120 59bd 41e5 8fbd
00000140: a93c cfbc 9c95 e73c 0564 89bd c94b 183d
00000150: 8b2f 9fba 271d 523d 79d5 3fbd 3c1c 41bb
00000160: 1ae2 62bd 10e8 2bbb 893e 80bd 63f5 993d
00000170: ccad 893c c0c9 d63b 4f43 94bd 60d1 f6bc
00000180: 7460 60bd abe3 bfbb e1ff 65bd 55b1 633c
00000190: 4a31 943d 9357 853d 6c32 d63c 49ac 87bd
000001a0: 491a 94bd bbeb 59bc b423 723b f215 ed3c
000001b0: 0344 053c 7c9a 6dbd 91b6 8c3d 6e29 ac3c
000001c0: 36cc 6f3c 2c8b 79bd 1b06 9e3d c24c 403d
000001d0: 9151 09bd 2968 873c b2c3 bb3d 773d 86bd
000001e0: 9c29 223d 3e04 7a3d 80de ddbb 05d6 933d
000001f0: 54c1 ad3c d948 8e3c 3d69 63bc a581 07ba
00000200: 5af6 743d 06c4 65bc 9422 11bd 0a7a 953d
00000210: fd9f 893d ddfe 54bd 9e3b b63d 973e 33bd
00000220: 711a b0bd 9b4b afbd f251 c0bc af4a 913d
00000230: edce 8d3d dae6 91bc 897b 8fbd eb40 ce3d
00000240: e1c9 db3d d958 83bc 9793 b73d a0f3 2b3d
00000250: 475e 14bd 9c75 b4ba 3409 75bd 96cf 93bd
00000260: 475a 91bd b5d2 2dbd f702 e4bc 276b c03b
00000270: a594 97bd 37d3 193d 1039 253d 89fa 9e3d
00000280: e209 eb3c 9bdb 593d 5180 38bb fee9 3cbd
00000290: 237d bebd dbfb 27bb 8b0b 58bd 6f34 703d
000002a0: d442 193b 2f00 fd3c d532 59bd a498 723c
000002b0: e719 8ebb 8c8a ab3c a434 94bd 4c72 f5bc
000002c0: 189f 2c3d 87eb d03c 20ca b63b 7f78 e13c
000002d0: 467d 8fbd b62c e4bc 543a 94bc c98c bfbd
000002e0: d7ff 8c3d bc53 ad3c a1e9 913d f938 74bc
000002f0: 0504 46bb 9993 ce3c 7f3c 923d bc1d 7abc
00000300: d2c9 49bd 0a64 dd3c 952b a63b b05d bc3c
00000310: b198 26bd c85e 8a3d a89b 9b3d 0569 31bd
00000320: ee41 12bd eda8 7dbd 9ed2 633d f7f5 083d
00000330: 9deb 0d3c 162e 17bd 5be6 4a3d eab5 aa3d
00000340: ff0a 963d ba95 f0ba 618a b43c 0721 13bd
00000350: 8848 c1bd 1477 1bbd 5a96 89bc f05f 8eba
00000360: ef5f 57bc 61d4 f7bc d5bf e23a fa6c 8abd
00000370: 7100 95bc
-0.008769142 -0.03458391 0.00727835 0.068479665 -7.230867e-05 0.028465595 0.005965023 -0.026892364
-0.08607143 -0.011261479 -0.03125328 -0.078519195 -0.08624856 -0.00418374 -0.048210688 0.014222497
-0.06197372 0.023124143 0.033432115 -0.0021903294 0.0072540743 0.07811152 -0.0024111154 -0.028326636
-0.08866126 0.065712534 0.059110798 0.052975148 0.005671611 -0.008307191 0.03703975 0.02855114
0.013510794 0.041310027 0.04429642 0.020729082 -0.038541928 -0.056500275 0.06998457 0.100818224
-0.0032596157 -0.07090785 -0.09550171 -0.031833485 0.016358381 -0.022164723 0.07503393 -0.0798074
0.016044507 -0.04300895 0.01714053 0.03942765 -0.013794062 0.05863921 0.031144945 -0.06593381
0.074671075 0.06560599 0.05247275 -0.05055424 0.06227708 0.039404158 0.030395584 -0.045160327
0.10139508 0.0258216 0.08145256 -0.09392433 0.07810941 -0.02716392 -0.014583093 -0.037579395
0.0009100426 0.05840941 0.035146255 0.06329761 0.030954525 0.004432266 -0.053009156 -0.070261486
-0.02529748 0.028269581 -0.0670853 0.03718165 -0.0012144906 0.051297333 -0.046834443 -0.0029466292
-0.05539141 -0.002623085 -0.06261928 0.07517507 0.016806506 0.006554812 -0.072394006 -0.030129135
-0.054779485 -0.0058559976 -0.05615223 0.01389726 0.07235964 0.06510844 0.02614709 -0.06624658
-0.07231576 -0.013300831 0.003694755 0.028941128 0.008133891 -0.058008656 0.06870759 0.021015849
0.01463609 -0.06092374 0.07716008 0.046948202 -0.033525053 0.01652916 0.09168185 -0.06554692
0.039590463 0.061039202 -0.006770909 0.07218555 0.02121035 0.01736872 -0.013880071 -0.000516916
0.05980525 -0.014023786 -0.035433367 0.07298668 0.067199685 -0.05200087 0.0889809 -0.043760862
-0.08598793 -0.085593425 -0.023476575 0.07094323 0.069242336 -0.017810274 -0.07005984 0.10070976
0.10731865 -0.016033577 0.089636974 0.041980386 -0.036222722 -0.001376796 -0.05982323 -0.07217328
-0.07097297 -0.042437274 -0.027833445 0.0058721486 -0.074013986 0.037554946 0.040337622 0.077626295
0.028691236 0.053187948 -0.0028152654 -0.04612159 -0.09301212 -0.0025632295 -0.052745383 0.058643755
0.002338578 0.030883877 -0.053026993 0.0148069 -0.004336584 0.020940088 -0.07236603 -0.029961728
0.04214391 0.025502933 0.0055782944 0.027523277 -0.07006316 -0.027853351 -0.01809422 -0.093530245
0.06884735 0.021158092 0.07124639 -0.014906161 -0.0030214798 0.025216864 0.07140445 -0.015265878
-0.049264736 0.027025241 0.0050711134 0.022993892 -0.04067296 0.06756359 0.075980484 -0.043313045
-0.035707407 -0.06192868 0.055620782 0.033437695 0.008662132 -0.036909185 0.04953609 0.083354786
0.07326316 -0.0018355169 0.02203864 -0.03592017 -0.09437662 -0.03795536 -0.016795326 -0.0010862332
-0.013145431 -0.030252637 0.0017299602 -0.06759067 -0.018188687

encoder.2.weight f4 [110, 221]
00000000: 1abc c83b 9e52 8abd ce17 3bbc a0a9 df3c
00000010: 18ba febb 2c1a 7fbd 0a73 13bd 89e0 50bd
00000020: 5a9a 633d 42e0 673d 684c 573b 1ad3 593c
00000030: 86dc a23c f9d2 1dbd 9cd6 7abc 816d 83bc
00000040: 8707 62bc 81f5 993c cdf8 73bd 7829 43bd
00000050: 1283 22bb 9f70 6fbc 9cf1 8bbc 7232 59bc
00000060: 774c 673d 3558 2d3d 7d57 a83c c58c 0ebd
00000070: f41f 45bd 44ad 9fbd 5400 6d3c dadf 75bd
00000080: 47ae 183c 979f d8bb 7301 04bd b53b 81bd
00000090: 526e 8c3d df9c 163c 7af4 64bc 51fe b53d
000000a0: 183a 8e39 da08 11bd 4df4 f03c d9a7 82bd
000000b0: 84cf 7dbc 8506 5f3d 6c33 843d bdaa 373d
000000c0: 600c 97bd 5d3c 533d a1df 94bc 4855 90bc
000000d0: 067e 7b3d 20b5 7b3d b372 67bd ca93 32bd
000000e0: cf60 363c 1c6e 32bd 7188 30bc 93af 393d
000000f0: e7ec ff3c 4e38 553d 5583 15bd caec ed3c
00000100: 7eee 29bd f41b 9cbd 2834 073d aab6 823d
00000110: b208 72bd f5ef 2fbc 5f5b 90bd c9e4 613c
00000120: 04b5 5c3c 9ad6 993d c853 87bd 8eed 66bd
00000130: 0f37 b539 29d2 423d 94c7 52bc 4194 6cbc
00000140: 41b9 473d 013b 0f3d ce1b 76bd 61e6 ee3c
00000150: 64c9 abbc ae23 413d 66c4 81bd 462b 8abd
00000160: 7f93 1ebd 462e 4abd dade 713d 0a06 8d3c
00000170: 76c3 e2bb 7b8d 39bd 8f6e 61bd b376 6e3d
00000180: 3308 05bd 9814 1abc ae4b 373c 4dbf 9fbc
00000190: 2df2 8ebd c9c8 1f3d 7b5b bfbc 6f6a 03ba
000001a0: 3a8a 79bd ac6a 15bd 9cdb 6dbb 6e8a 493d
000001b0: 9963 d3bc 12cc eaba 2a40 aabb c794 263d
000001c0: 7d75 91bd 9b3c 5dbd c131 abbb a60a 1dbd
000001d0: 59d8 dabc 6e06 f13b 9650 16bd 93f5 503d
000001e0: b618 68bd 3b04 70bd b096 af3c 7861 b3bc
000001f0: cc67 ad3c a418 56bd 2e93 b63d 9ecd 8fbc
00000200: f76c e13b 3ffe 37bd 2496 933c 6ad0 13bd
00000210: 1672 423b 353a 13bd 338c 94bd 4e7e 4e3d
00000220: d563 94bb 7708 653b 4eca 98bc 7009 0b3d
00000230: ef89 4b3c 7e23 963d f445 3abc 4e40 d83b
00000240: 2b65 a8bc 747e 6cbc e893 98bd ba69 1d3b
00000250: 98ea 733d bc78 2ebc a077 7abd 4547 a8bb
00000260: 65d1 5f3d 9209 8a3d aef5 0ebc 8ed6 aabc
00000270: d2a4 36bd c326 1c3d 675d 323b 81af 0a3d
00000280: 6b49 9abd 12a7 37bd 609a 6ebd 7068 1b3d
00000290: e1c7 4cbd 9df7 bfbc 45f9 39bc 2669 183d
000002a0: 803e 76ba 8229 8c3c f77c fcbc 8c2b a3bd
000002b0: 1a0d 15bd 4565 24bd 22ef 69bd 8f96 80bd
000002c0: 9438 993c bec4 45bd 2854 1a3c 1f3c 76bd
000002d0: 6cf6 ae3d 3a3c 423d a8eb ccbd ef44 27bb
000002e0: a608 4a3d 7def b8bd 845c 503b 12e8 4bbb
000002f0: 58c7 2dbd 506a 05bd 16a7 51bd 6de6 3b3d
00000300: e65b fbbc e355 83bc 7f48 213d df0f 683d
00000310: 41a4 40bc 65c1 e53c db18 323c 6e5c 3fbd
00000320: b864 3d3a 5eaa dc3c e27a ba3c 1415 b5bd
00000330: 9f53 6cbd 3841 bd3c e593 b3bc 5ddb 5cbd
00000340: 835c e23c 5071 593c 8a57 b6bc 823b c73b
00000350: 58c0 17bd ce7b a5bc fb7a 91bc d88e babc
00000360: 1161 02bc fcef 49bd f669 aabd 76e5 023c
00000370: c311 26bc 0c7d 13bd 63f1 c33a e0d2 54bd
00000380: af43 983d ec74 823d fb4b 113c 483a 00bd
00000390: 3e1a 0dbc 07e9 ee3c b3a0 5cbd ecfe 793b
000003a0: 71b4 16bd c3c1 3a3c 6537 46bd 98a8 04bc
000003b0: e63e 5abd 4716 9dbc 4290 503d bc39 7e3d
000003c0: 42da ed3c 7bb3 403d d88b bc3c ef4e 913d
000003d0: 5925 063d 28a3 273d 7be5 8c3c ce75 193d
000003e0: 79db b03c 3b77 bf3d 3ab9 6c3c 0ad4 ef3a
000003f0: 6b3c 073d 1cc6 7c3d e46f c5bb 93da 7ebb
0.006125939 -0.06754039 -0.01141925 0.027302563 -0.007773649 -0.06228082 -0.03599838 -0.050995383
0.055567123 0.056610353 0.0032851938 0.013294959 0.019880544 -0.038531277 -0.015309956 -0.016043426
-0.01379574 0.018793823 -0.059563447 -0.04764697 -0.0024797362 -0.014614253 -0.017082982 -0.013256656
0.056469407 0.04232045 0.02054953 -0.034802217 -0.048126176 -0.0779672 0.01446541 -0.060027935
0.009318895 -0.0066108215 -0.032227945 -0.06310216 0.068569794 0.009192674 -0.013974303 0.08886398
0.00027127634 -0.035408832 0.029413367 -0.06379671 -0.01549137 0.054449577 0.064551204 0.044840563
-0.07375407 0.05157124 -0.01817304 -0.01761879 0.061399482 0.06145203 -0.05650587 -0.043597974
0.011131479 -0.04356204 -0.010774718 0.045333456 0.031240894 0.05205565 -0.0365022 0.029043574
-0.04148721 -0.07622519 0.033008724 0.06382497 -0.059090324 -0.010738363 -0.07048678 0.013787457
0.013470892 0.07511635 -0.06607777 -0.056378894 0.00034564032 0.047563706 -0.012864966 -0.014439643
0.048760656 0.03496838 -0.06008511 0.029162588 -0.020970054 0.047153167 -0.06336288 -0.06746535
-0.038714882 -0.049360536 0.05905042 0.017214794 -0.0069202734 -0.045300942 -0.055037078 0.05821867
-0.032478523 -0.009404324 0.011187477 -0.019500399 -0.06979785 0.039009843 -0.023359051 -0.0005013113
-0.06092284 -0.036478683 -0.0036294227 0.049204282 -0.025804328 -0.0017913601 -0.0051956372 0.04066923
-0.07102487 -0.054012876 -0.005224437 -0.038340233 -0.02671449 0.007355503 -0.036697946 0.051015448
-0.05666419 -0.058597784 0.021434158 -0.021897063 0.021167658 -0.052269593 0.08914791 -0.0175541
0.0068794447 -0.044920202 0.018015929 -0.03608743 0.0029670051 -0.035944182 -0.072533034 0.050413422
-0.0045285025 0.0034947672 -0.018651154 0.033944547 0.012423023 0.07330988 -0.011369217 0.0065994626
-0.020556053 -0.014434446 -0.07450086 0.0024019317 0.059549898 -0.0106489025 -0.06114924 -0.005135449
0.054643054 0.06740107 -0.008725567 -0.02085426 -0.04459078 0.038122904 0.0027216317 0.03385878
-0.075335346 -0.044837065 -0.058252692 0.037941396 -0.049995307 -0.0234335 -0.011350934 0.037209652
-0.00093934685 0.017109636 -0.030821307 -0.0796729 -0.036389448 -0.04013564 -0.05711282 -0.06278717
0.018703736 -0.04828333 0.0094194785 -0.06011593 0.08543095 0.047420718 -0.10005885 -0.0025523265
0.049324654 -0.09030054 0.0031793425 -0.0031113666 -0.042426437 -0.03257209 -0.051184736 0.045874048
-0.030683469 -0.016032165 0.03937578 0.05665576 -0.011757911 0.02804632 0.010870184 -0.046719007
0.0007224786 0.026936706 0.022763673 -0.08841911 -0.057696935 0.023102388 -0.021921108 -0.05392014
0.027632004 0.013271645 -0.022258539 0.006080092 -0.037048668 -0.020200636 -0.017758837 -0.022773191
-0.007957713 -0.049301133 -0.08320992 0.007989278 -0.010136071 -0.036007926 0.0014949258 -0.05195892
0.074347846 0.06369957 0.008868213 -0.03130558 -0.008612214 0.02916385 -0.053864192 0.003814633
-0.036793176 0.011398735 -0.048392672 -0.0080968365 -0.05328264 -0.019175662 0.050918825 0.06206678
0.029034737 0.047046166 0.023015901 0.070951335 0.03275046 0.040927082 0.017199269 0.037465863
0.021589028 0.09348913 0.014448458 0.0018297445 0.033016603 0.06171237 -0.0060253013 -0.0038887605

encoder.2.bias f4 [110]
00000000: c8cd 913c d8e2 a7bb df98 ecbc 902f 873b
00000010: d9ed 0a3d f087 153d ecbe 4cbd fb71 9ebd
00000020: 7508 9abd 57ef b2bd b7c0 6c3d a6bf a13c
00000030: e56b 02bd c0dc 7c3d eb70 b9bd a8dd cdbc
00000040: 5e03 963d 6bc4 01bd 56b6 50bd 05b2 85bd
00000050: da23 0dbd b541 233d 52fe 863c bf77 64bc
00000060: 3f17 1f3c d8e4 383d 30fb 28bd 9bbe b7bc
00000070: dd6a 2dbd 115d 9e3d b023 2fbc e607 60bb
00000080: ec62 e9bc 612a 73bd 208f 90bc 4770 99bd
00000090: 7867 04bd aeff e4bb 857e 33bd c8ef 9f3c
000000a0: ad2c 663d 4c4e 933d da4b b6bc aafd 0a3c
000000b0: 95f7 19bd 78ca cb3d 7f03 373d 45ea 8abd
000000c0: 1598 a73d 9098 d03b d354 22bd ed7e 06bd
000000d0: a3f1 053b eeb2 56bb ccc0 b93d 5b30 c8bb
000000e0: ed01 643c 45b9 3bbc fdeb e83c a73d 8a3c
000000f0: 4133 683c 12de 593d 5a86 813c 8f07 10bc
00000100: 9ea6 90bd a3b7 5b3d 1304 87bd e48c 94bd
00000110: b820 fb3c b0a5 583d 17a8 b5bc 181b b5bc
00000120: f17e 743d d66c 6e3b 55c9 003d 4d9d edbc
00000130: 8384 1abd 6eaf 483d d82c 883d 8347 843d
00000140: 5181 8cbd bb61 32bd 39e7 513d f6a6 dabc
00000150: 674a 91bd b52a 1e3d 7bd2 573d 1d0b 473d
00000160: 2080 a4bd 7c84 7a3d a6dd c33c 76df 543d
00000170: 10ad b5bd 502b 903b 0ac0 653c f3d3 1ebd
00000180: 31a6 823d c5bb 1a3d 3c5c 2b3d df1c 1b3d
00000190: f2b4 353c db13 60bd 895d c8bd 8d83 92bd
000001a0: f347 8ebd 8fd9 b43b 7db7 d0bd 5b83 0b3d
000001b0: 2067 7dbd 266b 683d
0.01779832 -0.0051234774 -0.028881488 0.004125543 0.033918235 0.036506593 -0.049986765 -0.07736584
-0.07521144 -0.08737057 0.057800975 0.019744705 -0.031841177 0.06173396 -0.090547405 -0.025130108
0.07324861 -0.03168146 -0.05095514 -0.06528095 -0.03445802 0.039857585 0.016478691 -0.013944565
0.009710132 0.045140117 -0.041255176 -0.022429755 -0.04233824 0.07732595 -0.010689661 -0.0034184395
-0.028489552 -0.059366588 -0.017646372 -0.07492118 -0.032325238 -0.006988487 -0.04382183 0.019523516
0.05619495 0.07192668 -0.022252966 0.00848333 -0.03758963 0.09950727 0.04468107 -0.067829646
0.08183304 0.006365843 -0.039631676 -0.03283589 0.0020438216 -0.003276046 0.09069976 -0.00610928
0.013916475 -0.011457746 0.02843284 0.016875101 0.014172376 0.0531903 0.015811134 -0.008790865
-0.0706303 0.053641926 -0.06592574 -0.07253435 0.03065525 0.052892387 -0.022174878 -0.022107646
0.059691373 0.003638079 0.031442005 -0.02900567 -0.03772403 0.048995428 0.06649178 0.06458952
-0.06860603 -0.043550234 0.0512459 -0.026690941 -0.07094269 0.038614947 0.052690964 0.048594583
-0.080322504 0.061161503 0.023909401 0.05197092 -0.088709 0.0043996945 0.014022836 -0.03877635
0.06379355 0.037776727 0.04183601 0.03786933 0.011090504 -0.054706436 -0.097834654 -0.071539976
-0.06947317 0.005519099 -0.101912476 0.034060817 -0.061865926 0.05674281

mean_layer.weight f4 [2, 110]
00000000: fd7f 9dbd 2949 853d 2dce b73c e7fd e1bc
00000010: be4c d43a 07d6 5d3d 332d 94bd 6ab6 7cbd
00000020: 62b9 3c3d a364 f1bc ee9d 93bd 76bc 803d
00000030: 8dab 423d 2905 e73c 3a69 fbbb 6594 97bd
00000040: f0e3 223d 327f 4a3b 7083 b6bd 559d 9dbd
00000050: 06a2 f9bd 11c9 96bd b439 4fbd fc36 ecbc
00000060: cded a13d 21d6 823d 882f b13d cdf4 503d
00000070: 5655 8e3c 19cd ebbd c189 e73c 6cf2 e4bd
00000080: c78a 00bc d304 7cbc a218 6e3d ac06 f9bd
00000090: 89aa b43c 40b3 83bc adb9 c8ba e02c 43bd
000000a0: 8c61 22be dca4 d63d 1404 fabb f137 943d
000000b0: 3d66 6cbd 2de4 003d d30a 61bc 30c5 f4bd
000000c0: 79d4 d13b d505 c03d 1e08 b3bd e91f 1fbd
000000d0: 73ef 903d dcf8 5abd 778d 6f3d ae02 973d
000000e0: d86e ee3a a791 9abd 1c6d 5bbb 8982 143d
000000f0: 5528 04bc 93b2 83bd 84ae bc3d 159c acbb
00000100: 22f2 8fbd 8af8 943c 9e58 25ba eec3 82bd
00000110: 67d7 d4bd d215 f63c 6d7a d03c 7c8b 67bd
00000120: 4fd4 dbbd 0822 3c3d 2d69 ba3d c79d ad3a
00000130: 3907 91bd cf8b b4bc c9dd af3d 8aa3 e53c
00000140: 87b2 95bc fe53 f83a 1eaa c23b 1dab 73bd
00000150: c933 103d 39cc 513d 504f 2a3d 99a8 eebd
00000160: e9f5 113d 4172 75bb 0924 013c 6507 1ebd
00000170: dbdd 043c 292d 8fbd 3882 09bd 6584 d83c
00000180: 7204 92bc 0e3c bc3d ce83 57bd 8ace c3bc
00000190: 0ba1 99bd d4ca 52bd d077 813c e840 d6bd
000001a0: 0fc7 e5bc 1ebe b5bd bf04 9fbd 64ad 9c3d
000001b0: 3292 9bbc 21a9 05be 92fa 7bbb e4b6 73bc
000001c0: 7a7f 90bd 5d37 78bd 973d 6a3d 02aa c7bd
000001d0: 725c da3d be4f f93b 9bf9 15bd a2c6 973c
000001e0: 18ad e4bc b219 a23c b00b 893d c1f7 abbd
000001f0: 4cdc 13bd 3ed0 6c3a 262a eabd 7d44 02bd
00000200: b7b8 d83b 6c99 143d da8e 20bd 2253 09bd
00000210: e084 69bd 3783 64bc c456 083d 7034 3b3d
00000220: 4de0 bd3d 2123 c2bd 8aa0 d13a 0014 abbd
00000230: e1ed 743d 8db0 57bd 8e94 c1bc aad3 0dbd
00000240: d679 db3c a32a 71bd 36e5 a9bc 23d4 b83d
00000250: 1085 af3c 85ed 24bd eb4d 30bd 0bb7 513d
00000260: b439 41bd efd1 f53c f4e1 e4bc c1db 1dbd
00000270: 5cb8 4bbd e7c1 58bd aa6f 033c 39a6 b53c
00000280: b00d 3cbd 4f88 ccbd 508d fa3c 1296 93bd
00000290: 1c7d e9bb 417e f5bc f46b db3c 6e6d 0c3b
000002a0: eac4 663d 74fe 96bb 0149 37bc f43b 36bd
000002b0: 82be 57bc f4f5 61bd e794 723d f399 cf3b
000002c0: f436 273d edeb c33d ba79 9ebd 7b4d 2e3c
000002d0: 576e 10bd 2ead c7bd bb38 253c 51b7 b03d
000002e0: 8b3f 323d afb9 af3d e55b b83c fa5f 53bd
000002f0: 68fc 6b3c 7436 4c3c eca5 dd3d 1488 dabc
00000300: 6aa4 783c 05a9 7a3c c112 493d cb29 943d
00000310: 2d88 79bd eaf1 d9bc 0cd0 a03d a4d6 1e3d
00000320: 618e 1b3c 627f 9c3b bfa6 27bb fa8a 39bc
00000330: 93f4 30bd fd10 013d 3579 6dbd 5f87 c23b
00000340: f397 253d d107 c2bd 571e 10bd 0295 08bb
00000350: df3d a83d 4a60 59bc accf cabb e5f0 ca3d
00000360: 4667 ad3a 0c3d 7cbd 6020 823c 8ed1 dcbc
-0.076904275 0.06508095 0.02243718 -0.02758689 0.0016197187 0.05415919 -0.072351836 -0.0616974
0.046075232 -0.029466933 -0.07207857 0.06285946 0.047526885 0.028200703 -0.007672456 -0.07401351
0.03976816 0.0030898568 -0.089117885 -0.07696024 -0.12189107 -0.07362569 -0.05059214 -0.028834812
0.07906685 0.06388498 0.08651644 0.05101471 0.017374676 -0.11513729 0.028263928 -0.11179051
-0.007845587 -0.01538201 0.05812896 -0.12159476 0.022053974 -0.016076684 -0.0015314125 -0.047650218
-0.15857524 0.10480663 -0.0076298807 0.072372325 -0.05771469 0.031467605 -0.013735491 -0.11951673
0.0064035025 0.09376112 -0.087417826 -0.03884879 0.07076921 -0.053459987 0.05848452 0.07373558
0.0018190993 -0.07547312 -0.0033481782 0.0362573 -0.0080662565 -0.06430545 0.09212974 -0.00526763
-0.07028605 0.018184919 -0.00063074555 -0.06385027 -0.10392647 0.030039702 0.025449002 -0.056529507
-0.10733854 0.045930892 0.09102092 0.0013245874 -0.07081456 -0.022039322 0.08587224 0.028032083
-0.018273605 0.001894593 0.0059406897 -0.05948936 0.035205636 0.051220153 0.041579545 -0.11653251
0.03563491 -0.0037452134 0.007882127 -0.03858127 0.008109535 -0.069910355 -0.033571452 0.026430318
-0.017824385 0.09191142 -0.052615933 -0.023902196 -0.0750142 -0.051462963 0.015804201 -0.10461599
-0.02804902 -0.088741526 -0.07764577 0.07650259 -0.01899061 -0.13052799 -0.0038448912 -0.0148751475
-0.07055564 -0.060599674 0.057187643 -0.09749223 0.10662164 0.007608383 -0.036614995 0.018527333
-0.027914569 0.019787643 0.06691682 -0.08396865 -0.036098763 0.0009033716 -0.114338204 -0.031803597
0.0066138166 0.036279127 -0.039198734 -0.033526547 -0.057011485 -0.0139473 0.03328587 0.045704305
0.092712976 -0.094793566 0.0015993279 -0.08353424 0.05979717 -0.052658606 -0.023630407 -0.034625687
0.026791494 -0.058878552 -0.02073918 0.09024837 0.021425754 -0.04026558 -0.04304306 0.051199954
-0.04717417 0.03000733 -0.027939774 -0.03853965 -0.049736366 -0.052919295 0.008022228 0.022173988
-0.04591149 -0.09986936 0.030584961 -0.07206358 -0.00712551 -0.02996743 0.026784874 0.002142753
0.056340136 -0.00460797 -0.011186839 -0.04449077 -0.013167979 -0.0551662 0.059224036 0.006335491
0.04082389 0.09566484 -0.07738061 0.01063859 -0.03526148 -0.09749828 0.010084326 0.08628715
0.04351763 0.08580338 0.022504756 -0.051605202 0.01440344 0.0124641545 0.10822663 -0.026676215
0.015175918 0.015299086 0.04909015 0.07234534 -0.060920883 -0.026604611 0.07852182 0.038778916
0.009494395 0.0047759274 -0.0025581566 -0.0113246385 -0.043201994 0.031510342 -0.05797692 0.0059365476
0.040428113 -0.09474147 -0.035185184 -0.0020840769 0.08214926 -0.013267586 -0.006189307 0.09909228
0.001322963 -0.061581656 0.015884578 -0.026955392

mean_layer.bias f4 [2]
00000000: d59d cc3d fd8a 0ebd
0.099910416 -0.03480052

logvar_layer.weight f4 [2, 110]
00000000: 7996 8a3d 4ccb 34bd 1817 8e3d e532 18bd
00000010: 2c4e 47bd 24f0 b9bc f77b 29bd ca40 c33b
00000020: 4e45 5bbd 3610 033d 7fa5 b73c 550f a03d
00000030: aa3f fcbc bcf5 b2bd e455 983d 09ad 433d
00000040: 27bc 0b3b f7ca 023c 7491 04bc 5dbb 183d
00000050: faba 93bd ce3a 2f3d ce90 303d 304a af3d
00000060: af3e 02bd f234 a0bd c8ad 063d d794 c43d
00000070: b746 1e3d 9d5b b53c d2e8 6f3c a74d 063b
00000080: b152 f5bc d652 fb3c 6dd3 2fbd d6a2 a5bc
00000090: 2ade 7cbd f28f 80bd 6a5f 6cbc e460 0cbc
000000a0: 0ecf 6dbd cfa9 ddbc 0992 95bc 715c a33c
000000b0: 9a4d 4cbb f157 393d 3377 66bd d141 e0b7
000000c0: e10f 03bc 1d2c 913d 6fb0 f53b 307c 84bc
000000d0: 096e 95bc eeac 83bd 4b13 a9bd 7c5e 103c
000000e0: 4c7f 89bc 6a2f 09be 1746 0b3d 539f 293d
000000f0: f787 bb3b 71ed e1bb 3745 3dbd 2d15 d03c
00000100: d783 143d 5072 69bd 50fd 8fbd 7936 203d
00000110: a104 ebba 7e02 1cbd cced a73c 269a 003d
00000120: 9afa 4dbd c774 c6bd 6960 96bc 1a19 c53b
00000130: 9136 e3bb 7702 9f3b 23e3 713c ccbf c13d
00000140: af94 d53c b9b0 ffbc bdcb 5d3d 0473 babd
00000150: 9cb9 323d da4f 793d b23c 503d 9e52 183d
00000160: f267 e1bb 149c 763d 9528 743c 4a3d bcbb
00000170: 1eb5 73bd 0873 643d 7b82 37bd b79c e73c
00000180: a85d 683d 20c5 233d e383 66bd 8c63 06bd
00000190: f13f 95bd e8e2 b83d caff 01bd 0ee6 33bd
000001a0: 17c4 403b d915 bf3c 43fc e6bc 2c7d 8abd
000001b0: 6022 153d fd6a e03c 810c a5bd cf36 a23b
000001c0: 14ca a8bb aa57 cd3d 652c a4bd 35c9 c3bc
000001d0: 5847 8dbd f6ab 2b3d 90c9 b1bc 4192 183d
000001e0: c8b5 2a3d 9c62 733c f8a1 143d 99b9 e7bc
000001f0: 58a5 0a3c 5ef5 303d cf22 853d 4617 f939
00000200: 4640 40bd da96 ddbc e905 28bd af9f 7fbb
00000210: 2d83 50bd 3f40 e1bc 70e7 24bc c413 5f3d
00000220: e0b6 8b3c 6c37 983d ac94 553b ec09 ac3d
00000230: 44c5 3b3d 51c2 35bc 774e 2bbd 1cd7 b0bc
00000240: aea1 85bd 0847 c43c 7146 ac3d 7b04 fa3c
00000250: c8c7 1ebd 3d18 8f3b cd9c eb3c 14da 85bd
00000260: a9ad 863c 906b 803b 9d70 ba3b 0ba9 f03c
00000270: 8298 7abd 2325 a5bd 11de 4bbd 9c82 7c3c
00000280: eaa8 753c 5689 4d3d 93cb abbb 6510 05bd
00000290: 17a3 2dbd 1a08 a83d 6a74 90bc 8096 9ebc
000002a0: f1cc d4bc be5e ec3c 0b82 a6bd dd85 003d
000002b0: 63af 6cbd 72fc 043d 9967 2e3d dc47 4abc
000002c0: ba5e 0e3d 6793 d9bc d96a 3b3d 59b2 88bd
000002d0: 3e93 cebc e6c6 bb3d 637e 60ba 4859 113d
000002e0: 811b 713c 4dde a2bb 3e99 76bc a778 5d3d
000002f0: 874d 1cbd 3dc3 443d 12fb bdbc 687e 8fbc
00000300: 2f9b b7bc 9d97 483c 9565 90bd 0e3d 793d
00000310: 29a0 413d 4963 4a3b 75f7 3f3d eab9 e73b
00000320: 8069 c7bd 99aa 8abd 387b dc3c 1b9a 51bd
00000330: 3436 97bd d6b6 11bd 3945 eb3c 8c8c aebd
00000340: 8ff6 cf3c 5793 20bd c288 1c3d f701 8bbd
00000350: d710 70bd 1d67 8bbd 3605 87bd c220 a1bb
00000360: 86e1 ae3c 4461 933c 9d48 183d 474a 07bc
0.06766982 -0.04413919 0.069379985 -0.03715791 -0.048658535 -0.022697516 -0.041377988 0.005958651
-0.05353289 0.03199788 0.022417782 0.07815424 -0.030792076 -0.08738276 0.07438257 0.04777244
0.0021321864 0.007982961 -0.008091319 0.03728806 -0.07213397 0.04278069 0.043106847 0.08559072
-0.03179806 -0.078225985 0.032880574 0.095987014 0.038641658 0.022138411 0.014642911 0.0020493062
-0.029946657 0.030679148 -0.04292624 -0.020219248 -0.06173531 -0.062774554 -0.014427045 -0.008568022
-0.05805879 -0.02705851 -0.018258112 0.01994154 -0.0031174184 0.045249883 -0.05626602 -2.6733529e-05
-0.007999391 0.07088492 0.007497839 -0.016172498 -0.018240945 -0.06429468 -0.08255633 0.008811589
-0.016784333 -0.13396993 0.03400239 0.04141171 0.0057229954 -0.0068947603 -0.046208587 0.025400722
0.036258545 -0.056993783 -0.070307374 0.03911445 -0.0017930457 -0.038088314 0.020499133 0.031397007
-0.05028782 -0.09690242 -0.018356519 0.006014955 -0.006933995 0.0048525888 0.014763626 0.094604105
0.026071874 -0.031212198 0.054149378 -0.09103969 0.043634042 0.060867168 0.050839134 0.037188165
-0.0068788463 0.06020744 0.014902254 -0.005744611 -0.0594989 0.055773765 -0.04480217 0.02827297
0.056729943 0.039982915 -0.05627812 -0.03280978 -0.072875865 0.09027654 -0.03173808 -0.04392057
0.0029413754 0.023325847 -0.02819646 -0.06762156 0.036409736 0.027394766 -0.080590256 0.0049503813
-0.0051510427 0.10026486 -0.0801628 -0.023899654 -0.06898373 0.04191204 -0.021702558 0.037248854
0.041677266 0.014855053 0.036287278 -0.028286742 0.008462273 0.04320275 0.0650078 0.0004751032
-0.046936296 -0.02704947 -0.04102126 -0.003900509 -0.05090635 -0.027496455 -0.010064945 0.05446221
0.017054975 0.07432446 0.0032589836 0.0840033 0.045842424 -0.011093692 -0.041822877 -0.021586947
-0.065249786 0.023959652 0.08411873 0.030519715 -0.038764745 0.004366903 0.028761292 -0.06535736
0.01644023 0.0039190724 0.005689694 0.029377481 -0.0611806 -0.08063724 -0.049772326 0.015411999
0.0149938855 0.050179802 -0.005242774 -0.03248634 -0.042391863 0.0820467 -0.017633636 -0.019358873
-0.02597663 0.02885377 -0.081302725 0.031377662 -0.05778445 0.032467313 0.042579267 -0.012346234
0.034758307 -0.026559545 0.045756195 -0.06674642 -0.025216695 0.09168796 -0.0008563755 0.035485536
0.01471603 -0.004970348 -0.015051184 0.05407014 -0.038159873 0.048037756 -0.023191009 -0.01751633
-0.022412864 0.012243179 -0.07050625 0.060849242 0.04727188 0.0030881932 0.046866853 0.007071723
-0.097369194 -0.0677082 0.026914224 -0.051172357 -0.07383385 -0.035574757 0.028719531 -0.08522901
0.025386123 -0.039203014 0.03821636 -0.06787484 -0.05860981 -0.06806777 -0.06592791 -0.004917235
0.021347772 0.017990716 0.037178624 -0.008257455

logvar_layer.bias f4 [2]
00000000: 0dca 1c3d 9ef4 523d
0.03827863 0.051502816

decoder.0.weight f4 [110, 2]
00000000: b096 953d c3c0 0a3d f93b db3e b64e 323f
00000010: 1423 37bc ec35 453e 2700 2d3f 62cf 95be
00000020: 64c9 5e3e 26b2 9f3e ba51 f3be 88d4 fcbe
00000030: 2e00 f43e 955c 683e 3bb2 d3be b8a5 4bbf
00000040: 1b5c 84be 0e25 3a3f 42a3 ed3e ffed df3e
00000050: 206c 1a3f 32d3 633e 42ce cdbe 3000 213f
00000060: 3ce5 083f e1dd 2bbf 2721 943e dd05 c1be
00000070: 3627 1b3f 102a 263f cc5a 943e d96c 0bbf
00000080: 8a5c c1bc 725f 903e 6454 28bd 4bff b13e
00000090: 3ba8 14bd f472 033f 5b79 04be ade3 cbbe
000000a0: c152 923e 4bcd e7bd 781b 2bbf 5b1a 05bf
000000b0: bfc9 163f a5af 563f 580e 7fbe 08cd 4a3f
000000c0: a37b 363f 80a3 02bf 16fb 43bd 792e 21bf
000000d0: be91 353f 2f92 89be 7696 83be 38c9 83be
000000e0: 1d95 3b3f a901 52bf c030 05be 9e91 b33e
000000f0: 8c2f 093f 4d31 17bd d55c 2e3f 2ebb 51bf
00000100: 19b3 db3d 71e9 443f d60e b7be 2263 82be
00000110: 00c3 cebe 6342 b63e e5ad 03bd 3414 103f
00000120: f248 233f 953b b63d 8e58 bd3e bb85 ebbe
00000130: aec8 683e aaf0 313f 5c3d c33e be71 2c3f
00000140: b4a8 88be c95d b43e ff8f 95be 8b51 483e
00000150: aa4a c93e f1c8 3bbd 351a b13e 4687 4d3f
00000160: 3ac3 e33e 2f0b f53c a33a 1e3d e764 f53e
00000170: 975a 46bf 901b 053e 85e4 34bf 050f fa3e
00000180: 6056 3f3d 4e17 d13d b247 e63e 414b 573e
00000190: cb09 833e abd3 7abe 0045 193f 279a 1e3f
000001a0: b2f7 0dbe 4d67 58be 8aef f53e 7404 fbbd
000001b0: 22bc 2c3f 1252 dbbc 5957 bb3e 7ba0 8d3e
000001c0: 626c a4bd a184 c93d 9c9d 19bf cb0f ddbe
000001d0: 17da 8d3e 0a4f 543e 38b4 e43e 09d5 60bf
000001e0: a130 9e3e d316 0e3f 11fe e33d 09c1 fb3e
000001f0: 9011 293f e770 54bf f486 38bf d265 f23d
00000200: 09f2 f5be 8ab9 813e 915d bebd 1565 033f
00000210: ce72 fa3e f77f 2f3f c154 2cbf 9b28 963e
00000220: d3e5 03bf c519 223e 6552 eb3e f32d 4ebf
00000230: 65b6 3b3e d81f c2be cd03 043f 8ba4 7cbe
00000240: b09f 473f 305d 56bf 8f5f 783e 39f2 cc3e
00000250: 6cce b03c 18a1 d43d bc0f f63e 166a 153f
00000260: 575f 143e bc46 333f 76d0 14bf 9301 c4be
00000270: d0b9 123f 0644 3d3f 2978 3e3f 8dd1 16bf
00000280: bbcb 31bf d54f 093f 5ba6 293f 8cf7 1fbf
00000290: 698d f83e b2e7 213e e732 0cbc 5941 a9be
000002a0: 520d 2b3f 472b a83e fd7f 853e be2a 5ebf
000002b0: 0b08 343e c726 52bf f489 e0be af65 28be
000002c0: ca30 43bf af14 263e ca0b 2b3f 3e30 e8be
000002d0: 64c0 723e 65e9 59bf e963 103f 6c0a af3e
000002e0: 2d8e f03e 428e 3ebf 8f03 9b3e 4d07 d03d
000002f0: 61dd 3dbf 0c95 553e 9f39 16be 7111 923d
00000300: c652 30bf 1406 fabe 0950 86be a404 46bf
00000310: a5a0 31bf b7da ba3e 7bf1 2dbf 141c 143e
00000320: 5ecd a8be 38f6 b13b 54cc 523f 93fb f6be
00000330: 8ded 7abe 8f09 5d3e 4e67 6bbe a946 b9bd
00000340: ef27 833e 4a2b b6bd 1881 ab3e f984 64bd
00000350: e78e 43bd 4125 febe 0321 8abe 4925 19bf
00000360: c0de 243f c06e 36bf 528a a73d 3533 b93e
0.07304132 0.03387524 0.42819193 0.69651353 -0.011177797 0.19258851 0.6757836 -0.29259783
0.21756512 0.31190604 -0.4752329 -0.49380898 0.47656387 0.22691567 -0.41346917 -0.7954974
-0.2585152 0.7271279 0.46413618 0.43736264 0.60321236 0.22248533 -0.40196425 0.6289091
0.53474784 -0.67135435 0.28931543 -0.37699786 0.60606706 0.6490793 0.28975523 -0.54462963
-0.023603696 0.2819782 -0.041096106 0.34765086 -0.03629325 0.5134728 -0.12936918 -0.3982214
0.2857876 -0.113184534 -0.6683879 -0.5199334 0.5890159 0.8386176 -0.24907815 0.792191
0.71282405 -0.5103073 -0.047846876 -0.62961537 0.7092551 -0.26869342 -0.2570073 -0.25739455
0.73274404 -0.82033783 -0.13006878 0.35072035 0.53588176 -0.03691225 0.681104 -0.8192624
0.107275195 0.76918703 -0.35753506 -0.25466257 -0.40383148 0.35597524 -0.03214826 0.5628083
0.6378318 0.08898083 0.36981624 -0.46000466 0.22732803 0.6950785 0.3813275 0.67361057
-0.2669121 0.35227802 -0.29211423 0.19562356 0.39314777 -0.04584593 0.34590307 0.80284536
0.44484884 0.02991256 0.03863014 0.47928545 -0.7748198 0.12998796 -0.70661193 0.48839584
0.046713233 0.10209523 0.44976574 0.21024801 0.2559341 -0.24494807 0.5987091 0.6195397
-0.1386402 -0.21133156 0.48034316 -0.12256709 0.6747457 -0.026772533 0.36590078 0.276615
-0.08028485 0.0983975 -0.6000612 -0.43176112 0.27705452 0.20733276 0.44668746 -0.87825066
0.30896476 0.55503577 0.11132444 0.49170712 0.66042423 -0.82984775 -0.7208092 0.11835827
-0.4803622 0.25336868 -0.0929519 0.51326114 0.48915714 0.68554634 -0.67316824 0.29327855
-0.5152256 0.15830143 0.459613 -0.8053886 0.18331297 -0.3791492 0.515683 -0.24672143
0.7797804 -0.8373594 0.24255203 0.4002855 0.021582805 0.10382289 0.4805888 0.58365
0.14489494 0.7002981 -0.58130586 -0.3828245 0.5731478 0.7393192 0.744021 -0.589135
-0.69451493 0.5363744 0.66269463 -0.624871 0.48545387 0.15811041 -0.008557058 -0.3305767
0.668172 0.32845518 0.2607421 -0.8678397 0.17581193 -0.8209042 -0.4385525 -0.16445039
-0.7624632 0.16218828 0.66814864 -0.45349306 0.23706204 -0.85121757 0.5640245 0.3418764
0.46983472 -0.7443582 0.30276152 0.101576425 -0.7416592 0.20857638 -0.14670418 0.07132233
-0.688763 -0.48832762 -0.26232937 -0.7735083 -0.6938575 0.3649499 -0.67946595 0.14463836
-0.32969183 0.005430963 0.8234303 -0.4823881 -0.24504681 0.21585678 -0.22988626 -0.090466805
0.25616404 -0.088949755 0.33496928 -0.055790875 -0.047743704 -0.49637797 -0.2697831 -0.5982252
0.6440239 -0.7126274 0.081806794 0.3617188

decoder.0.bias f4 [110]
00000000: 647a 17bf 221b 5fbe 8f7e 253f 211b 1a3f
00000010: 6370 2abf 2fb9 51be 2d21 b53e 7961 883e
00000020: 6ce6 65bd b10c c1be 0bf4 a13d 7124 a23e
00000030: f8b7 24be e4dc f7be 0480 26bf fbeb bfbe
00000040: 8729 0fbf f702 683e 2c5b 3abd 1d69 16bf
00000050: 7b37 e03c 0ed6 8cbe bba0 0fbe 04fc 39be
00000060: 3355 343e 0adc fe3e 7366 e4be e93b c8be
00000070: b03c 5d3e 7850 f23c 4982 d63e cf49 e13e
00000080: 96ba 15bf 8574 37bf 59f8 19bf 50e0 28bf
00000090: a192 103d b991 ed3e 4f6a d7b8 887a 3c3f
000000a0: 642c 933b 7639 0a3c 0b8f 333f b147 9c3e
000000b0: 4420 bf3e 8bae 19bf 42a9 e2be bc91 19bf
000000c0: f3bd 1f3f db07 f7be 1159 29be b3ff 993e
000000d0: b531 d13e c336 8d3d b139 01bf 9b23 e43e
000000e0: df85 c93e 1c90 cabe 45b0 3ebe 0944 633e
000000f0: 0b77 2fbf caa5 0cbf 13b5 013e 34bd d4bb
00000100: 7820 c7bd 4643 a2be 6eeb ecbe a63f 173f
00000110: 101a 35bf 5329 153e 1922 2abf 0563 923d
00000120: 75f4 233d 4413 16bf b975 1f3f 99b0 353f
00000130: 2236 32bf f965 06bf 7fdd 273d edfb 2e3f
00000140: 77a1 153f 5a28 273f 60dd 94be 40d6 e7be
00000150: fb1d 2cbe b825 4b3e 6509 243f 1527 3bbf
00000160: f8da 963e fa60 2cbf 397b 293e 576c e7bc
00000170: 9b75 c43d 5791 d63e b128 debd 1b32 38be
00000180: 8446 e3be c24e 233f d68f 463e cb3f 303f
00000190: b5c4 113f b719 1a3e 731a 273f 34e2 353f
000001a0: b528 b83e cd35 cf3d 93c2 233f 0243 21bf
000001b0: d015 3c3e f536 fb3e
-0.5917113 -0.21787694 0.6464624 0.60197645 -0.6657774 -0.20480798 0.35376874 0.26636866
-0.05612795 -0.37704995 0.079078756 0.31668428 -0.16085804 -0.48410714 -0.65039086 -0.37484726
-0.5592274 0.22657381 -0.045497105 -0.5875414 0.027370205 -0.2750706 -0.14026158 -0.18162543
0.17610626 0.4977725 -0.44609413 -0.39108208 0.21605182 0.029579386 0.41896275 0.44001624
-0.5848783 -0.7166217 -0.60144573 -0.65967274 0.035296086 0.4640024 -0.000102718004 0.7362447
0.0044913758 0.008436551 0.7014014 0.30523446 0.37329304 -0.60031956 -0.44269758 -0.59988
0.62399215 -0.4824818 -0.16537882 0.30077896 0.40858236 0.068952106 -0.50478655 0.44558415
0.39359948 -0.39563072 -0.18621929 0.22193922 -0.6854102 -0.54940474 0.1266673 -0.0064922813
-0.0972299 -0.3169195 -0.4627337 0.59081495 -0.70742893 0.14566545 -0.6645828 0.07147793
0.040028054 -0.58623147 0.62289006 0.7097259 -0.6961385 -0.5249935 0.04098272 0.6835316
0.584495 0.65295947 -0.29075146 -0.45280647 -0.16808312 0.19838607 0.64076835 -0.7310651
0.29463935 -0.67335474 0.16550912 -0.028249903 0.09592744 0.4190776 -0.10847605 -0.17987864
-0.44389737 0.6379205 0.19390807 0.6884734 0.56940776 0.15048872 0.65274733 0.71048284
0.35968557 0.101176836 0.6396877 -0.6299287 0.18367696 0.49065366

decoder.2.weight f4 [221, 110]
00000000: 920a b0bd aed1 d4bc 04db b63c 9b1b a83d
00000010: 1806 a43c 505e 27bd c75a 853d 2f9b 18bd
00000020: ce1e c63d f6c2 233b ea61 87bd 24cd e23d
00000030: 9390 8c3d 62ac 96bd 1b6d 83bd be4d af3a
00000040: 5776 c6bd 439e 453c 8aaf c33d b738 99bd
00000050: 1f53 7bbd 411c 6e3d ffe5 dfbc 6433 3f3e
00000060: 2818 4fbe 8de7 6cbd 361a bcbc 84c8 b3bd
00000070: b636 453d 1cf6 9e3d ee41 9cbd d098 50bd
00000080: 9258 8ebd a5ac a43b 4f1b 11bd 663e babc
00000090: 26ac a2bc 0c32 b43d ecbe a3bc fe68 263c
000000a0: e6d4 6e3c 4884 6d3c 26e3 423d 5c02 d53d
000000b0: 13f1 3f3d ae4f 4e3d 1efc b7bc ac82 5e3d
000000c0: 3ca1 6cbc 6b3a 7f3c f103 c6bb d90a 8bbd
000000d0: 33d7 a63d 770b 9cbd 7d41 173c bf1f 443d
000000e0: b328 a33c bc7c 0bbd 3cfd cf3d 8aeb 40bd
000000f0: f8d0 8e3d 1a82 92bb c4c5 593d 2697 d53b
00000100: 7db6 173e 66a5 8a3d 6758 cd3d c94a d43c
00000110: 34d2 b5bb caf7 053e ce9f 8bbd 5bc6 36bb
00000120: c1ce afbb 4f3a 363d 94e2 e13d cffd 50bc
00000130: 7541 5f3d 32d1 92bd 1d8f 71bd 00d1 aa3c
00000140: 127a 553d 4cc5 6a3d bad6 5ebd 686d 6cbc
00000150: 9bb4 893d 13b1 0abe 75e4 07bc f63c b63c
00000160: 5618 9cbd d74a 8abd d143 4fbc e760 863d
00000170: a0b1 14bd 80d6 5c3d 155e 9fbd e61b febc
00000180: 3860 b1bd a6e7 73bc b2b7 9e3d c9f3 84bd
00000190: fc08 073d 8bd2 4f3d 6d86 cf3d b90e 9a3d
000001a0: fde4 c93c 21d3 4abd 06c9 e13d c1a8 92bc
000001b0: fa16 7f3d 6659 a43c 5b43 d3bc 7cd9 b83d
000001c0: a3a3 3bbd 5c4e a83c 3363 6e3d 7db8 69bd
000001d0: a554 163d f67b 45bd 1641 863d d012 cfbc
000001e0: da4d 703d a26f 443d bc31 53bd b6c8 a7bd
000001f0: e641 483c a137 b4bd 023e 4f3b bea8 433d
00000200: aeea 103e 77dd 073d 1fbc c7bc 0de3 843d
00000210: f465 29bc 609a d8bd 387f 8fbc bac9 88bd
00000220: b57b 6e3d 11e6 833d c213 ddbd be4e 973d
00000230: b494 903d 760b 2e3e b2c6 43bb 0b50 23bd
00000240: 6493 d4bc d26d 1dbd 2703 b43d d4e3 9fbc
00000250: b403 823d ddab dfbc 766c 5a3d 28c6 d93d
00000260: 348d 6ebd e29f 6b3d 1c2c d0b9 8da9 573d
00000270: e2aa 9e3d e207 733d 2211 ab3b 621b b1bc
00000280: 8d62 e2bd 87d5 013d 7b53 dcbc 63fc 8fbd
00000290: f470 373d 6104 5a3d e7ba 68bd fecb 993d
000002a0: 19c9 c03d 8616 7c3d a302 abbc 879b f03c
000002b0: cd03 b6bc 5f68 b83a 2c6b 57bd a090 8c3d
000002c0: 2440 de3d a8a1 59bc fa80 583d 0821 1a3d
000002d0: 963f 37bd 6302 c13c c3ef 64bc 2e0f b13d
000002e0: 4bd6 893c 08d3 273c 5e22 043e 5e51 1cbd
000002f0: 2358 61bd c811 be3d 2f02 ee3d e317 8b3d
00000300: 05b7 543d 4d38 723d f207 b63d f877 0e3d
00000310: 1b4b abbd 87fc 98bd fbce a43d eae1 263c
00000320: 70f6 97bd c43c a4bd 5340 40bb 1679 a6bd
00000330: 40d7 afbd fcda 62bd e852 e5bc f04d 1ebd
00000340: 0d4b d93c b00b a43c 2ef8 113a cc94 99bb
00000350: 9189 153d a8da 47bc 7751 6abc 1e26 78bc
00000360: 31b0 ae3c fd21 6b3d b389 b4bd 0c41 d9bb
00000370: 4ddb 9dbc 87d5 1d3d cd36 a4bc a6e3 033d
00000380: 6354 bb3d 1954 fc3c 011a c83d 8f15 93bc
00000390: 91ca b9bc 81fa 943c 8845 953c 0265 003e
000003a0: abae 803d bd98 973c c04d 023e 2f22 b73c
000003b0: 13b2 d33a 5b66 0a3d 69ea 12bd 15fe 2ebd
000003c0: c096 b83d 0b98 fbbd 3f9b 82bd f5b2 363d
000003d0: 3a8b 6f3d 7a37 543d f9b1 a83d dc45 5b3d
000003e0: c803 29bd 1856 873d 1a49 8c3d 6e63 c83d
000003f0: 53bf 033e abee 9038 d584 683d 0481 a73d
-0.08595766 -0.02597889 0.022321232 0.0820839 0.020022437 -0.040861428 0.06511455 -0.03725737
0.09673844 0.0024988032 -0.066104725 0.11074284 0.06863513 -0.07357098 -0.064172946 0.0013374609
-0.0969054 0.012061658 0.09554966 -0.074815206 -0.061358567 0.058132414 -0.02733135 0.18671948
-0.20224059 -0.05783801 -0.022961717 -0.0877848 0.04814788 0.077617854 -0.076297626 -0.050926983
-0.06950487 0.0050254636 -0.035426434 -0.022734832 -0.019857477 0.08798608 -0.0199885 0.010156868
0.014577126 0.01449687 0.047579907 0.10400841 0.046860766 0.050368957 -0.022459086 0.054323837
-0.014442738 0.015577893 -0.0060429503 -0.067891784 0.08146515 -0.07619374 0.009231922 0.047881838
0.019916868 -0.034054503 0.101557225 -0.047099628 0.069734514 -0.0044710757 0.05316712 0.0065182624
0.14815708 0.067698285 0.10026627 0.025914567 -0.00554874 0.13082805 -0.0681759 -0.0027889225
-0.005365223 0.0444892 0.110295445 -0.012755825 0.054505784 -0.07168807 -0.058974374 0.020851612
0.05211837 0.057317063 -0.054403998 -0.014430381 0.06723901 -0.13544111 -0.0082942145 0.022245865
-0.07621829 -0.06752556 -0.012650446 0.065614514 -0.03630221 0.0539155 -0.077816166 -0.031019162
-0.086609304 -0.014886772 0.07749881 -0.06491811 0.032967553 0.0507379 0.101330616 0.075223394
0.024645323 -0.049517754 0.1102467 -0.017902734 0.06227777 0.02006216 -0.025788954 0.09025857
-0.045810353 0.020545177 0.058200072 -0.057060707 0.036701817 -0.04821392 0.06555383 -0.025277525
0.058667995 0.047958024 -0.051561102 -0.081925794 0.012222743 -0.08799673 0.0031622653 0.047768347
0.14152023 0.03317019 -0.024381695 0.06488619 -0.010339249 -0.1057632 -0.017516717 -0.06679101
0.058223445 0.06440366 -0.10794784 0.07388066 0.07059613 0.1699656 -0.002987307 -0.039871257
-0.025949188 -0.03843481 0.08789664 -0.019517817 0.063483626 -0.02730363 0.053326093 0.106334984
-0.05824013 0.057525523 -0.00039705716 0.05265193 0.07747437 0.05933369 0.0052205482 -0.021619502
-0.11053953 0.031697776 -0.026895275 -0.07030561 0.044785455 0.053226832 -0.05681887 0.075096115
0.09413356 0.061544918 -0.02087528 0.029371036 -0.02221861 0.0014069191 -0.05259244 0.068635225
0.108520776 -0.013283171 0.052857377 0.037629157 -0.044738375 0.023560708 -0.013973179 0.086454734
0.016825816 0.010243185 0.12903735 -0.038163535 -0.055015694 0.09280735 0.1162151 0.067916654
0.051932354 0.059135724 0.08888234 0.03478238 -0.083639346 -0.07470041 0.08047291 0.010185698
-0.07420051 -0.080194026 -0.0029335215 -0.08128564 -0.085859776 -0.05538462 -0.027993634 -0.038648546
0.026525045 0.020025104 0.00055682927 -0.0046869274 0.036508147 -0.012198128 -0.014301649 -0.015145807
0.021324249 0.05740546 -0.088153265 -0.0066300686 -0.01926961 0.038533714 -0.020045662 0.032199524
0.09146955 0.03080182 0.09770585 -0.017954616 -0.022679599 0.018185856 0.018221632 0.12538531
0.06283315 0.018505448 0.12724972 0.022355167 0.0016151093 0.03378902 -0.035868082 -0.04272278
0.09013128 -0.12284859 -0.06377267 0.04460426 0.058482386 0.05181072 0.082370706 0.05353342
-0.04126337 0.06608218 0.068498805 0.0978459 0.12865953 6.9109105e-05 0.056767303 0.08178905
