VAE/basic_vae/model.pth (torch, 987528 bytes, 14 tensors)

encoder.0.weight f4 [221, 442]
0	0xbbd6f561	-0.006560013
1	0x3bffec62	0.0078101614
2	0x3c55ac3f	0.013041555
3	0x3cabe4e8	0.020983174
4	0x3bf6f2dd	0.007536276
5	0xbd3c0523	-0.045903336
6	0xbcb2faab	-0.021848043
7	0xbd7cb4c7	-0.06169584
8	0xbce12416	-0.027483027
9	0xbd373d40	-0.044736147
10	0xbc6a1502	-0.014287235
11	0xbd4ef6b8	-0.050528258
12	0xbd216524	-0.039403096
13	0x3c68a4e3	0.014199468
14	0xbd4b3a10	-0.04961592
15	0xbcbf84be	-0.023378726
16	0x3c01284b	0.007883142
17	0xbca63b35	-0.020291904
18	0x3cd47e5f	0.025939165
19	0x3cc23148	0.02370514
20	0xbd56e3fc	-0.052463517
21	0x3c191f0e	0.009345783
22	0x3c48e364	0.012261245
23	0x3c0b03b0	0.008484766
24	0x3ce3cb10	0.027806789
25	0xbb354317	-0.0027658397
26	0xbd08b537	-0.033375945
27	0x3cba02b9	0.022706376
28	0x3c8de72b	0.017322144
29	0xbd5dc414	-0.054142073
30	0xbd136526	-0.035985135
31	0xbc113390	-0.008862391
32	0xbd6cf9be	-0.05785536
33	0x3cc50f46	0.024055135
34	0x3c97995a	0.01850574
35	0x3bf84438	0.0075764917
36	0xbae0141a	-0.0017095834
37	0x3c6be3d2	0.014397578
38	0xbd1a4572	-0.037663884
39	0xbd34efda	-0.044174053
40	0xbc4c291e	-0.012460975
41	0xbd21c4f2	-0.039494462
42	0xbd5d3698	-0.054007143
43	0x3c8e6f31	0.017387005
44	0xbd37ecf6	-0.044903718
45	0x3b95353c	0.004553465
46	0xbca33224	-0.01992137
47	0xbd57e799	-0.052711103
48	0x3c828112	0.015930686
49	0xbd209e25	-0.03921332
50	0xbcf6690e	-0.03007939
51	0xbcf8dc5b	-0.030378511
52	0x3cf42a72	0.029805396
53	0xbca01047	-0.019539012
54	0x3c93f3f7	0.018060667
55	0x3bd8b5f7	0.006613489
56	0xbd6d7a69	-0.057978068
57	0xbc1e78a5	-0.009672319
58	0x39d66ee6	0.00040899887
59	0xbbfc67b3	-0.0077027916
60	0xbcb9469d	-0.022616679
61	0x3c10e046	0.008842533
62	0x3a835e51	0.0010022615
63	0x3c44bdd9	0.012008154
64	0x3cd05725	0.025432179
65	0xbc056628	-0.008142032
66	0xbd25b407	-0.04045489
67	0xbb7723fa	-0.0037710653
68	0x3c8b7a16	0.017025989
69	0xbc397af9	-0.011320823
70	0x3c6421af	0.013924046
71	0x3be3e870	0.006955199
72	0x3cb3f28f	0.021966247
73	0x3cbedf22	0.023299757
74	0xbd4eacae	-0.05045765
75	0xbc464887	-0.012102253
76	0xbcd1cebd	-0.025611276
77	0x3c379114	0.011204023
78	0x3c937c5b	0.018003633
79	0x3cf3cfd6	0.02976219
80	0xbd447e0a	-0.047971763
81	0x3ccae7e9	0.024768787
82	0xbd2d0933	-0.0422451
83	0xbbaf2cf5	-0.0053459355
84	0xbb7e1d40	-0.0038774759
85	0xbd1b63d3	-0.037936997
86	0x3c9c6b65	0.019094178
87	0xbd559aa0	-0.052149415
88	0xbb70d835	-0.0036749963
89	0x3c8a5628	0.016886786
90	0xbb61a845	-0.0034432572
91	0xbc77c2f4	-0.015122164
92	0xbaea8a49	-0.0017893995
93	0xb9b3c26e	-0.00034286402
94	0x3afb4020	0.0019168891
95	0x3b8b760f	0.004256017
96	0xbd34fe02	-0.044187553
97	0x3cb450db	0.022011211
98	0x3d059109	0.03260902
99	0xbc82f7d7	-0.01598732
100	0x3ce1f460	0.027582347
101	0x3b2f40ef	0.0026741584
102	0xbd379912	-0.044823714
103	0xbcafeb55	-0.02147452
104	0xbd2697ed	-0.04067223
105	0xbd3d5644	-0.046224847
106	0x3c494de4	0.012286637
107	0xbcdb244d	-0.026750708
108	0x3b964fd8	0.004587155
109	0xbd2ee09e	-0.04269468
110	0x3ca004d0	0.019533545
111	0xbc409b01	-0.011755706
112	0xbb6976e5	-0.0035623845
113	0x3c8e9d41	0.017408969
114	0xbcba90f6	-0.0227742
115	0x3c347b8a	0.011015782
116	0xbd6f13d7	-0.05836853
117	0xbd2fa130	-0.04287833
118	0x3bddf254	0.0067732725
119	0xbd11ae5d	-0.035566676
120	0xbc11041d	-0.008851078
121	0xbd6d9321	-0.05800164
122	0xbd39794a	-0.045281686
123	0x3a3b07ab	0.00071346265
124	0x3cb51638	0.022105321
125	0x3cf893b6	0.030343872
126	0xbd455cb4	-0.04818411
127	0xbd5f0cd3	-0.05445559
128	0x3cb72081	0.022354366
129	0xbba6842b	-0.0050816736
130	0xbce09bba	-0.027418006
131	0xbb113d1e	-0.0022161673
132	0x3c95f1ac	0.018303715
133	0xbcddcae8	-0.027074292
134	0x3be07e4e	0.006850994
135	0xbd15ece1	-0.03660286
136	0x3cddc4ce	0.027071383
137	0x3c8bd6e9	0.01707025
138	0x3b8e0b3a	0.0043348344
139	0xbbe4a311	-0.006977447
140	0xbc2905e6	-0.010316348
141	0x3ccd988b	0.025097152
142	0xbd29bfaf	-0.04144257
143	0x3bac89c3	0.005265446
144	0xbcc7c055	-0.024383703
145	0x3c96d2af	0.018411009
146	0x3c8bb65b	0.017054727
147	0xbd3205bf	-0.04346251
148	0x3c90843a	0.017641176
149	0xbcaceb65	-0.021108339
150	0x3d1e2a57	0.038614597
151	0xbd09366e	-0.033499174
152	0x3cd16e47	0.02556528
153	0xbbf4076a	-0.007447173
154	0xbc0ace92	-0.008472102
155	0xbc2eb3d0	-0.010662988
156	0x3b605aa7	0.003423372
157	0xbb314807	-0.0027050988
158	0xbbcf8cca	-0.006333922
159	0xbd4ea6f9	-0.050452206
160	0xbccc0b0d	-0.024907613
161	0xbc67127a	-0.014103526
162	0x3caced44	0.02110923
163	0x3c6d309c	0.014476921
164	0xbc33acee	-0.010966523
165	0xba59f124	-0.0008313826
166	0xbd483bdb	-0.048885208
167	0xbcddc6cf	-0.027072338
168	0x3c0721bf	0.008247792
169	0xbc2d9666	-0.01059494
170	0xbc833040	-0.016014218
171	0xbc3da69b	-0.011575366
172	0xbc03438e	-0.008011712
173	0xbcd62510	-0.02614072
174	0xbc815aa4	-0.015790291
175	0x3bab2990	0.0052234605
176	0x3cf6ad2e	0.030111875
177	0x3c16612b	0.00917844
178	0x3cc742c0	0.024323821
179	0xbc7fe04a	-0.0156174395
180	0x3d1810cc	0.037125394
181	0xbd3602aa	-0.044436134
182	0x3c21daa6	0.00987879
183	0xbc8e2113	-0.017349755
184	0xbd33a9d8	-0.043863147
185	0xbd195090	-0.037430346
186	0x3d0d8fa5	0.03456082
187	0x3c9101da	0.017701078
188	0xbcad5177	-0.02115701
189	0x3c0d6c05	0.008631711
190	0xbc24a121	-0.010048182
191	0xbc354fb2	-0.011066364
192	0xbd377b0d	-0.044795085
193	0xbcbcff9a	-0.0230711
194	0x3d1c27d8	0.038123935
195	0x3c919306	0.017770302
196	0xbc8e5310	-0.017373592
197	0x3c8c2d5c	0.017111473
198	0x3cacfe59	0.021117376
199	0x3c53233e	0.01288682
200	0x3caca0b5	0.021072725
201	0xbcc66048	-0.024215832
202	0x3d0ef337	0.034899916
203	0xbc93f340	-0.018060327
204	0x3bd73083	0.0065670623
205	0xbd4818a2	-0.048851617
206	0xbd644b60	-0.055735946
207	0xbb921d04	-0.0044590253
208	0xbd3a1d9a	-0.045438386
209	0xbbe7b9c0	-0.0070717037
210	0xb9f7880e	-0.0004721288
211	0xbcdfb9e0	-0.027310312
212	0x3c4e6b9d	0.012598899
213	0x3c08d436	0.008351376
214	0xbcb4f8d5	-0.022091309
215	0xbd128157	-0.03576788
216	0x3ad602d0	0.0016327742
217	0xbd0d19c9	-0.03444842
218	0x3c5cbe84	0.013473157
219	0xbc9a361b	-0.018824628
220	0x3cb7dc14	0.022443809
221	0xbb272dbc	-0.0025509438
222	0x3ccf2ba7	0.02528937
223	0xbce5218f	-0.027970104
224	0xbbfc6c3f	-0.0077033336
225	0xbcc8d51a	-0.024515677
226	0xbc8ea988	-0.017414823
227	0x3c86f4e9	0.016474204
228	0xbc4c2707	-0.012460477
229	0xbc553d77	-0.013015143
230	0x3d188b9a	0.03724251
231	0x3d0523f1	0.03250498
232	0xbcdeb43b	-0.02718555
233	0xbd3b1cfa	-0.04568193
234	0x3d1d4117	0.038392153
235	0xbbc616c4	-0.0060451943
236	0x3c2c1287	0.010502464
237	0xbcac8662	-0.021060172
238	0xbd1b2fe2	-0.03788746
239	0xbd02e2b9	-0.0319545
240	0xbc150248	-0.009094782
241	0xbd0d99a2	-0.034570344
242	0x3cfd6961	0.030934038
243	0xbbc0bfa4	-0.0058822203
244	0x3c98ce51	0.018653067
245	0xbc67d44f	-0.014149739
246	0xbbfaaf3b	-0.0076502836
247	0x3c37ee2c	0.011226218
248	0x3c6d0bb6	0.014468124
249	0xbc11a2d9	-0.008888924
250	0xbd582e13	-0.052778315
251	0xbd0b001a	-0.033935644
252	0x3d04cc37	0.032421317
253	0xbc797b2b	-0.015227119
254	0xba8c5761	-0.0010707193
255	0xbd48ad4e	-0.0489934

encoder.0.bias f4 [221]
0	0x3cd388f5	0.025822142
1	0x3d1337d5	0.035941917
2	0xbcfb39f0	-0.030667275
3	0xbd434c01	-0.047679905
4	0x3b0298f8	0.0019927602
5	0x3d0b3e74	0.033995107
6	0xbc67f952	-0.014158564
7	0x3c1c04cd	0.009522629
8	0x3e072dff	0.1320114
9	0x3c98b2a9	0.01863988
10	0x3e306543	0.17226128
11	0x3d5aedf3	0.053449582
12	0xbdb70a9d	-0.08937571
13	0xbe137e62	-0.1440368
14	0x3cd860e4	0.026413389
15	0x3c89de34	0.016829588
16	0x3b9f4390	0.004860349
17	0x3cd77846	0.026302468
18	0x3d2fe94b	0.042947095
19	0x3d89e991	0.067340024
20	0x3c11f014	0.008907337
21	0xbd3a8bca	-0.04554347
22	0x3c26eb20	0.010187894
23	0x3c926022	0.017868105
24	0xbd9eff61	-0.077635534
25	0xbd2c6855	-0.042091686
26	0x3d9639cb	0.07335242
27	0xbc589a6c	-0.013220411
28	0x3d794768	0.060859114
29	0xbd569730	-0.052390277
30	0x3e17528c	0.14777583
31	0x3d53ef5c	0.051741943
32	0x3d83cf4c	0.06436023
33	0x3d9676e6	0.07346897
34	0xbdb05362	-0.08609654
35	0x3ddec1fb	0.108768426
36	0xbd8464b5	-0.06464521
37	0x3d65dbcb	0.056117814
38	0xbd587b40	-0.052851915
39	0xbcb7f8a8	-0.022457436
40	0x3d70bdb4	0.058774665
41	0x3d6dfd02	0.058102615
42	0xbc8f3a3b	-0.017483821
43	0x3c8d9c85	0.017286548
44	0xbac74e88	-0.0015205899
45	0x3cd801fb	0.026368132
46	0x3d82a83a	0.06379743
47	0xbcb77d25	-0.02239854
48	0xbb99f90b	-0.0046988777
49	0xbd67319a	-0.056443788
50	0x3d0ce83b	0.03440116
51	0x3d1b11e9	0.037858877
52	0x3d09fb15	0.033686716
53	0xbd49e3f4	-0.04928966
54	0xbdc994c1	-0.09842826
55	0x3d998bf2	0.074973956
56	0xbd9fe930	-0.07808149
57	0x3dbd9cb7	0.092584066
58	0x3bf7915b	0.0075551695
59	0x3d6f722c	0.058458492
60	0x3ce71dde	0.028212484
61	0xbd662dae	-0.056195907
62	0x3d9d5a11	0.076831944
63	0x3d7812a8	0.060564667
64	0xbd1a303e	-0.037643664
65	0x3b79fda7	0.0038145573
66	0x3d15ed29	0.036603127
67	0x3b655fef	0.0034999808
68	0xbc7778fe	-0.01510453
69	0x3da933e3	0.0826185
70	0xbc3af29a	-0.01141038
71	0xbdfb54d9	-0.12272043
72	0xbc1a93f0	-0.009434685
73	0xbadfa0c1	-0.0017061458
74	0x3dc81cad	0.097710945
75	0xbdbca978	-0.09212011
76	0xbda3e7d9	-0.08003206
77	0x3d54d99a	0.051965334
78	0xbd02aad7	-0.031901207
79	0x3c3d04e9	0.011536815
80	0xbd29ab2e	-0.041423015
81	0x3c06eea6	0.008235609
82	0x3d186bdd	0.03721224
83	0xbd23633c	-0.03988956
84	0x3d8e69f2	0.06953801
85	0xbd66321d	-0.056200135
86	0x3c7f0432	0.015564965
87	0xbd93bccb	-0.07213744
88	0xbd75a6ab	-0.0599734
89	0x3995f14d	0.00028599278
90	0xbdb60130	-0.08886945
91	0xbde9cb96	-0.11415784
92	0x3d65a1ff	0.056062695
93	0xbe043e41	-0.12914373
94	0x3c5514c9	0.013005444
95	0xbb99361b	-0.0046756393
96	0x3d3a00fb	0.04541109
97	0xbb0964e4	-0.0020964677
98	0x3cf9cb75	0.030492524
99	0xbddc75a1	-0.107646234
100	0x3cceab39	0.02522813
101	0x3d4dca5b	0.05024181
102	0x3c6ecdd7	0.014575443
103	0xbc00f06f	-0.007869824
104	0x3cc75066	0.02433033
105	0x3ccc0bd3	0.024907982
106	0xbd32a3f7	-0.0436134
107	0xbc42ebed	-0.011897069
108	0xbb1ad1aa	-0.0023623505
109	0xbcc8aa3b	-0.024495235
110	0x3d5358a3	0.051598202
111	0x3d9d5006	0.07681279
112	0x3ddcc7d2	0.107803
113	0xbd5fd8b8	-0.05465004
114	0xbbe04c67	-0.0068450454
115	0x3d762482	0.06009341
116	0xbda40eb6	-0.080106184
117	0x3b3503f9	0.0027620776
118	0xbde990b7	-0.11404555
119	0x3de2c239	0.11072201
120	0xbd60f6b2	-0.054922767
121	0xbb939f2e	-0.0045050597
122	0xbc5c8301	-0.013458968
123	0xbb7bb5c8	-0.003840791
124	0x3d19d172	0.03755326
125	0x3ab1d5e8	0.0013567777
126	0xbce0b0b0	-0.027428001
127	0xbc032b3b	-0.008005912
128	0xbe063839	-0.13107385
129	0x3b38c3ee	0.0028192955
130	0x3c810540	0.015749574
131	0x3d77e32f	0.060519394
132	0x3d7e0d1d	0.062024225
133	0x3e72c041	0.23706152
134	0xbd28c893	-0.041206907
135	0xbd9f5d12	-0.07781424
136	0xbcb2fa2e	-0.02184781
137	0xbcb395bf	-0.02192199
138	0x3cba7962	0.022762958
139	0xbd937219	-0.07199497
140	0x3bc2bf9d	0.0059432522
141	0x3d3eea38	0.046610087
142	0xbc0599f2	-0.008154379
143	0xbc4e3b64	-0.012587402
144	0xbcfee480	-0.031114817
145	0x3c40f81a	0.011777902
146	0xbb28375f	-0.002566777
147	0xbc76808c	-0.015045296
148	0xbd96afcb	-0.073577486
149	0x3cf08935	0.0293623
150	0xbcb7f927	-0.022457672
151	0xbcea76dd	-0.028621132
152	0xbad2b6b2	-0.0016076176
153	0xbd4f2866	-0.050575636
154	0xbdc30bbf	-0.09523725
155	0xbd28684d	-0.041115094
156	0x3c566392	0.013085263
157	0x3c607ada	0.013701165
158	0x3d1bd314	0.038043097
159	0xbde2ee44	-0.11080602
160	0xbd1b4a02	-0.037912376
161	0x3d254e5d	0.040357936
162	0xbc3e31d8	-0.011608563
163	0xbcbb306a	-0.022850234
164	0xbcd10af8	-0.025517926
165	0x3b32c70d	0.0027279288
166	0xbdc2cac5	-0.095113315
167	0x3d671725	0.056418557
168	0x3da57d40	0.0808053
169	0x3dede4b8	0.1161589
170	0xbd0784ca	-0.033085622
171	0x3dcd9934	0.10038987
172	0x3e029049	0.12750353
173	0xbd52d037	-0.0514681
174	0x3d8afe87	0.067868285
175	0x3d9f7d2b	0.07787546
176	0xbc74958b	-0.014928232
177	0xbdbde051	-0.092713006
178	0xbe136718	-0.14394796
179	0x3ea19fd9	0.31567267
180	0x3c8b1de8	0.016982034
181	0x3cb13b50	0.021634728
182	0xbc410d73	-0.011782992
183	0xbce38931	-0.027775379
184	0x3da0e1a7	0.0785554
185	0x3c4d9a83	0.0125490455
186	0x3d45c91c	0.048287496
187	0x3da73537	0.08164447
188	0xbdc62ffe	-0.096771225
189	0x3d95d589	0.07316119
190	0x3db8848c	0.09009656
191	0x3dae9e0f	0.08526241
192	0xbd890e1a	-0.06692143
193	0x3dadc1b3	0.08484211
194	0x3d8b71de	0.06808828
195	0xbb9e9e11	-0.0048406203
196	0xbc3a8cf4	-0.011386145
197	0xbcd6123a	-0.026131738
198	0x3c357ff0	0.011077866
199	0xbb2e9bca	-0.002664315
200	0xbc78b3d9	-0.015179598
201	0x3c7f6175	0.0155872
202	0x3b6a4d4f	0.0035751646
203	0xbde3c15f	-0.11120867
204	0xbcb3ee4b	-0.021964213
205	0x3dfc62c9	0.12323529
206	0x3e00bf07	0.12572871
207	0xbd5fe3ff	-0.054660793
208	0xbdfaf082	-0.122529045
209	0x3db96009	0.090515204
210	0xbdc7e08a	-0.09759624
211	0xba843add	-0.0010088343
212	0xbdc7c475	-0.09754268
213	0xbd36051e	-0.044438474
214	0x3da0e5f0	0.07856357
215	0xbca91d3f	-0.020643828
216	0x3d826459	0.06366796
217	0xbd3e87e1	-0.046516303
218	0x3da6eeac	0.08150992
219	0x3d69d97b	0.05709217
220	0x3df51bec	0.11968216

encoder.2.weight f4 [110, 221]
0	0x3d79ad64	0.060956374
1	0xbd033dbb	-0.032041293
2	0x3c0127b1	0.007882998
3	0xbd54d96a	-0.051965155
4	0xbd26061b	-0.040533166
5	0xbce8420d	-0.028351808
6	0xbcac6bd5	-0.021047512
7	0xbd4696c1	-0.048483614
8	0xbca80e45	-0.020514617
9	0xbd2e12eb	-0.04249851
10	0xbd907992	-0.07054438
11	0xbd4c2f64	-0.049849883
12	0x3c34ea4e	0.011042191
13	0xbd6c2418	-0.05765161
14	0xbc16dac2	-0.009207429
15	0x3c8521d7	0.016251488
16	0x3d56dbd3	0.052455734
17	0xbc8271b5	-0.01592336
18	0x3d7c9bb9	0.061671946
19	0x3d57d5eb	0.052694242
20	0x3d26e101	0.040741924
21	0x3d607bc8	0.054805547
22	0xbd445ac5	-0.047938127
23	0x3c64fab5	0.013975789
24	0xbc232d6a	-0.009959558
25	0x3d810a04	0.063007385
26	0xbc0f315d	-0.0087397965
27	0xbd3496a5	-0.04408898
28	0x39a81e17	0.00032065876
29	0xbc754921	-0.014971049
30	0xbd09a85f	-0.033607837
31	0xbc34d86f	-0.01103793
32	0xbd14ffe2	-0.03637684
33	0x3d80aedb	0.06283351
34	0x3c31a8df	0.010843485
35	0xbce67b11	-0.028134855
36	0xbc7d0f4c	-0.015445542
37	0x3d8555f6	0.065105364
38	0x3cdf8925	0.027287075
39	0xbd5708ab	-0.0524985
40	0xbd57cff7	-0.052688565
41	0x3c7531a2	0.014965447
42	0x3d662ca7	0.056194928
43	0xbc531084	-0.012882356
44	0x3d0925ff	0.0334835
45	0x3d3da26f	0.046297487
46	0xbc754b9d	-0.014971641
47	0x3d8e7a1b	0.069568835
48	0xbc555df4	-0.013022888
49	0xbd257323	-0.040393006
50	0x3c104138	0.008804612
51	0x3ca6d8f1	0.020367118
52	0xbb7150f1	-0.0036821926
53	0xbd09cb1f	-0.033640977
54	0x3d59a174	0.05313249
55	0xbc9de9f7	-0.019276602
56	0xbc2057ae	-0.0097865295
57	0x3d7f7ca3	0.062374722
58	0xbc5b01cb	-0.013367127
59	0xbcea0a4c	-0.028569363
60	0xbd48647a	-0.048923947
61	0xba80ebb8	-0.0009835875
62	0x3d3ef5d3	0.046621155
63	0x3c1094db	0.008824552
64	0xbcc107ce	-0.023563292
65	0x3d421709	0.04738525
66	0xbd506f86	-0.050887607
67	0xbd7d3219	-0.061815355
68	0xbd4d7b89	-0.05016664
69	0xbb74c46b	-0.003734852
70	0xbca26607	-0.019824041
71	0xbd1d0b80	-0.038341045
72	0x3d9b43e8	0.075813115
73	0xbd183557	-0.037160244
74	0x3c2d92ab	0.01059405
75	0x3d66088b	0.05616049
76	0xbce8a113	-0.028397119
77	0xbd5aa548	-0.05338028
78	0xbd673a96	-0.056452356
79	0xbc216d10	-0.009852663
80	0x399e38d4	0.0003017845
81	0x3c5314fd	0.012883422
82	0x3d967e4d	0.07348309
83	0x3b65620e	0.0035001072
84	0x3bfd44ad	0.007729134
85	0xbc891a7c	-0.016736262
86	0x3c257115	0.010097762
87	0xbc68a1bb	-0.014198716
88	0x3d8870f3	0.06662168
89	0x3d53db49	0.0517228
90	0xbd419259	-0.04725871
91	0xbce0dccf	-0.02744904
92	0xbd056112	-0.032563277
93	0xbd422eed	-0.047408033
94	0xbc28a993	-0.010294336
95	0xbcd61ee1	-0.026137771
96	0x3d6d820f	0.05798536
97	0x3c450565	0.012025212
98	0xbc14279e	-0.009042649
99	0xbd484dc9	-0.048902307
100	0x3d893aa9	0.06700642
101	0x3cbed8d6	0.023296755
102	0x3d38b876	0.04509779
103	0xbda0fe0f	-0.07860958
104	0x3d3b25c0	0.045690298
105	0xbd4b6906	-0.049660705
106	0x3cd594b4	0.026071884
107	0xbcef31d3	-0.029198563
108	0x3da3579d	0.07975695
109	0x3d261147	0.04054382
110	0xbcb55ff9	-0.02214049
111	0xbc3c0aa7	-0.011477149
112	0x3ca2e635	0.019885162
113	0x3c924f6f	0.017860143
114	0x3ce1448e	0.02749851
115	0xbcb8f594	-0.022578038
116	0xbd1a77b0	-0.0377118
117	0xbd183f95	-0.03717001
118	0x3c97d0e1	0.018532218
119	0xbd6d70ae	-0.057968788
120	0x3cf25aee	0.029584374
121	0xbbe77b09	-0.0070642275
122	0xbc995fcb	-0.018722435
123	0x3cddee81	0.027091267
124	0x3cdc7ca9	0.026914911
125	0x3d8dc0c0	0.0692153
126	0xbae9bbf2	-0.0017832501
127	0xbd22ddea	-0.039762415
128	0xbd3a7abf	-0.045527216
129	0xbcd56c7a	-0.026052702
130	0xbd146f52	-0.036238976
131	0x3bd7643e	0.006573229
132	0x3d2cb991	0.042169157
133	0xbda6913d	-0.08133171
134	0x3d556c56	0.05210527
135	0xbd69571c	-0.05696784
136	0x3d84faeb	0.06493171
137	0xbcf019f6	-0.029309254
138	0xbc268504	-0.010163549
139	0x3d466a68	0.04844132
140	0xbc95b1a1	-0.018273177
141	0x3c23bc68	0.00999365
142	0x3d443e19	0.047910783
143	0xbcebacec	-0.028768979
144	0xbc97bdf5	-0.018523196
145	0xbbe63f0e	-0.0070265597
146	0x3c597ec7	0.013274855
147	0x3d5e3b10	0.054255545
148	0xbd24ecff	-0.04026508
149	0x3d6bdc60	0.057583213
150	0x3d8004aa	0.062508896
151	0xbc869e71	-0.016432973
152	0x3d2e40be	0.04254221
153	0x3c22ae1c	0.009929206
154	0x3d163c95	0.03667887
155	0x3c19ad7d	0.009379742
156	0xbd635644	-0.05550219
157	0xbd3f64e6	-0.046727084
158	0x3d20be4f	0.039243992
159	0xbc001ac5	-0.007818882
160	0xbc14ba22	-0.009077581
161	0x3d398f3c	0.045302615
162	0xbd345e15	-0.044035036
163	0x3d54f266	0.05198898
164	0xbb666b8d	-0.003515932
165	0xbcb84a36	-0.022496324
166	0x3d262162	0.04055918
167	0x3d88e2af	0.066838615
168	0x3d2fe0fa	0.042939164
169	0x3ce0c6d2	0.027438555
170	0x3d16d48a	0.036823787
171	0xbd6f31ab	-0.058396976
172	0xbca2e342	-0.019883756
173	0xbce712e6	-0.028207254
174	0x3bc3c3ba	0.00597426
175	0xbd68abd6	-0.0568045
176	0xbd792803	-0.060829174
177	0xbd46c94f	-0.048531827
178	0xbdca9773	-0.09892168
179	0xbdbfef4d	-0.09371815
180	0x3c2f739c	0.010708716
181	0x3cad1e04	0.021132477
182	0xbd1bc24e	-0.0380271
183	0x3cadd0b4	0.021217681
184	0x3d5d5aff	0.05404186
185	0xbb250685	-0.0025180888
186	0x3bac6eff	0.005262255
187	0xbb4729d6	-0.0030389926
188	0x3d88244f	0.0664755
189	0xbd3ef14b	-0.046616834
190	0x3d4cabef	0.049968656
191	0x3cceaca7	0.025228811
192	0x3c52327a	0.012829417
193	0x3ce95103	0.028481012
194	0x3be5bf78	0.0070113502
195	0x3d62c027	0.055359032
196	0x3d9c4039	0.07629437
197	0xbcc80c4f	-0.024419932
198	0x3ca31628	0.019908026
199	0x3ca98deb	0.020697555
200	0x3c160ed5	0.00915881
201	0x3d7fd5bd	0.062459696
202	0x3a8741f4	0.0010319338
203	0xbd3925cf	-0.045202073
204	0x3d88cfa3	0.066802286
205	0x3d4c7cac	0.049923584
206	0x3d3946a2	0.045233376
207	0xbd97defa	-0.07415576
208	0xbd2cf7f9	-0.042228673
209	0x3d3f0418	0.046634763
210	0xbc9e731c	-0.019341998
211	0xbd141072	-0.036148496
212	0x3cbc7567	0.0230052
213	0x3bbf6170	0.005840473
214	0x3d57c391	0.05267674
215	0xbacf590c	-0.0015819385
216	0x3d318f3e	0.043349497
217	0x3d2176b8	0.03941986
218	0x3bd63ff0	0.0065383837
219	0x3d491d3d	0.04910015
220	0xbd415c2b	-0.04720704
221	0x3c1ccc2c	0.009570163
222	0x3cc9674b	0.024585387
223	0xbcd4130f	-0.025887994
224	0xbc622a89	-0.0138040865
225	0x3d851603	0.06498339
226	0x3d3006e2	0.042975314
227	0xb9bd0604	-0.0003605337
228	0x3cc2b034	0.02376566
229	0x3d89369c	0.06699869
230	0xbceb99aa	-0.028759796
231	0x3d5db4d7	0.05412754
232	0xbc6c587b	-0.014425392
233	0x3c4a4b48	0.01234705
234	0x3d10dc97	0.03536662
235	0x3d517967	0.05114117
236	0x3cf18051	0.029480131
237	0x39d2e126	0.0004022207
238	0x3d487cf9	0.04894731
239	0xbc9b20c7	-0.018936528
240	0xbd661064	-0.056167975
241	0xbd0523fa	-0.032505013
242	0x3ca612af	0.02027258
243	0x3cf4bcf0	0.029875249
244	0x3d290914	0.041268423
245	0xbd28fb0a	-0.041255035
246	0xbcb1d563	-0.021708196
247	0x3d45ba17	0.048273172
248	0x3ba8609a	0.005138469
249	0x3b1478e9	0.0022655076
250	0xb9d35892	-0.00040311046
251	0xbd2ef1ac	-0.042710945
252	0xbd1499f5	-0.036279637
253	0x3cb23c65	0.021757314
254	0xbd2c72ea	-0.042101778
255	0xbd6ff15c	-0.058579788

encoder.2.bias f4 [110]
0	0xbd52df4c	-0.051482484
1	0xbc1e446f	-0.0096598705
2	0xbc6aafc0	-0.014324129
3	0xbc64efc9	-0.013973185
4	0x3c8f26e6	0.017474603
5	0x3b851017	0.004060756
6	0x3de51ec6	0.1118751
7	0xbd09ca88	-0.033640414
8	0xbbebb58e	-0.007193274
9	0xbd84719a	-0.0646698
10	0xbdaf212c	-0.08551249
11	0x3d4a0809	0.04932407
12	0x3dae65d7	0.08515518
13	0x3d9672c7	0.07346111
14	0xbd955aa1	-0.07292677
15	0x3c338ec9	0.010959336
16	0x3d7e377b	0.06206463
17	0xbc806cae	-0.015676823
18	0x3da2bbaa	0.0794595
19	0xbe1509ce	-0.14554521
20	0xbcc319da	-0.023816038
21	0x3de8f9b4	0.11375752
22	0xbd34132e	-0.043963604
23	0x3b08e3d6	0.0020887754
24	0xbd203ea3	-0.039122235
25	0x3c94de27	0.018172337
26	0x3c8bfd39	0.01708852
27	0xbd25e780	-0.04050398
28	0xbc63bb3a	-0.013899619
29	0xbd6714b3	-0.056416225
30	0x3dd09a2e	0.101856574
31	0xbd3bf717	-0.04588994
32	0xbd1f797b	-0.038934212
33	0xbc51a9f6	-0.0127968695
34	0xbd27c389	-0.04095796
35	0x3db186ed	0.08668313
36	0x3dea09ef	0.11427676
37	0x3d69e19e	0.05709993
38	0xbd3ffe67	-0.046873476
39	0xbd5f365d	-0.054495204
40	0x3ad86c36	0.0016511742
41	0xbcb7ccba	-0.022436488
42	0xbd9b675a	-0.07588072
43	0xbd7f2090	-0.062286913
44	0xbd84e753	-0.06489434
45	0xbd86369f	-0.06553387
46	0x3bbe7138	0.0058118366
47	0x3dee03d9	0.11621828
48	0x3d90edd8	0.07076615
49	0x3c07da8d	0.008291853
50	0x3de161e0	0.11004996
51	0xbcd5688c	-0.026050828
52	0x3d5f80b2	0.054566093
53	0xbd8b4436	-0.068001196
54	0x3be7616d	0.0070611746
55	0xbcc10a67	-0.02356453
56	0x3d9a2dad	0.07528243
57	0xbbb0e4b3	-0.005398357
58	0x3c3d8c23	0.011569056
59	0xbce4510b	-0.027870676
60	0xbb24d3a7	-0.0025150569
61	0x3d90fc9d	0.07079432
62	0xbd4fe54e	-0.05075579
63	0xbc263126	-0.010143554
64	0x3d4c7c3e	0.049923174
65	0xbc356bf1	-0.0110730985
66	0xbb5b68fe	-0.0033479328
67	0xbd68cb0d	-0.05683427
68	0xbd67437f	-0.056460854
69	0x3d25b835	0.040458877
70	0xbc10bff4	-0.008834828
71	0xbd2c3c7f	-0.04204988
72	0xbda4a1fe	-0.0803871
73	0xba09b19f	-0.0005252603
74	0x3d93c7be	0.07215832
75	0x3d93d9a4	0.07219246
76	0xbdd30709	-0.10304076
77	0xbc674116	-0.014114639
78	0x3d12ee97	0.03587207
79	0x3db164cb	0.08661803
80	0x3badef4d	0.005308068
81	0xbbcbb127	-0.0062161866
82	0x3df341ef	0.1187781
83	0x3bb02fff	0.0053768153
84	0x3d8f008b	0.069825254
85	0x3db792d5	0.08963553
86	0xbd7194f8	-0.05897996
87	0xbc22c0f2	-0.009933697
88	0x3d86dbe5	0.0658491
89	0xbd8547fc	-0.065078706
90	0x3da8206f	0.08209311
91	0xbd92ba3f	-0.0716443
92	0x3dbdc287	0.09265619
93	0xbd9a1f03	-0.07525446
94	0xbb2029f0	-0.002443906
95	0xbc82c2e8	-0.01596208
96	0x3d0fafc9	0.03507975
97	0x3d40e190	0.047090113
98	0xbd80f76f	-0.06297194
99	0x3ca2eb10	0.019887477
100	0x3d8b1b8c	0.067923635
101	0xbd827b06	-0.06371121
102	0xbd720ac0	-0.059092283
103	0xbd0bdfe7	-0.034149077
104	0x3ce20a5b	0.027592828
105	0xbc7e6825	-0.01552776
106	0xbd046fc3	-0.032333147
107	0xbda26346	-0.07929091
108	0x3d8508e2	0.06495835
109	0xbc60e006	-0.013725286

mean_layer.weight f4 [2, 110]
0	0x3d89f458	0.06736058
1	0xbd399c81	-0.04531527
2	0xbd507015	-0.05088814
3	0x3dd4ad2c	0.103845924
4	0xbda1a403	-0.07892611
5	0xbdb0a3c5	-0.086249866
6	0xbd588f40	-0.05287099
7	0xbd212676	-0.03934332
8	0xbc970c27	-0.018438412
9	0xbb0eabf4	-0.0021769973
10	0x3d968a48	0.07350594
11	0xbd84f879	-0.06492705
12	0x3d0e8ad2	0.034800358
13	0x3d31c2de	0.04339873
14	0xbd152a86	-0.036417507
15	0xbca28dd9	-0.019843029
16	0xbcd4f955	-0.025997797
17	0x3ce5cbd1	0.028051289
18	0xbdab1bb7	-0.083548956
19	0x3dd484cb	0.10376891
20	0xbd0f4938	-0.034981936
21	0x3c847e88	0.016173616
22	0x3d75212d	0.059846092
23	0x3b1a6b9b	0.0023562673
24	0x3dbec71f	0.09315323
25	0xbd43266d	-0.047644068
26	0x3be2e34c	0.0069240686
27	0x3d5f71e6	0.05455198
28	0x3d87da16	0.066333935
29	0x3c8b376c	0.0169942
30	0xbd8fb7a1	-0.07017446
31	0x3beb3b6f	0.007178716
32	0x3a7ab7e7	0.0009564147
33	0xbba32289	-0.004978482
34	0xbceb6743	-0.028735762
35	0xbd0f9695	-0.035055716
36	0xbdc91f0b	-0.09820374
37	0xbc85e44a	-0.016344208
38	0x3c04c28a	0.008103022
39	0x3d1efe30	0.03881663
40	0xbd3c9d87	-0.046048667
41	0xbcf0b8c2	-0.029384974
42	0x3da58a66	0.08083038
43	0x3c2def1f	0.010616093
44	0x3cf6f104	0.030144222
45	0x3db42552	0.08796181
46	0xbcaf7e6d	-0.02142259
47	0xbdc4f3ee	-0.096168384
48	0xbd638ff6	-0.055557214
49	0x3d332ee8	0.043745905
50	0xbd95f562	-0.07322194
51	0xbc2f9ec4	-0.010719005
52	0xbb2b79f4	-0.002616522
53	0x3ad4f086	0.0016245998
54	0xbb6c0c2f	-0.0036018004
55	0xbd32e75b	-0.04367767
56	0xbd355cb9	-0.04427788
57	0x3d9d6b50	0.07686484
58	0xbd176b6c	-0.03696768
59	0x3a9e955d	0.0012098957
60	0x3d1d7a7e	0.038446896
61	0xbdab2522	-0.08356692
62	0x3d36758d	0.0445457
63	0x3daa460e	0.08314143
64	0xbd8e4ca9	-0.069482155
65	0xbd6d4b69	-0.057933245
66	0xbd368154	-0.04455693
67	0xbd7666c9	-0.060156617
68	0x3d77e0ec	0.060517237
69	0xbce151fd	-0.027504915
70	0xba7be92f	-0.0009609637
71	0x3cba5c5f	0.022749124
72	0x3bb3efe1	0.0054912423
73	0xbd05da6b	-0.032679003
74	0xbd173ff9	-0.036926243
75	0xbdc33d08	-0.09533125
76	0x3d937c0b	0.07201394
77	0xbd5beb61	-0.05369127
78	0x3d7ec131	0.06219596
79	0xbd646153	-0.055756878
80	0xbd9357e5	-0.07194499
81	0xbdb975da	-0.090556815
82	0x3ac95b0b	0.0015362216
83	0x3ceef388	0.02916886
84	0xbd1e249f	-0.038609143
85	0xbccb56a6	-0.02482159
86	0xbd6212b3	-0.055193614
87	0x3d8a7a24	0.06761578
88	0x3d1c5032	0.038162418
89	0x3bef4509	0.007301931
90	0xbdbdf0f6	-0.09274475
91	0x3d17d9ab	0.03707282
92	0xbdc83792	-0.09776224
93	0x3d860098	0.06543082
94	0xbd7b9c46	-0.06142833
95	0xbb75dcaa	-0.003751556
96	0xbcbcab9b	-0.023031047
97	0xbd3b9f21	-0.045806054
98	0x3d68e49d	0.056858648
99	0xbd84fe67	-0.06493836
100	0xbd5d27e8	-0.053993136
101	0x3b704828	0.0036664102
102	0xbacc63f2	-0.0015593751
103	0x3d33fab4	0.04394026
104	0xbd6f694d	-0.058450032
105	0x3d7936c6	0.06084325
106	0xbda9a705	-0.082838096
107	0x3dcaeaba	0.09908052
108	0x3d528a29	0.05140129
109	0x3d743b10	0.05962664
110	0x3d49d3a4	0.0492741
111	0xbd21de57	-0.03951868
112	0xbc6946d3	-0.014238077
113	0x3d4a8a04	0.04944803
114	0xbd755361	-0.05989397
115	0xbd71716d	-0.058946062
116	0xbd45b306	-0.048266433
117	0xbd08bb2c	-0.033381626
118	0xbc1058b5	-0.008810212
119	0xbd01be91	-0.03167588
120	0xbd899d31	-0.06719435
121	0xbd465582	-0.04842139
122	0x3e287667	0.16451417
123	0x3d867a39	0.06566281
124	0xbd416518	-0.04721555
125	0xbd01dc3c	-0.031704172
126	0x3db8cdd5	0.09023634
127	0x3c50f49f	0.012753635
128	0xbd14ad69	-0.03629819
129	0x3d4ffab8	0.050776213
130	0xbd205e74	-0.039152578
131	0x3da685f9	0.08131022
132	0x3c9f7215	0.019463578
133	0x3ac58f29	0.0015072572
134	0x3d65d577	0.05611178
135	0xbd782281	-0.06057978
136	0x3b2ee4d1	0.0026686678
137	0x3aaa9a95	0.001301604
138	0xbd80717c	-0.062716454
139	0xbd1188e6	-0.035530947
140	0xbd360e2f	-0.04444712
141	0x3b18285e	0.002321742
142	0xbd428277	-0.047487702
143	0xb9b4925e	-0.00034441327
144	0xbd90dedd	-0.07073758
145	0x3d8da809	0.06916816
146	0x3b2a34fa	0.0025971518
147	0xbc806b05	-0.01567603
148	0xbd1f1aa2	-0.03884376
149	0x3d1395cd	0.036031533
150	0x3d90ba31	0.07066763
151	0xbd7d4839	-0.061836455
152	0x3da28af3	0.07936659
153	0xbd32e803	-0.043678295
154	0xbd1fad02	-0.038983352
155	0x3d4f285e	0.050575607
156	0x3d890cb9	0.0669188
157	0x3ca06bff	0.019582747
158	0xbbbdba67	-0.005790043
159	0xbd305495	-0.043049414
160	0x3cd9f7c1	0.026607396
161	0x3908028e	0.00012970922
162	0x3cf35c1d	0.029707009
163	0xbc67f41d	-0.014157322
164	0xbc4e662b	-0.012597601
165	0x3d94533d	0.07242439
166	0xbd0be554	-0.03415425
167	0x3d0500ac	0.032471344
168	0xbd8a53c0	-0.06754255
169	0xbcf4a798	-0.029865071
170	0xb9d39de1	-0.00040362685
171	0xbd40f0de	-0.04710471
172	0x3d32c02f	0.04364031
173	0x3d48e162	0.049043067
174	0x3cfca5b6	0.030840736
175	0x3d60d58a	0.054891147
176	0xbcd92527	-0.026506973
177	0xbd73a46d	-0.05948298
178	0xbd551d09	-0.052029643
179	0xbc2718b6	-0.010198763
180	0xbcc71dbd	-0.024306173
181	0x3d2da3ea	0.04239265
182	0x3a48f5d4	0.0007666026
183	0xbcce7ebe	-0.02520692
184	0xbd09e7f7	-0.033668485
185	0xbaf5d5d9	-0.0018755748
186	0x3d985406	0.07437901
187	0x3bc63ff6	0.006050105
188	0x3d0e09d2	0.034677334
189	0xbc501775	-0.012700905
190	0xbcc9995d	-0.024609262
191	0xbd6bdc80	-0.057583332
192	0x3d0d6e1a	0.03452883
193	0x3c910e1b	0.017706921
194	0x3ccbe413	0.024889028
195	0x3d984e09	0.07436759
196	0xbd2b185b	-0.041771274
197	0xbc3a9c55	-0.0113898115
198	0x3d46858b	0.0484672
199	0xbd3d8089	-0.04626516
200	0xbd8c3605	-0.06846241
201	0xbc233c6b	-0.009963135
202	0x3b868ed0	0.00410638
203	0x3cc15a35	0.023602584
204	0xbd0ac238	-0.033876628
205	0xbd76bdc8	-0.060239583
206	0x3d85e117	0.06537073
207	0x3c59cad6	0.013292989
208	0xbd1665d3	-0.0367182
209	0x3d6c054f	0.05762225
210	0xbd127823	-0.035759103
211	0x3c524b26	0.0128353
212	0xbaaeeaa0	-0.001334507
213	0x3c57a2a8	0.013161339
214	0xbd6d71ea	-0.057969965
215	0xbd82296e	-0.06355558
216	0x3db366c5	0.08759836
217	0x3d7aea8a	0.06125883
218	0x3d7f3b00	0.062312126
219	0xbd7fadfc	-0.062421784

mean_layer.bias f4 [2]
0	0xbd490ff7	-0.04908749
1	0x3dbcb25c	0.09213707

logvar_layer.weight f4 [2, 110]
0	0xbd0b48d8	-0.034005016
1	0xbd7feaa7	-0.06247964
2	0x396d42c2	0.0002262695
3	0x3cb75b20	0.022382319
4	0x3d3ccaea	0.04609195
5	0x3d9160b3	0.07098522
6	0xbc2a2a00	-0.01038599
7	0x3c9992a8	0.018746689
8	0x3c9919a3	0.018688982
9	0xbce113bf	-0.027475236
10	0xbd102157	-0.035188045
11	0xbcc568bb	-0.024097791
12	0xbbb61688	-0.005556885
13	0xbbb690d4	-0.005571464
14	0xbda0d4a0	-0.07853055
15	0xbd03a84d	-0.032142926
16	0x3d9974ba	0.07492967
17	0xbce46c0f	-0.027883558
18	0xbcfede04	-0.031111725
19	0x3cecf164	0.028923698
20	0x3d54311c	0.051804647
21	0xbd0e65fa	-0.03476522
22	0xbd6dde88	-0.05807355
23	0x3b3160d1	0.0027065764
24	0xbc36fbde	-0.011168448
25	0x3d5debd5	0.054179985
26	0xbd1a2355	-0.03763135
27	0xbcf30898	-0.029667184
28	0x3d4e2ab8	0.05033371
29	0x3be74466	0.0070577143
30	0x3c7bbbf1	0.015364633
31	0x3c1231ce	0.008923007
32	0xbc59009e	-0.013244776
33	0xbc9449af	-0.018101541
34	0xbab289b3	-0.001362136
35	0x3daab448	0.08335167
36	0xbcfa32ae	-0.030541744
37	0xbd2a81f4	-0.04162784
38	0xbce86e11	-0.028372796
39	0xbd6a4f7d	-0.057204712
40	0x3dbbbce0	0.091668844
41	0x3d0eae74	0.03483434
42	0x3d15220a	0.036409415
43	0xbce23c7b	-0.02761673
44	0x3c62761b	0.013822104
45	0xbd6f8384	-0.058475032
46	0xbd37332a	-0.04472653
47	0x3d9b90f3	0.07596006
48	0xbb8210d0	-0.0039692894
49	0xbc7d835d	-0.015473214
50	0x3c35fc3c	0.011107501
51	0xbba0cc34	-0.0049071554
52	0x3d1ff326	0.039050244
53	0xbd1bafbf	-0.0380094
54	0xbd869e58	-0.065731704
55	0xbd797018	-0.060897917
56	0x3c412141	0.0117877135
57	0xbd25248e	-0.040318064
58	0x3d393e64	0.045225516
59	0xbd259644	-0.040426508
60	0x3cc07947	0.02349533
61	0xbd927a2a	-0.07152207
62	0xbd9ef56d	-0.07761655
63	0x3c1c2917	0.009531281
64	0xbc5cb01b	-0.013469721
65	0xbd3e2461	-0.046421412
66	0x3cd6f9dc	0.02624219
67	0x3cf75459	0.030191587
68	0x3caa5055	0.020790258
69	0xbd434ac4	-0.047678724
70	0xbd8582b5	-0.06519071
71	0x3d9e31f2	0.0772437
72	0xbcec0afd	-0.028813833
73	0x3af8c811	0.0018980523
74	0xbcb10d4f	-0.021612791
75	0x3c1667ed	0.009180051
76	0x3d195f26	0.037444256
77	0x3db2975d	0.087202765
78	0xbbf518dd	-0.0074797706
79	0x3bc9aa9e	0.0061543724
80	0x3dac42da	0.084111884
81	0xbd31ef45	-0.043441076
82	0xbd19d72d	-0.037558723
83	0x3bc00dfa	0.005861041
84	0x3cee1085	0.029060612
85	0xbd71c3c5	-0.05902459
86	0x3a0068d7	0.0004898435
87	0x3c6f6955	0.014612515
88	0x3a7dc34e	0.0009680287
89	0xbd8ef197	-0.06979673
90	0x3d294dc0	0.041333914
91	0x3d350c2e	0.04420107
92	0xbd0e20fb	-0.03469942
93	0x3be48f33	0.0069750785
94	0xbbdb11d1	-0.0066854735
95	0x3cfe270b	0.031024477
96	0xbd81c7f2	-0.06336965
97	0xbd6178bc	-0.055046782
98	0x3cad75e1	0.021174373
99	0x3d18fa41	0.037348036
100	0x3c8d6514	0.017260112
101	0x3cf2857c	0.029604666
102	0xbcdf927d	-0.02729153
103	0xbb6ac610	-0.003582362
104	0x3d7adc52	0.06124527
105	0xbd20fd7d	-0.039304245
106	0xbaab4e74	-0.0013069646
107	0xbd076242	-0.03305269
108	0x3c4ba16d	0.012428624
109	0xbd150b26	-0.036387585
110	0x3bbf12f0	0.005831115
111	0x3c6d9209	0.0145001495
112	0xbb42af37	-0.0029706487
113	0x3c84511c	0.016151957
114	0x3d880d0d	0.06643114
115	0x3d6331bb	0.05546735
116	0x3ae2488d	0.0017264053
117	0xbc0545bc	-0.008134302
118	0x3d181966	0.037133597
119	0x3c0efaae	0.008726759
120	0x3d828803	0.063735984
121	0xbcdee245	-0.027207503
122	0x3c74604f	0.01491554
123	0xbc9dbd81	-0.019255402
124	0x3d697cf4	0.05700393
125	0xbc078ca2	-0.008273276
126	0x3d4101a0	0.04712069
127	0x3b0b6843	0.0021271862
128	0x3bd92624	0.006626861
129	0xbb998758	-0.0046853237
130	0x3c84b91b	0.016201546
131	0x3ccbe6cb	0.024890324
132	0xbc27dfde	-0.010246245
133	0x3a82daec	0.0009983457
134	0x3c238df8	0.009982578
135	0x3d448d4d	0.047986317
136	0x3b55c75f	0.0032620055
137	0x3c83412a	0.016022284
138	0xbd7d2068	-0.061798483
139	0xbc3e71be	-0.011623798
140	0xbb93c375	-0.0045093843
141	0xbb11390a	-0.0022159242
142	0x3c76656c	0.015038829
143	0x3b0af386	0.002120228
144	0xbcc0d6b2	-0.023539875
145	0x3d499a59	0.049219463
146	0xbc907837	-0.017635448
147	0xbd03550d	-0.032063533
148	0x3c6256c0	0.013814628
149	0x3cf1c99e	0.029515084
150	0x3d011814	0.031517103
151	0xba8dbf33	-0.0010814428
152	0x3bf170ac	0.007368168
153	0xbd1ed6f5	-0.038779218
154	0xbc8d1dd4	-0.017226137
155	0x3d22a834	0.039711192
156	0x3cafa17b	0.021439305
157	0x3ca6186b	0.020275315
158	0xbc30c222	-0.010788472
159	0x3c79704d	0.0152245285
160	0x3bd98463	0.006638096
161	0x3d33e882	0.04392291
162	0xbd1d74ca	-0.038441457
163	0xbc599db1	-0.0132822255
164	0x3cb553e1	0.022134723
165	0xbd0aa987	-0.03385308
166	0xbab182cc	-0.0013543009
167	0xbaec8541	-0.0018045084
168	0x3d66b613	0.056325983
169	0xbc4cca61	-0.012499423
170	0x3c9818aa	0.018566448
171	0x3d383627	0.04497352
172	0xbccb07f3	-0.024784064
173	0x3c6dbc41	0.014510215
174	0x3c7c603d	0.015403804
175	0xbd786d1f	-0.06065094
176	0x3a446229	0.00074914336
177	0x3cd5291b	0.026020577
178	0xbc406e72	-0.011745082
179	0x3b96ff8e	0.004608101
180	0x3bcf4449	0.006325279
181	0x3d3d92d1	0.046282593
182	0x3b3d887b	0.002892046
183	0x3c7797bd	0.015111861
184	0x3b98ec85	0.004666867
185	0xbd89dfdc	-0.06732151
186	0x3c78e0fc	0.015190359
187	0xbd8689e4	-0.06569269
188	0xbbaaa4c5	-0.0052076303
189	0x3d0823a1	0.033237103
190	0xbd8084fc	-0.06275365
191	0x3d025ea1	0.031828526
192	0xbcbfe09a	-0.023422528
193	0x3c3acd90	0.011401549
194	0xbc1861eb	-0.009300689
195	0xbd86ab48	-0.06575638
196	0x3ca81f4f	0.020522742
197	0xbb515885	-0.003194363
198	0xbb8b29be	-0.0042469194
199	0x3c114c19	0.008868241
200	0x3d2c842d	0.04211824
201	0xbd034701	-0.032050136
202	0x3c9f0c34	0.019414999
203	0xbb00cf39	-0.0019654764
204	0xbcd013cc	-0.025400065
205	0xbca622c7	-0.020280255
206	0xbd76c506	-0.06024649
207	0x3ad0c460	0.0015927665
208	0xbc7ba027	-0.0153580075
209	0x3c2a54d7	0.010396204
210	0xbccdd5d8	-0.025126383
211	0xbcb7f949	-0.022457736
212	0x3d016295	0.031588156
213	0x3b1200ce	0.0022278312
214	0xbd2be7d5	-0.04196914
215	0x3ae74759	0.0017645165
216	0x3c32e522	0.010918887
217	0x3c1c7114	0.009548444
218	0xbbb3ccc4	-0.0054870564
219	0xbd17a92c	-0.03702657

logvar_layer.bias f4 [2]
0	0xbc0d20b5	-0.008613755
1	0x3c065813	0.0081997095

decoder.0.weight f4 [110, 2]
0	0xbe8dce4c	-0.27696455
1	0x3ec41449	0.38296726
2	0x3ea69f40	0.32543373
3	0xbec2afb0	-0.38024664
4	0xbecf6c37	-0.4051225
5	0x3f455a1f	0.7709064
6	0x3e646cf8	0.22307193
7	0xbf0467bb	-0.5172078
8	0xbf06eedc	-0.5270822
9	0x3efaffc4	0.4902326
10	0x3f4abfd5	0.7919896
11	0xbcabeac6	-0.020985972
12	0x3dfe8e67	0.12429505
13	0xbdc04a6b	-0.09389194
14	0xbf03a14f	-0.5141801
15	0x3ef12cc5	0.4710447
16	0xbebe0ea5	-0.37120548
17	0x3f3bbc04	0.73333764
18	0xbf34f11e	-0.70680416
19	0x3d3da703	0.046301853
20	0xbd90a044	-0.07061818
21	0x3de44f69	0.11147959
22	0xbed5dbaf	-0.41769168
23	0x3eb1dd6c	0.34739244
24	0x3ee7fddb	0.45310864
25	0x3ea16689	0.3152354
26	0x3ed0d2d7	0.40785858
27	0x3e42c0d9	0.19018878
28	0xbdf0b703	-0.11753657
29	0x3e365ffd	0.17810054
30	0xbdf257b6	-0.11833136
31	0xbf44a6f7	-0.7681727
32	0x3eaccc13	0.33749446
33	0xbf4568eb	-0.7711322
34	0xbdcb4c53	-0.09926667
35	0xbf5a57c1	-0.8529015
36	0xbf08d7dc	-0.53454375
37	0x3e316b05	0.17325981
38	0xbe594197	-0.21216427
39	0x3ee6ee0f	0.451035
40	0xbefc966d	-0.49333516
41	0xbec00536	-0.37503976
42	0xbef2a01d	-0.47387782
43	0xbf05f30a	-0.52323973
44	0x3eec27aa	0.4612401
45	0xbf25b44c	-0.64728236
46	0xbf296fb0	-0.66186047
47	0x3dfcb024	0.12338284
48	0xbea52707	-0.32256338
49	0x3e9bfe56	0.3046748
50	0xbece929d	-0.40346232
51	0x3ee46e93	0.4461561
52	0xbe611ebd	-0.21984382
53	0xbf0bb9c7	-0.5458035
54	0x3ea99e07	0.33128378
55	0x3da86dd1	0.08224071
56	0xbf0186cb	-0.505963
57	0x3f029c64	0.51019883
58	0x3dadd8e4	0.08488634
59	0xbf1d356a	-0.6140963
60	0xbebe3e41	-0.3715687
61	0x3e2aca1e	0.16678664
62	0xbeaacdc2	-0.33360106
63	0xbd825e76	-0.06365673
64	0x3eba6ad9	0.36409643
65	0x3ea2a946	0.3176977
66	0xbf2599c5	-0.6468776
67	0x3d9ab246	0.07553534
68	0xbf0914fd	-0.5354765
69	0xbee3bd85	-0.4448053
70	0xbf0d2b05	-0.5514377
71	0xbec79674	-0.38981974
72	0xbf3556a7	-0.70835346
73	0x3dc74316	0.097295925
74	0x3e0a066c	0.13479012
75	0x3e676725	0.2259794
76	0xbe92fdc2	-0.28709227
77	0x3f06e28b	0.5268943
78	0xbe64988b	-0.22323816
79	0xbe7d1013	-0.24713163
80	0xbf19774b	-0.5994765
81	0x3f2bfd65	0.67183524
82	0x3e70f28e	0.23530027
83	0xbf233ed1	-0.63767725
84	0xbeab06ac	-0.33403528
85	0xbe421108	-0.1895181
86	0xbefbe688	-0.4919932
87	0xbd4ea952	-0.050454445
88	0xbf054185	-0.520531
89	0xbef05309	-0.4693835
90	0xbf10057d	-0.56258374
91	0xbf19ee9e	-0.60129726
92	0xbf3a9d69	-0.7289644
93	0x3dceaf25	0.10092
94	0xbe04a7da	-0.12954655
95	0xbec39fbe	-0.3820781
96	0x3f058ff2	0.5217277
97	0xbf2b1d80	-0.6684189
98	0xbea80550	-0.32816553
99	0xbf1b8b68	-0.6075959
100	0xbf0dfda9	-0.5546518
101	0x3f430a2c	0.76187396
102	0x3eed455c	0.4634198
103	0x3e9126e3	0.2834998
104	0x3eac187c	0.3361243
105	0xbe826ba9	-0.25472763
106	0x3d84792b	0.064684235
107	0xbeeecf05	-0.46642318
108	0x3d8477a8	0.06468135
109	0xbec703eb	-0.38870177
110	0x3f19135f	0.5979518
111	0x3c9d7724	0.01922185
112	0xbe86be3a	-0.26317006
113	0xbe8fb4b4	-0.28067553
114	0x3d48c471	0.049015466
115	0x3f1e49b8	0.61831236
116	0x3e784905	0.24246605
117	0x3eb9c0cb	0.36279902
118	0x3ec6a0a6	0.3879444
119	0xbf40a7cf	-0.75256056
120	0xbf217a2a	-0.6307703
121	0x3ed8d3ef	0.42349193
122	0x3f3ad4b9	0.7298084
123	0xbf51eedb	-0.8200509
124	0x3f3f54d4	0.7473881
125	0x3d3667b4	0.044532493
126	0x3f0fdcd9	0.5619636
127	0xbf011009	-0.5041509
128	0x3ec4db17	0.38448402
129	0xbc85e688	-0.016345277
130	0x3ed30f0c	0.41222417
131	0xbf244613	-0.64169425
132	0x3eeaae01	0.4583588
133	0xbe3a7f75	-0.18212683
134	0x3eba4298	0.36378932
135	0xbef049bf	-0.46931264
136	0xbe56cfcf	-0.2097771
137	0xbdcd0903	-0.100114845
138	0xbea7f797	-0.32806084
139	0xbd4ff016	-0.050766073
140	0x3f0ae9e4	0.5426314
141	0x3edd7290	0.43251467
142	0xbcf5bf5d	-0.029998476
143	0x3d5c5067	0.053787615
144	0xbf0842fa	-0.532272
145	0xbf0a718a	-0.54079497
146	0x3f2bb4b7	0.67072624
147	0xbf23899e	-0.6388186
148	0xbf105117	-0.56373733
149	0xbd99d6c3	-0.07511666
150	0xbe822107	-0.25415823
151	0x3ed3bfab	0.4135717
152	0x3cd14c28	0.02554901
153	0xbf293656	-0.66098535
154	0x3eee5c85	0.46554962
155	0x3f0192ce	0.5061463
156	0x3d61831d	0.05505668
157	0x3eebe75e	0.46074957
158	0xbea006c2	-0.31255156
159	0x3dd66ead	0.104703285
160	0x3e8c3dea	0.27390987
161	0xbd843474	-0.06455317
162	0x3dcdbbe7	0.10045605
163	0x3ea250a2	0.31702143
164	0xbd8c338d	-0.0684577
165	0xbedb84d0	-0.42874765
166	0x3f1d0bc1	0.6134606
167	0x3ed36072	0.4128452
168	0x3f70e226	0.94095075
169	0x3f14422e	0.5791348
170	0xbefed17a	-0.49769193
171	0xbd1b451d	-0.03790771
172	0x3f44a548	0.768147
173	0xbf5c1a98	-0.8597808
174	0x3c02454f	0.007951095
175	0x3e7e585e	0.24838397
176	0xbf10007c	-0.5625074
177	0x3ed291a4	0.4112674
178	0x3ea95118	0.33069682
179	0x3ee504b0	0.4473014
180	0xbeb51df9	-0.3537443
181	0xbe4f851a	-0.20265618
182	0xbf05de4e	-0.52292335
183	0xbda9eb71	-0.0829686
184	0xbc8c448d	-0.017122531
185	0xbd9e64b0	-0.07734048
186	0x3f22c2e7	0.6357865
187	0xbf4ad915	-0.7923749
188	0xbebccde7	-0.3687584
189	0x3d1c0c8b	0.0380979
190	0x3ef77e93	0.48338756
191	0xbec50cda	-0.38486367
192	0xbe2ceb6c	-0.16886681
193	0xbf039757	-0.514028
194	0x3e1f0976	0.15530953
195	0xbec9ab1c	-0.3938836
196	0xbe82ff2b	-0.25585303
197	0xbe6c9730	-0.23104548
198	0x3f1a797a	0.6034161
199	0x3ece68d9	0.40314367
200	0xbf185685	-0.5950702
201	0xbd930ac5	-0.071797885
202	0xbf06fecc	-0.5273254
203	0xbd878bf2	-0.06618489
204	0xbeb63447	-0.3558676
205	0xbf23a31a	-0.6392075
206	0xbf289b3f	-0.65861887
207	0xbf1dbffa	-0.6162106
208	0x3f048f6b	0.5178134
209	0x3f3cbf28	0.7372918
210	0xbf1c58b7	-0.6107287
211	0x3f064b47	0.52458614
212	0x3e513c7f	0.20433234
213	0x3e2000ad	0.15625258
214	0xbf1868e5	-0.59535056
215	0x3e74f097	0.23919903
216	0x3e064270	0.13111281
217	0x3f190b08	0.5978246
218	0xbe9c89d8	-0.30573916
219	0x3ef83f7a	0.4848593

decoder.0.bias f4 [110]
0	0x3ecb8439	0.39749315
1	0xbe9f39be	-0.3109874
2	0x3e5ed32b	0.21760242
3	0xbf306dce	-0.6891755
4	0x3f341191	0.70339304
5	0x3d573dc0	0.052549124
6	0xbd137891	-0.036003653
7	0x3f14e399	0.58159786
8	0x3df87645	0.12131933
9	0x3dc13dfe	0.09435652
10	0x3e2178f8	0.15768802
11	0x3e611ea6	0.21984348
12	0x3f2a89d0	0.66616535
13	0xbed2018f	-0.41016814
14	0xbea6b550	-0.32560205
15	0x3d7b1c5a	0.061306335
16	0x3e1d3979	0.15353955
17	0x3decf4ec	0.11570153
18	0xbf04fa20	-0.5194416
19	0x3e84de28	0.25950742
20	0xbf334999	-0.70034176
21	0x3f347e3d	0.70505124
22	0xbee2da49	-0.44307163
23	0xbe81e4a7	-0.2536976
24	0x3e16d18d	0.14728375
25	0xbf1cc99b	-0.61245126
26	0x3e9a27b4	0.30108416
27	0xbf25889c	-0.64661574
28	0x3d69a8b4	0.057045653
29	0xbec05453	-0.37564334
30	0xbeed4c4b	-0.4634727
31	0x3de0eb3e	0.10982369
32	0x3edf8a93	0.4366041
33	0xbe4e4bc4	-0.2014609
34	0x3e619e7a	0.2203311
35	0x3eda1d4a	0.4260047
36	0x3d2161f4	0.039400056
37	0x3ef51f72	0.47875553
38	0x3e9e6b35	0.30941167
39	0x3e752938	0.23941505
40	0x3e911b00	0.28340912
41	0x3dc81541	0.09769679
42	0x3dc18932	0.09449996
43	0x3dcd442f	0.100227706
44	0xbed256cb	-0.41081843
45	0xbdad8811	-0.08473218
46	0x3e4581af	0.19287752
47	0xbf323869	-0.69617325
48	0x3f205c38	0.62640715
49	0x3d26fc38	0.04076788
50	0x3e07f115	0.13275559
51	0x3f12fec2	0.5741998
52	0xbf1c09ea	-0.6095263
53	0x3f39b539	0.7254215
54	0xbf2c5bd6	-0.6732763
55	0xbf379501	-0.71711737
56	0xbd840e73	-0.064480685
57	0xbe499b58	-0.19688165
58	0xbf11dbae	-0.5697583
59	0xbdc310d2	-0.095246926
60	0x3f0dddee	0.5541676
61	0x3e5ac020	0.21362352
62	0x3dc684d0	0.09693301
63	0xbf018102	-0.50587475
64	0xbf095f31	-0.53660876
65	0x3d83485e	0.06410287
66	0xbea5a5a0	-0.32352924
67	0xbe4de497	-0.20106731
68	0x3f0adeed	0.5424641
69	0xbf25e4f4	-0.6480248
70	0x3f27a4f4	0.65486073
71	0xbec2891b	-0.37995228
72	0x3e9628f7	0.2932813
73	0x3f0f7cba	0.5604969
74	0x3f029064	0.5100157
75	0xbded728b	-0.11594113
76	0x3dac762f	0.08420979
77	0xbea0a7a0	-0.31377888
78	0xbf17d490	-0.5930872
79	0xbe4a8318	-0.19776571
80	0xbebd157e	-0.3693046
81	0x3f0783ac	0.5293529
82	0x3e17b365	0.14814527
83	0xbed1c5cd	-0.40971223
84	0x3dcedda6	0.1010087
85	0x3f270a66	0.6525024
86	0x3e222341	0.15833761
87	0xbe27eb87	-0.1639844
88	0x3ed5b3aa	0.41738635
89	0x3f0d978f	0.55309385
90	0xbec917a9	-0.39275864
91	0xbe3c7c67	-0.1840683
92	0xbf2d0f1f	-0.676012
93	0x3d9caaf4	0.07649794
94	0xbf0c3329	-0.54765564
95	0xbd175586	-0.036946796
96	0xbf1caa9b	-0.61197823
97	0x3f0447dc	0.5167215
98	0xbf1f4939	-0.62221104
99	0x3e456541	0.19276907
100	0xbe82165c	-0.25407684
101	0x3f0838c5	0.53211623
102	0xbe15f63d	-0.14644714
103	0x3f0773c8	0.52911043
104	0x3e8a29b0	0.2698493
105	0x3ef711b7	0.48255703
106	0x3f20a85f	0.62756914
107	0x3dbc6098	0.09198111
108	0x3f28a2dd	0.6587351
109	0x3f349196	0.70534647

decoder.2.weight f4 [221, 110]
0	0x3c979042	0.018501405
1	0xbd051243	-0.03248812
2	0xbd1b9aa5	-0.037989277
3	0xbd89b84b	-0.06724604
4	0x3db1e17f	0.08685588
5	0xbd50b5bc	-0.050954565
6	0xbd994c4c	-0.074852556
7	0xbc023b8d	-0.007948768
8	0x3d9ce5a4	0.07660988
9	0xbd38e277	-0.04513785
10	0x3d4fa9b9	0.05069897
11	0x3dd58d3f	0.10427331
12	0x3d24758e	0.04015117
13	0xbde62b50	-0.1123873
14	0x3d6576e3	0.056021582
15	0x3d25e7ff	0.04050445
16	0x3b04501a	0.0020189346
17	0xbdbc0327	-0.09180289
18	0xbc2d01c1	-0.0105595
19	0x3d778d01	0.060437206
20	0xbdd2f134	-0.10299912
21	0x3df93708	0.121686995
22	0xbda0410d	-0.078249075
23	0xbd830f39	-0.06399388
24	0xbc8f2aed	-0.017476523
25	0x3ceaed3a	0.028677572
26	0xbcf0ca5a	-0.029393364
27	0xbd4967bb	-0.04917119
28	0x3d093216	0.03349503
29	0xbd545669	-0.05184022
30	0xbd7c3e82	-0.06158305
31	0x3de7c99a	0.11317749
32	0x3c8637ee	0.016384091
33	0x3d62205d	0.055206645
34	0x3d4af29a	0.04954777
35	0x3d064781	0.032783035
36	0x3cb98e5f	0.022650896
37	0x3b8430a7	0.00403412
38	0xbc4e2f05	-0.0125844525
39	0x3da562e4	0.080755025
40	0x3dee05ec	0.11622223
41	0xbd72c3d6	-0.059268795
42	0xbd8625a6	-0.065501496
43	0x3d05b8b2	0.032646842
44	0xbda100b1	-0.0786146
45	0x3d08d741	0.033408407
46	0xbd58f788	-0.05297044
47	0x3c3bea7a	0.011469478
48	0xbcbb9e6a	-0.022902686
49	0xbd8aaa67	-0.06770783
50	0x3d9465dd	0.072459914
51	0x3cd5e30b	0.02610924
52	0x3d24f5e1	0.04027355
53	0xbc927d55	-0.017882029
54	0x3d322836	0.04349538
55	0xbd1be802	-0.038063057
56	0xbd490b9b	-0.049083333
57	0xbdaeeaae	-0.08540855
58	0xbd1958d1	-0.037438218
59	0xbdce8183	-0.10083296
60	0xbcb86b35	-0.022512058
61	0xbdc98f4a	-0.09841783
62	0xbdafbf97	-0.08581465
63	0x3cc2129f	0.02369052
64	0x3c62f4c8	0.013852306
65	0xbd0b2f25	-0.033980507
66	0x3d695999	0.056970213
67	0xbdc8ffe6	-0.09814434
68	0x3de0ffea	0.10986312
69	0x3c775d14	0.015097875
70	0x3dc44e51	0.0958525
71	0xbd105c39	-0.0352442
72	0x3d8c5569	0.06852228
73	0xbd99ed16	-0.07515924
74	0x3df8604a	0.12127741
75	0xbd13010c	-0.03588967
76	0xbe159c12	-0.14610317
77	0xbd522b6e	-0.05131095
78	0x3c60ed1a	0.013728404
79	0x3d4982f3	0.04919715
80	0x3d84c02b	0.06481966
81	0xbd7ffd94	-0.06249769
82	0x3b8c263e	0.0042770198
83	0x3d2b3775	0.041800935
84	0xbc3fd46f	-0.011708363
85	0xbd1b03c3	-0.037845384
86	0xbdb76915	-0.0895559
87	0x3c94f9ae	0.018185463
88	0x3d338eb3	0.04383726
89	0x3dd362d8	0.10321587
90	0xbb41f12d	-0.0029593215
91	0xbd98992d	-0.07451091
92	0xbdfc2a38	-0.1231274
93	0x3cb71c85	0.022352466
94	0xbd315239	-0.043291304
95	0xbda3ae43	-0.07992222
96	0xbb3ff4ee	-0.0029290277
97	0x3c7145aa	0.014726082
98	0x3d65d256	0.056108795
99	0x3d85732f	0.0651611
100	0xbd2d159d	-0.04225694
101	0x3df0b985	0.11754135
102	0xbcda92f1	-0.026681395
103	0xbd583e5f	-0.052793857
104	0x3de127b2	0.109938994
105	0x3c04c9b4	0.00810473
106	0x3dc6d706	0.09708981
107	0x3c93ce5d	0.018042738
108	0x3d85ff17	0.06542795
109	0xbc693899	-0.014234685
110	0x3de78485	0.11304573
111	0xbd94d8c7	-0.072679095
112	0xbd261a4e	-0.04055243
113	0xbd6e32be	-0.05815386
114	0x3d1dcbc3	0.0385244
115	0x3be462a2	0.0069697658
116	0x3c884bad	0.016637648
117	0x3dc12af0	0.09432018
118	0x3dc097ef	0.09403979
119	0xbd6b928e	-0.057512812
120	0xbcda6957	-0.026661558
121	0x3dafef08	0.085905135
122	0x3dd55c62	0.10418011
123	0x3c3b029e	0.011414198
124	0x3d6a6906	0.057229064
125	0xbd3c7220	-0.046007276
126	0xbdad68c1	-0.08467246
127	0xbe125adc	-0.14292473
128	0xbdc3673b	-0.09541174
129	0x3d8e1a8b	0.069386564
130	0xbd464f31	-0.048415367
131	0x3be0d6dd	0.006861551
132	0x3d62448d	0.055241156
133	0xbb62cd36	-0.0034607179
134	0x3de2e408	0.1107865
135	0xbd90c965	-0.07069663
136	0x3d227227	0.039659645
137	0x3d80e033	0.062927626
138	0x3dcb74d5	0.09934393
139	0xbc2c9d0e	-0.010535492
140	0x3c9a5730	0.018840402
141	0xbcf702e1	-0.03015274
142	0x3c82699e	0.015919503
143	0xbd9b22aa	-0.07574971
144	0xbd939644	-0.07206395
145	0xbcd80d9b	-0.026373675
146	0x3db35798	0.087569416
147	0xbc84e18d	-0.016220832
148	0x3c860d2e	0.016363706
149	0xbbfedd7d	-0.0077778683
150	0xbd6d848a	-0.057987727
151	0xbceb7c6b	-0.02874585
152	0xbd20c391	-0.039249007
153	0x3d8b427e	0.06799792
154	0x3d88eee8	0.06686193
155	0x3d270e63	0.040785205
156	0x3d99733c	0.07492682
157	0xbdaafa48	-0.083485186
158	0xbd357057	-0.04429659
159	0xbdaaeb8e	-0.0834571
160	0x3ccfedd6	0.025381964
161	0x3b453b1d	0.0030095049
162	0x39c21fb7	0.00037026193
163	0x3d886414	0.066597134
164	0x3d299a27	0.041406777
165	0xbdf49e1c	-0.119442195
166	0xbd5ec204	-0.054384246
167	0xbd2e25d5	-0.04251655
168	0xbd2b77b8	-0.04186222
169	0x3cf8cfe7	0.030372573
170	0xbd6744fa	-0.056462266
171	0xbcfc1719	-0.030772733
172	0xbe27f4b8	-0.16401947
173	0x3d58ab59	0.052897785
174	0xbda6a88d	-0.08137617
175	0x3d04a16f	0.032380518
176	0xbdd8d180	-0.10586834
177	0xbd8f8878	-0.07008451
178	0x3dbe5783	0.09294035
179	0x3d880aee	0.0664271
180	0x3dd0add2	0.101894036
181	0x3d64a6ad	0.055823017
182	0x3dcbcc2c	0.09951052
183	0x3d83d6be	0.06437443
184	0xbd2c13c3	-0.042011034
185	0xbcf48d71	-0.0298526
186	0xbd1d02a6	-0.038332604
187	0xbd9a85ce	-0.075450525
188	0xbdb5cc60	-0.08876872
189	0x3c4acd1d	0.012378004
190	0xbd402fb1	-0.046920482
191	0x3d4a4ecb	0.04939155
192	0x3cd41b8c	0.025892042
193	0xbcefcc37	-0.029272182
194	0xbe1d30d7	-0.15350662
195	0x3d4fb9b4	0.05071421
196	0xbd623d74	-0.055234388
197	0x3d666c19	0.056255434
198	0xbd75f4dc	-0.06004797
199	0xbd5438e7	-0.05181208
200	0x3d8bf762	0.06834294
201	0x3b7bb534	0.0038407566
202	0xbda20b75	-0.079123415
203	0xbe1005d7	-0.14064728
204	0x3be7ceda	0.007074219
205	0x3c9b1f61	0.018935861
206	0xbd4e91a4	-0.050431862
207	0x3c6b1a49	0.014349529
208	0xbd34be8f	-0.044127043
209	0x3da78a7c	0.08180711
210	0xbd012ca6	-0.03153672
211	0x3db01946	0.085985705
212	0xbc9b9716	-0.018992942
213	0x3d9afa91	0.07567323
214	0x3daeb1a4	0.08529976
215	0x3b8ff260	0.004392907
216	0xbcec92a0	-0.02887851
217	0xbb8f121d	-0.004366173
218	0xbad9fd18	-0.0016631214
219	0xbd59362d	-0.05303018
220	0xbdbd5a51	-0.09245742
221	0x3c909eee	0.017653909
222	0xbe75be9f	-0.23998497
223	0x3d054148	0.03253296
224	0xbd1e551e	-0.038655393
225	0x3b0d7c7e	0.0021589096
226	0x3d8e5a66	0.06950836
227	0xbbf81486	-0.007570806
228	0xbe813add	-0.25240222
229	0xbd985fd4	-0.07440153
230	0xbbb2aa19	-0.005452406
231	0xbe0b93e1	-0.1363063
232	0x3d8908bb	0.06691118
233	0xbdedd460	-0.11612773
234	0x3d1e0004	0.038574234
235	0x3e659f5d	0.22424074
236	0x3db7e9cf	0.08980142
237	0x3e2069bc	0.15665334
238	0x3d4a127b	0.04933403
239	0xbe386e4f	-0.1801083
240	0xbd910a91	-0.070820935
241	0x3da81259	0.082066245
242	0x3d86ef59	0.06588621
243	0x3c997c2d	0.01873597
244	0xbd378e73	-0.044813585
245	0x3d524f35	0.05134507
246	0x3e0279bf	0.12741755
247	0x3d0e87ee	0.0347976
248	0xbe4d61d8	-0.20056856
249	0x3d850784	0.06495574
250	0xbdd41545	-0.10355619
251	0x3dd485ed	0.10377107
252	0xbddbba01	-0.10728837
253	0xbdb94835	-0.090469755
254	0x3dd47b48	0.103750765
255	0x3e3238ec	0.17404526
