VAE/basic_vae/model.pth (torch, 987528 bytes, 14 tensors)

encoder.0.weight f4 [221, 442]
00000000: f6a1 c1bc 16ac 443d a547 f9bc f69f 7cbc
00000010: 16f0 f6bc 3aca 00bc d056 f83c 51d9 4c3c
00000020: d899 3b3d 1b70 3e3b c9b1 5c3d 0822 55bc
00000030: 9072 d1bc aadd a4bc 81b9 473d 0734 223c
00000040: bca3 bcbc 07de b83c adf7 0ebd 176f 033d
00000050: 4275 503c e6fd a5bc 4b7b d13c ef44 043d
00000060: 2152 003d fc39 e13c d3c4 363d a60a e0bb
00000070: b11e 823c 21a2 513d f5c6 ebbb 8a04 383d
00000080: 46b5 dfbc fbcb b2bb e758 583d 97f7 9cba
00000090: 7c0a 403d f515 253b 4660 d33c 15d9 3b3c
000000a0: a34a d03b a758 86bc 7262 1ebd 9485 223d
000000b0: 9718 9d3c cd81 1cbd 2392 3bb9 9a52 01bd
000000c0: b33a 103d 65c6 e2bc c388 503c 1a13 943c
000000d0: ed15 b9bc 1bb7 0e3b 7248 1cbc 3423 403c
000000e0: b564 933c 7a42 cb3c aefb 19bc dd0f 80ba
000000f0: dc14 133c 2777 fc3c a07f f3bb 1f60 b03c
00000100: 7526 043d fbf1 233d b36d aebb 71c7 04bd
00000110: 9b50 333d 88b2 9b3c 3191 993c 8e29 253d
00000120: c4ab d53c 57fb 113c 696c 0c3d 9444 8fbb
00000130: 0e68 583c ae3f 6f3b 833e c23b d0b1 503c
00000140: 5a58 083d 138e 29bd a731 ee3b 987b 33bc
00000150: eb7a ee3c 37c4 15bd 82c7 92bc 1f71 12bc
00000160: eaf2 9d3c e4ff 39bc 8992 b43b 1393 ddbc
00000170: b15d 41bb 2198 1a3c c738 f73b 2be8 383d
00000180: 130f 28bd 0f0a 1fbd ba44 28bd 2c0f 223d
00000190: 63d1 223d 50ac bdbc d28c b5b9 aba6 36bd
000001a0: 4a94 313c 1143 36bd 8021 88bc 1a82 9abc
000001b0: c2ef f5bb 6d3f 86bc 44df c13c 3f81 07bd
000001c0: a612 dabc 158c b8bc b600 e0bc 1651 b4bc
000001d0: 1f3a 063d 838c b2bc 419a 17bc 5707 a9bc
000001e0: ca7e e13b e573 aabb 6698 ed3b b9b8 4bbc
000001f0: 308f 88bc aa7b 013c 9816 a2bc 98f6 d23c
00000200: 5bf6 ea3c 1c09 d83c 09f2 44bd 845f dc3c
00000210: 6fab c33c f7ea 21bd 712f 7f3b 9266 083d
00000220: 0a1c b5bc 2bed 2e3d 76ed 14bd cb29 a83a
00000230: efcc c3bb 50fb 44bc 8c9c a03c 5840 0abc
00000240: 082c d8bb 43c0 e6bc fd28 4b3b 6636 c3bc
00000250: ce3c 233c 33ea 8b3c 3988 e7bc ebfc e13c
00000260: 67bd 78bc 1bd3 f4bc 32e4 833c c407 363b
00000270: 4f86 7b3c 9058 8a3c cbc1 77ba 1a0e 51bc
00000280: 7b60 40bc 7048 12bd 9d17 07bc 598f 38bd
00000290: 54ce ff3c b322 cebc 9335 1b3d c129 d7bc
000002a0: 20b4 6fbc 706f 20bd 87c1 adbc b414 98bc
000002b0: dcea 3dbd 45b9 a5bc 0e58 04bd 362d 38bd
000002c0: bbeb c8bc 9329 92bc acfd 98bc 9448 05bc
000002d0: dcad 203c a44b 353b 34dd 203c 1485 89bc
000002e0: 809d 803c a26c e1bc 469e f2bc 9772 59bc
000002f0: 7a94 16bd dcba ea3c c300 c8bb 67a2 0fbc
00000300: a97f fdbc 38c1 2fbd fe11 d93c cc83 d43c
00000310: 1cb1 a13c 11d3 2dbd d3f6 fbbc aaa7 21bd
00000320: 7b02 a1bc f5a2 f53c e93d 193d 6438 1bbc
00000330: 3f06 b3bb bac6 6c3c 34c7 f53c 92b2 223d
00000340: 3d9d d63c 319c 493c 456c 49bd 48ee 37bc
00000350: 278f c9bc a002 35bd 0ac6 093d 7665 6bbc
00000360: 7942 31bd ca45 133d 8274 993b 8d62 df3c
00000370: 2913 7dbb 5898 cf3b 2444 983c a65e 90bb
00000380: 75a5 86bc 8e3d 9e3c a2e5 41bd 76f1 34bc
00000390: 734b 50bd 5c51 acbc f6d2 32bb 8832 f03c
000003a0: fa7f 833c fdcd 9c3c 9ae7 eebc 4293 58bc
000003b0: 41bc 23bd f40d 2abd 42b4 b9bc 5991 f13c
000003c0: 3f29 88bc bb09 0abc fa4c 33bc d59c c6bc
000003d0: b407 4abc 6785 5739 a9a4 e83c a43c 1bbd
000003e0: 1036 ddbb 90f0 233d 1812 10bd 4f1e 15bd
000003f0: e6a5 d13c 7f5a 2f3c 5d1e 11bd b5dd 15bd
-0.0236368 0.048015676 -0.03042967 -0.015418997 -0.030143779 -0.007860715 0.030314833 0.012502984
0.045801014 0.002905852 0.053880487 -0.013008602 -0.025567323 -0.020125229 0.048760895 0.0099001
-0.023027293 0.022566808 -0.03490417 0.032088365 0.012723269 -0.02026267 0.025571486 0.032292303
0.031328324 0.02749347 0.0446213 -0.006837207 0.015883775 0.05118001 -0.0071953484 0.044926204
-0.027308118 -0.0054564453 0.05281916 -0.0011975643 0.046885 0.002519009 0.025802743 0.011465331
0.0063565536 -0.016399695 -0.038668104 0.03967817 0.019176764 -0.038209725 -0.0001788815 -0.031572916
0.03521223 -0.027682493 0.012727919 0.018075515 -0.022593463 0.002177662 -0.009538757 0.011727143
0.017992357 0.024811972 -0.009398384 -0.0009770353 0.008977141 0.030818535 -0.0074309856 0.02153021
0.032263238 0.040025692 -0.0053231358 -0.032416765 0.043778043 0.019006029 0.01874599 0.040322833
0.02608288 0.008910022 0.034283075 -0.004372189 0.013208402 0.0036506462 0.005927862 0.012737706
0.033287384 -0.04139526 0.0072691026 -0.01095476 0.029111346 -0.03656408 -0.017917398 -0.008938103
0.01928087 -0.011352513 0.0055106324 -0.02704767 -0.0029505307 0.009435684 0.00754461 0.045143288
-0.04103 -0.038827952 -0.041081168 0.03956525 0.039750468 -0.023153454 -0.0003462793 -0.04459254
0.0108385775 -0.044497553 -0.016617537 -0.018860865 -0.007505388 -0.016387666 0.023666032 -0.033082243
-0.02662022 -0.022527734 -0.027344089 -0.022011321 0.032770272 -0.021795517 -0.009253086 -0.020633383
0.0068815695 -0.005201804 0.0072508333 -0.012434178 -0.01666984 0.007903019 -0.019786164 0.02575235
0.028681925 0.026371531 -0.048082385 0.026901014 0.023885457 -0.03953072 0.003893819 0.033300944
-0.022108097 0.04270665 -0.036359273 0.0012829838 -0.0059753577 -0.012022808 0.019605897 -0.008438192
-0.006597046 -0.02816785 0.0030999773 -0.02382965 0.009963227 0.017079448 -0.028263198 0.027586421
-0.015181876 -0.02988582 0.016100023 0.0027775625 0.015351846 0.016887933 -0.00094511796 -0.01275971
-0.011741753 -0.035713613 -0.008245376 -0.045058582 0.031226315 -0.02516303 0.03789289 -0.026265027
-0.0146303475 -0.039168775 -0.021210445 -0.01856456 -0.046366557 -0.020229945 -0.032310538 -0.04496499
-0.024526468 -0.01784209 -0.018675648 -0.00813498 0.009807076 0.0027663494 0.009818364 -0.01678709
0.015700102 -0.02751762 -0.029616486 -0.013271949 -0.036762692 0.028653555 -0.0061036064 -0.008766747
-0.030944662 -0.042908877 0.026497837 0.025941752 0.019737773 -0.042437617 -0.030757343 -0.039466538
-0.019654503 0.02998493 0.037412558 -0.009473894 -0.005463391 0.014451677 0.030002214 0.03972108
0.026198024 0.012305305 -0.04917552 -0.011226244 -0.024604393 -0.044191957 0.03363613 -0.014367452
-0.043276284 0.035955228 0.0046830783 0.027268672 -0.0038616157 0.0063352995 0.01858718 -0.004405814
-0.016436318 0.019316461 -0.047338136 -0.011043897 -0.050853204 -0.021034889 -0.0027286387 0.02932097
0.016052235 0.019141192 -0.02916317 -0.013218703 -0.039974455 -0.041517213 -0.022668961 0.029488252
-0.01662123 -0.0084251715 -0.010943646 -0.024244705 -0.012330938 0.00020553694 0.028398829 -0.03789963
-0.0067508295 0.04002434 -0.035173506 -0.036405858 0.025591802 0.010702728 -0.035429347 -0.03658839

encoder.0.bias f4 [221]
00000000: 44d0 0b3d 6619 8e3d c9a0 ecbd 70ba 1bbb
00000010: fcab 7a3d c8f1 3fbd 2721 babd e56e b2bc
00000020: 1e2d 2bba 79f3 40bd 21b6 e7bc 027c 8bbd
00000030: 0d81 efbb 979c 053d 8b37 183d 279e d9bc
00000040: ff9a 943d 9c1d 273c e977 213d f537 e4bd
00000050: cab0 d6bb 6726 02be 569d 903b 4ef1 89bc
00000060: 9828 e23c 1c37 72bd ca44 b33c 205a b53d
00000070: a9ab 023c a8c6 b63d 3256 afb9 8dbe 88bd
00000080: 50b6 00bb 24ed c43c 17cb f63c 890f 77bd
00000090: 8131 38bd 329c cd3d 31fb 313c 8f52 c53d
000000a0: d544 133c 16fd 403d 8365 90bd 760d 233d
000000b0: c91b 883d e26f d73d d995 c53c a56a ecb8
000000c0: a910 b73b 443d c63c 28d2 2a3d 56f9 853d
000000d0: 9f37 48bd 45fa 123d c8a7 b7ba d821 8f3d
000000e0: 1d7b 83bd 7350 69bd 194c e13c 2c74 8b3d
000000f0: d71f 673d 0303 87bd df19 d3bc a162 9ebd
00000100: e213 d83c 6348 933d a6b3 943d 6815 1bbd
00000110: 2a5e b4bd 68e9 563d b1fe 8e3d 1a5a 08bd
00000120: 08d4 08bd 2a8c 953d 0ff2 30bd 56fa 0dbd
00000130: 8471 ebbc ebbd 25bc 9ccf 8e3d 9e10 683d
00000140: 7f89 853d eab8 dfbc 1ecf a53c 669b dbbd
00000150: 65fd b93d 3237 bd3d a2a9 b23b d749 cc3c
00000160: e7e2 163b d4ff 2e3d bc6a 8d3e 98b7 3fbd
00000170: a6b4 0dbc 4312 193a dafc 70bd 24a6 aa3c
00000180: 6a9f a5bd 970a 69bd 45bd 783d 663d abbd
00000190: 1544 6dbc eb61 d03d 6b92 d43d ae92 ac3b
000001a0: cd98 c93d d2f2 e23b d9f2 61bc ff57 d6bd
000001b0: 81fc ae3b aafe 5f3c 5375 fdbc 7571 8a3c
000001c0: 180d c33d 374b 323d 0595 ecbb 4b97 d23d
000001d0: 6802 29bd 107f babd ee40 773c f951 9f3d
000001e0: 5727 f4bd 537d 003d aee7 cd3d dc06 753c
000001f0: b71a 303e 6267 a73b b256 16bd 85e1 8a3d
00000200: 2b8b a93d 08dd 89bd 12aa d13b c6c1 6c3d
00000210: d1ca 5cbc 9611 9fbc c461 44bc 0a72 523c
00000220: 07f4 bf3d 2203 5c3d 9c3d 8d3d 3eff b13c
00000230: f687 9e3d c750 85bd 5b95 70bd 9118 08bd
00000240: 35bb f23d 3b84 93bd 82b7 243d e710 473d
00000250: 92ac d43d 7af1 16bc 7805 ccbd 38c7 79bc
00000260: 69cf 963d b001 ae3c 10d5 b93d c1f1 b9bb
00000270: 306e 923c c28a 6e3d 7f3b 10bb f964 dbbd
00000280: 843a 983d 57a9 293d 5a2d 05bd 1fb1 c6bd
00000290: 4164 2abd 432b 13be 8d6c a53d a4d5 8a3c
000002a0: fb4a 04bd c6b3 783c aaae 52bd 0710 eebc
000002b0: 1be9 e63d 0518 cdbc 9595 773d 7f65 bc3d
000002c0: 0bd0 85bd 7941 85bc 5c86 6f3d 0bc8 3ebe
000002d0: 3200 d2bd 8773 f6bc 8a2a 70bb ca37 31bc
000002e0: 4934 81bc cefb 20bd 62e9 b7bc 607c ee3c
000002f0: 127b 96bb c45d 533d 8469 ba3c 8f43 d6bb
00000300: ea07 41bc 59fb 87bc e64c cdbd ff87 cb3d
00000310: df5b 38bd be5c a43d 4b18 a33d 3cf3 ec3d
00000320: 0ef2 a1bc e889 123d bed6 20bd 84d2 5ebd
00000330: 5f1f bdbd e65a 823a 233f 17bd 4061 903d
00000340: 2df4 353a 5148 063d 6fef 1bbc 9965 1cbc
00000350: 555b 7a3c 99f9 233d 91e2 81bc ae44 d63c
00000360: 6763 e13c 4ada 24bd 5632 08be 65ab 893d
00000370: f674 4bbc
0.034134164 0.06938438 -0.11554105 -0.0023762248 0.061199173 -0.04686144 -0.090883546 -0.021781394
-0.00065298553 -0.047107194 -0.028285088 -0.06810762 -0.007309085 0.03262004 0.037162345 -0.02656467
0.07256126 0.0101999305 0.039420996 -0.111434855 -0.0065518366 -0.12709962 0.004413287 -0.016838696
0.027607247 -0.059134588 0.021883387 0.088550806 0.007975497 0.089246094 -0.00033442822 -0.0667697
-0.0019639917 0.024038859 0.030126138 -0.06031755 -0.044969086 0.100395575 0.010863111 0.096348874
0.008988579 0.04711636 -0.07050612 0.03980776 0.066459246 0.10519387 0.024119304 -0.00011273221
0.005586703 0.024199136 0.041704327 0.06541698 -0.04888117 0.035883207 -0.0014011795 0.06988877
-0.06419966 -0.056961488 0.027502107 0.068092674 0.05642685 -0.06592371 -0.025769172 -0.07733656
0.026376668 0.07191541 0.07260828 -0.03786221 -0.08807023 0.052468687 0.06982172 -0.033289053
-0.033405334 0.07302125 -0.043199595 -0.034662567 -0.028740652 -0.010116081 0.06973192 0.056656472
0.06520366 -0.027309854 0.020240363 -0.10722999 0.09081534 0.09239043 0.0054523507 0.024937553
0.0023023428 0.042724445 0.27620494 -0.046805948 -0.008649027 0.0005839208 -0.058834888 0.020831175
-0.080870464 -0.056894865 0.060727376 -0.0836132 -0.014481564 0.10174926 0.103794895 0.005266509
0.098435976 0.006925919 -0.01379081 -0.10466003 0.0053401594 0.0136715565 -0.030939734 0.016899804
0.09523982 0.04352876 -0.007219913 0.10282763 -0.04126206 -0.091062665 0.015091164 0.07779307
-0.11921566 0.03136952 0.10053955 0.014955249 0.17197691 0.0051087597 -0.036703773 0.06781296
0.08278497 -0.067316115 0.006398448 0.057801984 -0.01347609 -0.019417565 -0.0119862 0.012844572
0.093727164 0.053713925 0.06896517 0.021728154 0.07740776 -0.06509548 -0.058736186 -0.033226553
0.11852113 -0.07202955 0.04021407 0.048600104 0.10384478 -0.009212846 -0.099619806 -0.015245251
0.07363779 0.021241039 0.090738416 -0.0056745713 0.017874807 0.0582378 -0.0022008119 -0.107126184
0.07433036 0.04142126 -0.032513954 -0.09701752 -0.041599516 -0.14371972 0.08077345 0.016947575
-0.03229807 0.01517958 -0.051436104 -0.029060377 0.1127493 -0.025035867 0.060445387 0.09199046
-0.06533822 -0.016266571 0.058477744 -0.18630998 -0.102539435 -0.030084385 -0.003664645 -0.010816524
-0.015772002 -0.03930264 -0.022450153 0.029112041 -0.004592308 0.051603094 0.022755392 -0.0065388153
-0.011781672 -0.016599344 -0.10024433 0.099380486 -0.04500949 0.08025502 0.07963618 0.11569831
-0.019768741 0.03577605 -0.039267294 -0.054399982 -0.09234499 0.0009945303 -0.036925446 0.07049799
0.0006940987 0.03278381 -0.009517535 -0.009545707 0.015280564 0.040032957 -0.015855106 0.026155796
0.027513219 -0.04024724 -0.13300452 0.06722144 -0.012418022

encoder.2.weight f4 [110, 221]
00000000: 459f 6b3d 336d 3bbd e462 1e3d b59d e73c
00000010: cacd 6b3b ff90 8ebd 35c1 38bd 1dc8 3e3d
00000020: 98a2 803d d467 15bd 00f6 963c 89d6 b6bc
00000030: bf2f 013d e471 9a3c 908c 9dbc fa23 b9bc
00000040: 2c6f 0abd b4f8 3dbd 75e5 61bc a14b 093d
00000050: 7e33 0d3d a052 7dbd ad06 23bd bcf8 50bc
00000060: 3da3 35bd f7db a23c 16ce 9138 e89a 8d3c
00000070: 9b6c 4e3d 3605 b93b 994b 47bd 3619 6abd
00000080: e949 a33c 66f7 42bd a93a 7ebd c99f db3c
00000090: aed5 f8bc 3e4f 36bd 8371 e3bc f6f1 903c
000000a0: e723 1cbd 8ee0 1abc f8bc 88bd 5db4 603a
000000b0: 9427 46bd 80f6 7ebc c7e1 293d 12b2 3bbd
000000c0: 9beb 6c3d 888c ccbc 709c 6e3d ff51 6e3d
000000d0: b8cd 023d 05ed 973c de46 433c d0a1 04bd
000000e0: 1015 0b3d a032 d0bc 8459 43bd d1f7 673d
000000f0: c722 5b3d dfe3 12bb 56dd 503d 9e74 513c
00000100: f7a3 12bd 0f2c 87bd 8745 053d 1081 843d
00000110: bbd0 46bd 6e41 00bd eef1 24bd fb0b 16bc
00000120: 6b7a e7bc edd2 d3bb e23b 943c 049c 1abb
00000130: b316 033d c853 76bc 9dd5 bebb 52f9 513d
00000140: 60b0 20bc 39fa ca3a a219 39bd c51d 8a3c
00000150: 5a44 6dbd bda8 73bd db64 693d 3805 093c
00000160: 369b d73c a4fd adbc 9996 093d 1a4d e4bc
00000170: 3f4d 193c 100a f83c 1d48 febc 3892 643d
00000180: 4187 4ebd 01a0 fdbc e85c 7abd ed3f f8bc
00000190: 8d3f 0b3c fb13 49bd d03d 06bd 5585 f0bc
000001a0: 71bd 523d 99b0 de3c fea2 70bd e199 b9bc
000001b0: de7d 11bd e8c2 393d 9483 663d 50b7 32bd
000001c0: b873 ee3c 6a98 88bc 47ef 413d 1169 3f3d
000001d0: 261d 8bbc fdb2 823d a316 89bc 9e78 8cbc
000001e0: ed33 30bd 7a60 553d ccc2 f1bc 35ff d0bc
000001f0: 78d4 7e3d 0fdb 0f3d 0091 493d 26c5 7dbd
00000200: 7ba1 a4bc 85b1 56bd 3b6a 5cbd c560 7a3d
00000210: 00df c63c 67ea c0bb f639 5abd a05f 663d
00000220: b138 17bd 1f4f 83bd cc7d 593b 1956 bfbc
00000230: 569b 27bc 1168 59bc bafe 94bd 199e e4bc
00000240: eb88 893c 58c9 323c 73bf 373d ae31 003d
00000250: 179f 1fbc f855 2dbc 129f 52bd 72be 0e3d
00000260: 3c32 6cbc f4c8 42bc 05da 3abd e9a2 4b3d
00000270: 1819 7cbd 00c7 abbc 3d97 01bc 7ecc 8bbc
00000280: a062 01bd 11bc 14bd 9271 343c f897 273d
00000290: feb7 243c 3e51 1ebd adb8 19bc 388d 103d
000002a0: 5b29 92bc d285 793b 4a1e e7bc 610d afbc
000002b0: 5530 0bbd e4df a4bb 3f57 3abc 979a 0d3d
000002c0: 7741 a1bb edc9 803d 5774 8a3d 3d97 d23c
000002d0: 6acd 783c 438f 2a3c bfae 32bd 42ba 53bd
000002e0: 73bc d7ba 7e83 4abd 2d06 ecbc be98 713c
000002f0: 9db1 1f3c 2c06 8f3c 40fa 0d3d 593d 443d
00000300: 582e 5ebd 3e56 cebc 71e9 703d d3b2 75bd
00000310: e551 b43b b528 04bc 12ed 543d 6918 10bd
00000320: a9c5 62bd cfda 4e3d 5fe0 b53b a911 4bbd
00000330: 48b5 9a3d ebbb 54bd ab91 38bc 5bd8 ebbc
00000340: a986 293d f34c 813b 4973 fabc db76 003d
00000350: ad1a 023c 2570 3fbd d679 0abc a2d0 3bbd
00000360: 6ad7 54bd ee7e 1abd 7f1d 23bd 19d1 7e3d
00000370: c2e4 ecbb 3434 b8b9 cbfc 8c3c 03b6 57bd
00000380: 0cc9 1d3d 0382 533d 2ea8 09bd 136d fabc
00000390: 219a b1bb d71a 8f3b dd16 a7bc 972e 8bbd
000003a0: fb0a 15bd dfe3 bdbc 758f 273d 85a9 443d
000003b0: e79e d23b 9a09 7c3d 6f48 1e3d 1e1a 033d
000003c0: 7379 e53c f778 673d eff3 88bd f23c 2fbd
000003d0: 614b 973b 162d 12bd 8d22 1ebc e1db eebb
000003e0: 0dd0 9d3c bddd 653d dbc2 2fbd 577d 193d
000003f0: fafe f8bc 72c1 56bd e41d 133c 5c63 853d
0.057524938 -0.045758437 0.03866853 0.028273443 0.0035980814 -0.069612496 -0.04510613 0.04657756
0.06281012 -0.03647597 0.018427849 -0.022319095 0.031539675 0.018853135 -0.019232064 -0.022600163
-0.033797428 -0.04637976 -0.013787617 0.03351939 0.034472935 -0.061846375 -0.03980129 -0.012754615
-0.04434513 0.019880278 6.952525e-05 0.01728578 0.050396543 0.005646373 -0.04865608 -0.05715295
0.019932704 -0.04759922 -0.06206766 0.02680959 -0.030375328 -0.044509165 -0.027764088 0.017693501
-0.038120177 -0.009452952 -0.06676668 0.0008571798 -0.04837759 -0.0155617 0.041475084 -0.045824118
0.05784188 -0.024969354 0.05825466 0.058183666 0.03193447 0.018545637 0.0119187515 -0.03238088
0.033955634 -0.025414765 -0.04769279 0.05663282 0.053499963 -0.0022413654 0.050992332 0.012784151
-0.0358009 -0.066002004 0.03253701 0.06469929 -0.048538905 -0.0313124 -0.040269785 -0.00915813
-0.028256616 -0.0064643533 0.01809496 -0.0023591528 0.03200407 -0.015034623 -0.0058238045 0.05126316
-0.009807676 0.0015485949 -0.04519046 0.016859898 -0.057926513 -0.059487093 0.05698095 0.008363061
0.026319128 -0.02123911 0.033590887 -0.027868796 0.009356796 0.030278236 -0.031040246 0.055803508
-0.050421957 -0.030960085 -0.06112376 -0.03030392 0.008499038 -0.04909132 -0.032773793 -0.029360453
0.051450197 0.027183818 -0.05874919 -0.022656383 -0.035520427 0.045351893 0.056277826 -0.04363185
0.029107913 -0.01667424 0.047347333 0.04673106 -0.016981672 0.063817956 -0.016734427 -0.017147359
-0.04301827 0.05209396 -0.029511832 -0.025512317 0.062214345 0.03512102 0.04921055 -0.061955594
-0.020096531 -0.05241539 -0.053812247 0.061127443 0.024276257 -0.005887318 -0.053277932 0.05624354
-0.0369193 -0.064115755 0.0033186553 -0.023356484 -0.010229906 -0.01326944 -0.07275148 -0.027907418
0.01678892 0.010912262 0.044860315 0.03129738 -0.00974252 -0.010579579 -0.051421233 0.03484959
-0.014416274 -0.011888731 -0.045618076 0.04971591 -0.06154737 -0.020968914 -0.007909593 -0.017065283
-0.031588197 -0.036312167 0.011013405 0.040916413 0.010053633 -0.038651697 -0.009382409 0.035290927
-0.017841985 0.0038074148 -0.028212685 -0.021368684 -0.03398164 -0.0050315727 -0.01137334 0.034571256
-0.004921134 0.06288514 0.06760471 0.025706882 0.015185693 0.010410133 -0.043623682 -0.0516913
-0.001645936 -0.049441807 -0.028811539 0.014745889 0.009746936 0.017458998 0.034662485 0.04791007
-0.054243416 -0.025187608 0.058816377 -0.059984993 0.0055029267 -0.008066346 0.0519839 -0.03517953
-0.055364285 0.05050164 0.0055504288 -0.04957739 0.07554108 -0.051937025 -0.011265199 -0.02878969
0.041388188 0.0039459406 -0.03057255 0.03136335 0.00794093 -0.04673781 -0.0084518995 -0.045853265
-0.051963247 -0.037718706 -0.03982305 0.06221113 -0.0072294185 -0.0003513411 0.017210385 -0.052663814
0.03852181 0.05163766 -0.033607654 -0.030569589 -0.005419985 0.004367213 -0.020396644 -0.06795996
-0.036387425 -0.023179946 0.040908296 0.04801323 0.006427634 0.061532594 0.038643297 0.03200733
0.028012013 0.056511845 -0.06687152 -0.04278273 0.00461714 -0.03568753 -0.009651792 -0.007289395
0.019264245 0.05611967 -0.042910438 0.03747305 -0.03039502 -0.052430578 0.008979294 0.06513092

encoder.2.bias f4 [110]
00000000: 7e60 8dbb 1f82 933c a4d5 953c bafd 4e3c
00000010: c41d 8e3d a986 c6bd 145d bebd 3775 733c
00000020: 2210 ab3d 3ae2 9c3c 0be5 973b ac8b 9f3d
00000030: 10c5 86bb d866 823d 3639 afbb b5a6 ed3d
00000040: 2510 653d 541d be3d 5d44 f33c b7d4 6bbd
00000050: d2b9 00bc ef0c 10bd cf6e 9cbc f87c 5c3b
00000060: 6e4e b33d 9441 bb3d 8853 3fbd 83f1 7f3b
00000070: 041c 033e 06b0 29bd f2c1 76bd 10bf 6c3a
00000080: 3ab6 7b3d 2728 cb3c a69f 913d a539 573d
00000090: 7611 b9bd 34a4 9c3d 9982 923d d0f4 383d
000000a0: 76cd 363d 3679 b63b 688d ca3b 936f e03d
000000b0: ec5f 81bd a87e a4bd 9dc3 6fbd 4c0b d83b
000000c0: 8d85 19bd b76a a83d 1cb0 553c a68a b3bb
000000d0: 9328 ab3d 6cf7 a6bc 2060 533c 48a2 b5bd
000000e0: 77a9 c23c 7065 cfbd ffd3 0c3e e25b c6bd
000000f0: 9eae 033d f93d 98bd 954d ed3d efbb ccbc
00000100: bb1e 9c3d f138 d4bd 1c9a dc3d 1d42 bb3c
00000110: c236 7e3c 88be 2c3d fd02 2ebc 801e b43d
00000120: ba1e fe3c 4c72 f63c 99a7 bdbc 0bd1 8ebd
00000130: 51c9 213c 73d9 bcbd c51b b83c 86f0 dcbc
00000140: 9d4a 3e3b 6ec8 a2bc f14c a3bc 87b1 b43d
00000150: c359 b2bd e6f7 5cbd 40c3 503d c3e2 a63d
00000160: 4d95 cbbd 344e 483c 377d ba3c fcd7 10bd
00000170: 3bb4 9cbd 1e40 f4bc 322a b93d 44dc 1dbc
00000180: e083 333d 16f5 9e3c 7f78 afbd f970 b03c
00000190: ea46 d73d 48f1 323d 8bfb ed3d 17e6 6e3c
000001a0: 6f84 b2bd 4116 fa3d e049 0dbd 6827 1bbb
000001b0: fb64 063b f864 9fbd
-0.0043144813 0.018006383 0.018290348 0.012633735 0.06939271 -0.09693653 -0.09295097 0.014859489
0.083526865 0.019150842 0.0046354583 0.07790312 -0.004112847 0.06367272 -0.0053473962 0.116040625
0.0559236 0.09282938 0.029695684 -0.057575908 -0.007856803 -0.035168584 -0.019095806 0.0033643823
0.08755194 0.091433674 -0.04671052 0.0039053864 0.12803656 -0.041427635 -0.060243554 0.0009031156
0.06145308 0.02479942 0.07110529 0.05254521 -0.090365335 0.07648507 0.07153816 0.045155346
0.044629537 0.0055686487 0.0061814077 0.10958781 -0.06317124 -0.0803197 -0.05853616 0.0065931436
-0.03748088 0.08223479 0.013042476 -0.0054791747 0.08357348 -0.020381652 0.012901336 -0.08868843
0.023762448 -0.101267695 0.13752745 -0.09685494 0.03214895 -0.07433695 0.11587063 -0.024991957
0.07623049 -0.10362423 0.107715815 0.022858674 0.015515985 0.042173892 -0.01062083 0.0879488
0.031020511 0.030083798 -0.023151206 -0.069734655 0.009874658 -0.09221163 0.022474179 -0.02697016
0.0029036172 -0.019870963 -0.01993415 0.08822923 -0.08708527 -0.053947352 0.050967455 0.0814872
-0.09940586 0.012225676 0.022764785 -0.03536223 -0.07651564 -0.02981573 0.09041251 -0.009635035
0.043826938 0.019403975 -0.08567905 0.021538245 0.10511573 0.043687135 0.11620244 0.014581225
-0.08716666 0.12211276 -0.03449428 -0.002367461 0.0020506966 -0.0778293

mean_layer.weight f4 [2, 110]
00000000: 12ad a33b af18 20bd e8fd 9d3d de5f 053d
00000010: 789e 7f3d d0c2 e0bd b925 2b3d 4571 49bd
00000020: 9a29 f5ba 0340 573b bd35 8bbd 9163 d6bd
00000030: 10bf 6e3d 85bb 2cbb 3898 51bd 1003 84bd
00000040: f882 903d 7f1a 84bd 05f4 8f3d ac9c 93bd
00000050: 720a a43c 716c b63d b67e 90bd a446 363d
00000060: 56af 2b3d 4c83 4fbb 878c 403d 6144 89bc
00000070: 13ac 74bd 7181 ac3d c7c4 a1bc c056 a13b
00000080: 5aed 9ebd e844 333b e94c 4fbd 20a9 9e3d
00000090: e86b 733d f630 343d 22c4 2f3d a5db e8bc
000000a0: 3de6 61bd a06f 543d 6935 9a3d 5e74 793b
000000b0: 4519 a53c 0372 203d b63e 043d 18cd dd3c
000000c0: 8e3d 7c3d b449 cebd 69da 93bd c921 3f3d
000000d0: 2b4e c6bd 0d36 93bd b161 87bd bbda 7b3d
000000e0: b102 813b 2c98 9d3c e854 b6bd e144 1bbd
000000f0: 462d babd 3134 8d3d fb54 9abd 5062 7fbc
00000100: d767 52bd 56a5 623d 2499 f53b 9a80 4ebd
00000110: 4e1b 213c a850 6b3d 90a8 1cbd 70cd a8bd
00000120: 28e0 173d 55ca 8cbd 1154 97bd dee4 31bd
00000130: 9605 1bbd 31af 243d 2aac 0a3d 6dfd 6c3d
00000140: bed0 483b a824 a4bd f4e6 813c 042b bbbd
00000150: d769 af3c 33af a03d 4afe 3bbc 28a3 98bd
00000160: ad4b 0f3e 0b5c c33d bd9d e9ba aebe b93d
00000170: f0e9 62bd 7134 b3bd b3b3 043c c6bf bfbd
00000180: 4934 dcb9 1bf9 923d 7ddf babc b4fd 22bd
00000190: 6cf8 a63b 017d 12bd caf3 92bd 2a30 b53d
000001a0: 6de5 733d 7bcb cfbd 4925 263d d1f1 883d
000001b0: 9b40 853d 0f21 073c a353 a93b a714 ba3d
000001c0: 62b6 993d 86d3 f2bc 92cc 463d f8b5 63bd
000001d0: 4e54 1f39 aa93 893d bd7f 933d 62b3 b73a
000001e0: b04b 1abd 1a85 7bbd 53d8 073d 5a3b 913d
000001f0: 2896 8dbd d803 d3bc d3bb 913d 3bc0 a03d
00000200: 75b8 853d f6b2 4ebd 6178 4a3c d6d2 ef3c
00000210: 2d4b fdbc f1ea d23c 5470 a33d b0fc 5f3d
00000220: b823 cebc 8314 723d 9daa 2e3c 56ea ddbc
00000230: 197f 9bbc 688b 1e3c ed88 b1bc b959 0b3d
00000240: 51e4 873c 44cf 613d 1eb9 bcbc d320 923d
00000250: 69df 953d 7640 713d ccee e83c dd02 ad3d
00000260: b446 fabc 9ec2 a83c 4b88 04bc c7db 5dbd
00000270: ab8d b3bb 7bd4 943d fc3f 16bc ad2c 96ba
00000280: 59e6 d43c 5581 893d 284d a13d ae0f 25bd
00000290: b0d9 47bd ee5e 8e3c ef48 a33d c13e aabc
000002a0: 1722 02bd 9473 c7bb 9006 b33d 7ba7 823c
000002b0: 6189 283d 2aa4 e6bc f720 e3bb ef1f 613c
000002c0: 0560 bc3d 8862 eabc c6ca 4f3d 6b50 023d
000002d0: d581 5fbd 8224 e53c 63ef 013d 081f 2c3d
000002e0: 3317 20bd 48cf a6bd a4c2 c2bc aa04 e33c
000002f0: 0fdb da3c e1a0 6cbd 64e8 09bc eef7 153d
00000300: 91d6 133d def5 13bc 0384 82bd d325 263c
00000310: 4391 8a3c 8cba 553d ce23 483d 8a39 8a3b
00000320: 70ad 1e3c 5307 92bc 2447 203c e1d3 71bd
00000330: d595 e73c a1af 18bd acd8 ed3b 22c9 633d
00000340: 0bb7 0cbd 570b bc3c f7d8 983d 3949 253c
00000350: 5c72 ac3d 6fe6 163d c759 5ebb ce8a 3bbc
00000360: bee5 173d 4887 0b3c 4675 31bd 4374 783b
0.004994997 -0.03908604 0.077144444 0.03256213 0.062406987 -0.109746575 0.041784022 -0.049180288
-0.0018704415 0.003284455 -0.06797359 -0.104682095 0.05828768 -0.0026356888 -0.051170558 -0.064458966
0.0705623 -0.06450366 0.07028965 -0.07207617 0.020024512 0.08907402 -0.07055418 0.044500962
0.04191526 -0.0031663952 0.047009017 -0.016756238 -0.059734415 0.084231265 -0.019747151 0.0049236715
-0.07760115 0.0027354304 -0.050610457 0.07747102 0.05942908 0.043992005 0.042911656 -0.028425047
-0.055151213 0.051864266 0.075297184 0.0038063745 0.020153651 0.03917123 0.03228637 0.027075335
0.06158214 -0.100726515 -0.07219393 0.04666308 -0.09682878 -0.07188044 -0.0661043 0.061487895
0.0039370884 0.0192376 -0.08902913 -0.037907485 -0.090906665 0.0689472 -0.0753574 -0.015587404
-0.05136856 0.055333458 0.0074950624 -0.050415613 0.00983317 0.057449967 -0.03824669 -0.08242309
0.037079006 -0.06874529 -0.07389081 -0.043431155 -0.037847124 0.040206138 0.033855595 0.057858873
0.0030641998 -0.08014804 0.015857197 -0.09139064 0.021412773 0.078459166 -0.011474201 -0.074529946
0.13993712 0.0953904 -0.0017823499 0.090695724 -0.05539888 -0.08750237 0.008099484 -0.0936275
-0.00042000625 0.07176419 -0.022811646 -0.03979273 0.005095532 -0.035763744 -0.07175405 0.08847077
0.05954497 -0.10146233 0.0405629 0.06686748 0.06506463 0.008247628 0.005167441 0.0908597
0.0750549 -0.029641878 0.048534937 -0.05559346 0.00015194828 0.06717618 0.072020985 0.0014015252
-0.037669837 -0.061406232 0.033165287 0.070913985 -0.06913406 -0.025758669 0.07115903 0.07849165
0.06529323 -0.05046364 0.012357802 0.02927534 -0.030919636 0.025746794 0.07980409 0.05468434
-0.025163516 0.059101593 0.010660795 -0.02708928 -0.018981503 0.009676792 -0.021671737 0.034021113
0.016588362 0.055129305 -0.02303749 0.07135167 0.07318003 0.058899365 0.02843418 0.08447812
-0.030551292 0.020600613 -0.008089135 -0.054164674 -0.0054795346 0.0726709 -0.0091705285 -0.0011457406
0.025988745 0.06714121 0.078760445 -0.040298156 -0.048791587 0.01737925 0.07972895 -0.020781877
-0.03177079 -0.006086776 0.08741486 0.015949002 0.04114664 -0.028154451 -0.00693142 0.013740524
0.09198002 -0.028611436 0.05073049 0.031814974 -0.054567177 0.02797151 0.031722438 0.04202178
-0.039084624 -0.081450045 -0.023774453 0.027712185 0.026715783 -0.057770614 -0.008417223 0.036613397
0.0360933 -0.009030787 -0.063728355 0.010140854 0.01691497 0.052179858 0.04886227 0.004218285
0.009684905 -0.017825758 0.009782586 -0.059039954 0.028269688 -0.037276868 0.0072584953 0.055611737
-0.03435425 0.022954626 0.07463258 0.010088258 0.0842025 0.036840852 -0.0033928023 -0.011446668
0.037084334 0.00851614 -0.04332473 0.0037911094

mean_layer.bias f4 [2]
00000000: e6c6 99bd 9dae 613d
-0.0750864 0.055098165

logvar_layer.weight f4 [2, 110]
00000000: 3a54 0e3d eb3e 67bc df87 0bbd a7a7 85bd
00000010: d8f7 c03c 7c81 3a3c 57c8 99bc 3918 113d
00000020: 3cf3 8a3d de93 78bc fa76 863a 8991 dfbc
00000030: 2cfd 4abc 7f6e 9cbd 0a7e 103d 2b12 8d3c
00000040: 35eb 8d3c ba38 20bd 60e0 abba 6bf6 9dbb
00000050: 892c 46bd 6f87 9d3c 1750 983c 5ca7 a33c
00000060: 63d7 7b3d 7359 7f3d 4ea3 283c 9b96 9cbd
00000070: 6b08 ca3c 8941 77bd a4c4 73bd 9197 3bbd
00000080: 8372 41bd dfae 95bd 8570 8bbd e32d 8abc
00000090: d0ed 113d d98f 873d b27a c4bc 74d5 023c
000000a0: 2838 8e3c b673 87bd e772 273c 7ff5 9fbd
000000b0: 51d5 523d 9f57 c63a b118 44bd 6557 33bd
000000c0: 1295 703d 9aa8 903b f2c9 1c3d 01a6 26bd
000000d0: 9323 eebc 5759 c43c ed57 cb3b 107a 7bbc
000000e0: f392 863d fead 823d 9c2b 86bc b4ec abbb
000000f0: 41a0 523d 113e 60bd 244c eb3c 4d81 803d
00000100: 3476 103b 3d44 523d 557c 133d 84ac 353d
00000110: 703b 84bd 92d9 4dbd 0d35 a6bd 19ec 8d3d
00000120: 2e55 ad3c bd2e 903b 5e7b 04bc 3dc2 52bd
00000130: 00fb b5ba 8f61 e5bb 434e f83c 28bf 6cbd
00000140: b8a2 273c 8d66 493c 66f3 d63c 5a5c 583d
00000150: fd45 3fbb d463 cf3c 53ed a7bd 5252 a9bd
00000160: 02de 673c 5d86 b03c 93fa 81bd fd6d 5e3b
00000170: 71b6 203d 5b6c d53c 84e0 7ebd ae79 653d
00000180: e732 0cbc 6b9c 39bd 3bd0 793c fc74 76bb
00000190: c62b 2a3d 59b3 123d 4cb6 91bd f6bc 1aba
000001a0: d31c 6c3d 9250 abbc 3328 92bb d16a fcbc
000001b0: 60fe 29bd 25f9 103c 24e4 3dbd 5edb e13b
000001c0: ed25 e6bc 5e1c be3b cfa6 0eba b681 ad3c
000001d0: 59b7 583c 5704 c13c b33f af3c 41ea 43bd
000001e0: ba3c 803d 9d14 243c 2ca8 10bd 94b0 513d
000001f0: df8b 8d3d d5a2 bf3a ed5d e9ba 5a35 93bb
00000200: c657 4a3d 1280 893c a783 babc 2cf7 66bb
00000210: e719 133b 0d33 89bb 68d5 ea3b ae71 7cbb
00000220: 538f e63c d82f b93c 2a9c 2dbb 1940 f6bc
00000230: 236a 76ba 5399 ac3c 21a8 b83b 9ba7 c5bc
00000240: dc50 603a 72bd 3e3c 5dfa 4e3d f734 623d
00000250: 5b03 31bb 1a31 8fbd e57d 8bbd c44c 913c
00000260: 9b1a 093c ebe6 65bd ccf4 43bb 3f4e 15bd
00000270: 2585 b6bb 8fd5 993d 0f2f 8cbc 333c 5dbd
00000280: 75c5 923c f644 87bd 6f8f a9bc 3052 0b3d
00000290: 0a90 5ebd e9c5 3f3a 6d8e 0fbc 6454 4d3c
000002a0: 3e8c a5bc 6371 0a3c 5248 373c bc66 2b3d
000002b0: a397 80bb 7a53 8fbc 23b7 86bc f2d2 bb3c
000002c0: 9c1b 8ebc 3952 8dbd e92d 9bbd 82e5 bbbc
000002d0: 5b53 01bd 355b d6bc ee4b 42bd 376d 3dbd
000002e0: d2b8 9c3c ae32 45bd 5ea3 4dbd 00f3 5c3d
000002f0: d690 c7bc 6a83 6abd 8f35 3cbd 2e3f 333d
00000300: b462 37bb cb5b dcbc 265d 1c3d 1e42 1c3b
00000310: 7126 59bd c06e 0e3d 623e 273c f293 6bbd
00000320: 5261 123c a5c2 473c a878 ab3c 71cd 20ba
00000330: 6725 4d3a 8e1a a73c 27b3 24bd a98e 5e3d
00000340: 1078 053d 1bd5 103d f91d 7b3c f171 29bd
00000350: 517d 813d 1e9e 3ebc 6312 dc3c 7b96 c5ba
00000360: e816 c13c ecb4 f13b 2cea 52bd d6a8 9b3c
0.034748293 -0.014114122 -0.034065124 -0.06526118 0.023555681 0.011383411 -0.018772287 0.03542349
0.067846745 -0.015171973 0.0010258846 -0.027291076 -0.012389462 -0.07638263 0.03527645 0.017220577
0.01732407 -0.0391166 -0.0013113134 -0.004820635 -0.048382316 0.019229619 0.018592877 0.019977264
0.061484706 0.062341165 0.010292841 -0.07645913 0.024662217 -0.060365234 -0.059513703 -0.045798842
-0.047228348 -0.07308745 -0.06808571 -0.016867584 0.035627186 0.06619234 -0.023984287 0.0079854615
0.017360762 -0.06613867 0.010220266 -0.078104965 0.051472966 0.0015132314 -0.04787511 -0.043784518
0.058735915 0.00441463 0.038278528 -0.040685657 -0.029069697 0.023968382 0.00620555 -0.015348926
0.06570997 0.063808426 -0.016378216 -0.005246723 0.05142236 -0.05474669 0.02872283 0.06274662
0.002204311 0.05133461 0.036007244 0.044353977 -0.06456649 -0.05025632 -0.081155874 0.06929798
0.02115878 0.004400103 -0.008086054 -0.05145477 -0.0013884008 -0.0070001553 0.030310756 -0.05779949
0.010231666 0.012292516 0.026239108 0.05282245 -0.0029186003 0.025316156 -0.08199563 -0.082676545
0.014152052 0.021548444 -0.06346621 0.003394007 0.03923649 0.026052644 -0.062225834 0.056024246
-0.008557058 -0.045315187 0.0152474 -0.003760635 0.04154565 0.03581557 -0.071148485 -0.0005902791
0.057644676 -0.020912442 -0.0044603585 -0.030812653 -0.041502357 0.008848463 -0.04636015 0.0068926057
-0.028094256 0.0058017215 -0.00054417265 0.021180015 0.013227307 0.02356164 0.021392679 -0.047830824
0.06261583 0.01001468 -0.03531663 0.05119379 0.06911444 0.0014620671 -0.0017804481 -0.004492444
0.049400114 0.016784701 -0.022767855 -0.003524254 0.002244586 -0.004186994 0.0071665533 -0.0038519907
0.028144514 0.022605821 -0.0026490786 -0.030059861 -0.0009399971 0.021069204 0.005635277 -0.024127772
0.0008556971 0.011641847 0.050531734 0.055226292 -0.0027010057 -0.06991787 -0.06811122 0.0177368
0.00836816 -0.056128424 -0.002990055 -0.036451574 -0.0055700713 0.07511436 -0.017112283 -0.05401249
0.01791642 -0.0660495 -0.020698277 0.034013927 -0.054336585 0.00073155627 -0.008761984 0.012532327
-0.020208474 0.008449885 0.011186676 0.041846022 -0.0039243265 -0.01749586 -0.016444748 0.022927735
-0.01734715 -0.06900448 -0.07577116 -0.022936586 -0.031573635 -0.026166538 -0.047435693 -0.046246734
0.019131098 -0.048144035 -0.050204627 0.05394268 -0.024361055 -0.057254232 -0.045949515 0.043761425
-0.0027982416 -0.026899239 0.03817477 0.002384312 -0.053015176 0.03477359 0.010207744 -0.05751414
0.008934336 0.012192403 0.020931557 -0.0006134129 0.0007825703 0.020398404 -0.040209915 0.05433527
0.032585204 0.035359483 0.01532697 -0.04136843 0.0632273 -0.011634378 0.026864236 -0.0015074754
0.023570493 0.007376304 -0.051492855 0.019001406

logvar_layer.bias f4 [2]
00000000: 6e14 f13c e465 e23c
0.029428687 0.027636476

decoder.0.weight f4 [110, 2]
00000000: 4456 d8be a00f 87be 2c9c 11bf a155 a1be
00000010: 7dff e6be e708 133f 8ba5 c9bd 1780 aa3e
00000020: 14c4 03bf 0650 1cbf b4f8 403e 950d 06bf
00000030: cd1f bcbe 79bc 30bf 89e8 41be f511 263f
00000040: 46d4 7fbe 6b22 2b3f 91a2 903e a13c 023f
00000050: bef7 e7be 3e73 d5be e405 fcbe 8fa2 85be
00000060: 9d5e cdbd 6817 1d3f a0ba 2cbd 700c 953c
00000070: 830d 21bf 39dc 853e 11d1 23be 77fe 9abe
00000080: 765a 6c3d a301 473f 5fbd 1b3f 75f2 d9be
00000090: 395a 2fbf beba f33e d6b2 ca3e 9639 c4be
000000a0: 8b48 45be cc4b 5ebf 0db6 373d 566b 0d3f
000000b0: f740 2c3f 0960 4f3c 1a12 23bf e71e 403f
000000c0: d33c aa3d b7f7 623e d6b9 06bf 4196 7e3d
000000d0: ad57 423f e9b2 fa3e 45aa 183e 13a5 e4bd
000000e0: 2c6e 663b 1b55 df3c 5996 743d 859a ac3e
000000f0: 36bc 44bc 23e7 42bf 9ff1 4abf 87b5 4fbf
00000100: 8848 1a3f 0732 51bf 778b ff3e e998 ae3d
00000110: d8fd ad3e dba9 22bf 65b6 26bf 4303 103f
00000120: d470 e53e 0b2f 0a3e a03c 31be aa06 3dbf
00000130: 6fc1 1fbe cc0e fc3d 079b 19bf a699 00be
00000140: ea6c e43e de65 c13e 0d32 d63d 501e a7be
00000150: 2135 21bf 762d 75bc 7333 08be 9f1e b5be
00000160: 1ba7 e0be d836 82be 8650 1abf be21 d7be
00000170: 22ec 3dbf ef8e 21bf 9cc8 1fbf d631 273f
00000180: e8a9 bbbe 67fb 093f a279 043f 416b 033e
00000190: 5baa 12bf d5cf 8e3e 6bff eabe 9c46 62be
000001a0: 08ea f9bd 012e 1ebe b5fc 90be 73d7 3b3f
000001b0: 330b d43e 445d 703c 438e 583e cb8f e8be
000001c0: ea6e e13e b53c 54be 1325 b1bd ec35 883c
000001d0: a893 bb3e 2d31 69be ed26 30bf 085c 2c3f
000001e0: 979a 0f3f 7047 e0be e502 23bf 0811 0a3f
000001f0: 9cea 453e f867 253f 8100 0e3e e9e1 55bf
00000200: ff8c ccbe c9e0 37bf 2b99 01be bb4b 443f
00000210: 4b22 26be 8b99 ca3e c8a7 043f 19fc bdbe
00000220: 8a5b 503f 1321 19bf 90d6 63be d2e4 6d3e
00000230: 54f1 9b3e bfcf 81be bea0 99be ae79 03bf
00000240: 9f3b 1c3f df05 ecbd e5b9 163f 3dfb adbe
00000250: 6c33 e73e 15d2 65be df3f 4bbe f7fc 313d
00000260: 143c 203f 14b6 613e a518 e5be a415 203f
00000270: 739f 6e3e 7216 203f f6f5 493d e336 05bf
00000280: f6ef 0a3f 0905 c43e 4ca9 2cbf f9f4 023f
00000290: 9f3c 5e3e e965 31bf 1442 15bf 1f3e 233f
000002a0: c1de 9fbc 0889 253e 017d fdbd a149 63bf
000002b0: 4472 0fbe 31f4 a7be 290e 28be 2363 c73e
000002c0: 5ac6 c63e f477 303f 2e29 553e 66c1 27bf
000002d0: 1a0b 153f 9d0d 3dbf 6f3b 403d 8fbd 37be
000002e0: ba90 20bf f042 72be cfee 333f 43d4 f23e
000002f0: 53ea b83e 7878 ddbe 35ec 24bf 1308 fc3e
00000300: 3b59 e33e 2acc 303f d49b 94be c170 a5bd
00000310: 078f 243f c1c5 4ebe 244b 2c3f 2cb4 50bf
00000320: f06f 1f3d 668c 28bf 40ee 83be 1bdb 3cbf
00000330: 3776 01bf 7d31 1fbf ea6f d73d f043 ee3e
00000340: 78e0 8ebe 577c 15bf f0b9 28bf e732 423f
00000350: e00d 9b3e 3858 ae3e c53c 2bbf 2a0e 9bbd
00000360: b9a4 bebe 591f ee3d 7880 65be 5275 3cbe
-0.42253315 -0.26379108 -0.56878924 -0.31510642 -0.45116797 0.5743546 -0.09846028 0.3330085
-0.51471066 -0.61059606 0.18844873 -0.52364475 -0.36743012 -0.69037586 -0.18936361 0.6487115
-0.2498332 0.6684939 0.28249028 0.5087376 -0.453062 -0.41689485 -0.49223244 -0.26100585
-0.10027812 0.6136384 -0.042170167 0.018194407 -0.6291124 0.2614458 -0.15997721 -0.30272266
0.057703458 0.7773687 0.6083583 -0.42567793 -0.68497044 0.4760341 0.39589566 -0.38325185
-0.19265954 -0.86834407 0.04485135 0.55241907 0.6728663 0.012657174 -0.63699496 0.75047153
0.083123825 0.22164808 -0.52627313 0.062155012 0.7591503 0.48964623 0.14908703 -0.11164298
0.0035160882 0.027262261 0.059713695 0.3371164 -0.012007764 -0.76133937 -0.79274935 -0.81136364
0.60266924 -0.8171696 0.4991109 0.08525259 0.3398273 -0.6354043 -0.6512206 0.56254977
0.44812644 0.13494508 -0.17308283 -0.73838294 -0.15601133 0.1230751 -0.6000218 -0.12558612
0.44614345 0.3777303 0.10458765 -0.32640314 -0.62971693 -0.014964452 -0.13300876 -0.35374925
-0.4387749 -0.25432467 -0.6027912 -0.4201793 -0.74188435 -0.63108724 -0.6241548 0.6531042
-0.36653066 0.53899235 0.51748097 0.12833883 -0.5729119 0.27892938 -0.45897993 -0.22097248
-0.12202841 -0.15447237 -0.283178 0.73375624 0.41414794 0.014670674 0.21148019 -0.45422205
0.44029933 -0.20726283 -0.086496495 0.016627274 0.3663609 -0.22772665 -0.68809396 0.6732793
0.5609526 -0.43804502 -0.6367629 0.5393224 0.19327778 0.6461177 0.1386738 -0.83547837
-0.3995132 -0.7182737 -0.12656085 0.76678056 -0.16224019 0.3957027 0.51818514 -0.37106398
0.8138968 -0.5981609 -0.22249818 0.2323182 0.30457556 -0.2535381 -0.3000545 -0.51357543
0.61028475 -0.11524557 0.588774 -0.33980742 0.4515642 -0.22443421 -0.19848584 0.043454137
0.6259167 0.22042114 -0.44745365 0.6253302 0.23303013 0.6253425 0.049306832 -0.52036875
0.542724 0.38285092 -0.67445827 0.5115505 0.21702813 -0.6929613 -0.5830395 0.63766664
-0.019515397 0.16165555 -0.12377358 -0.88784224 -0.14008433 -0.3280349 -0.16411652 0.38942823
0.38823205 0.68933034 0.2081649 -0.6552948 0.58220065 -0.738489 0.04693168 -0.17943405
-0.62720835 -0.23658347 0.7028627 0.47427568 0.36116275 -0.43255973 -0.64422923 0.4922491
0.44404015 0.6906153 -0.29025137 -0.08078147 0.6428074 -0.20192625 0.67302155 -0.8152492
0.03892511 -0.6583923 -0.25767708 -0.7377183 -0.50571007 -0.6218489 0.10519393 0.46536207
-0.2790563 -0.5839285 -0.6590872 0.7585892 0.30284023 0.3405168 -0.668896 -0.07571061
-0.37235048 0.11627073 -0.22412288 -0.18404129

decoder.0.bias f4 [110]
00000000: 39d7 bfbe 0be4 05bf 3149 fdbe ed15 683e
00000010: a4aa 2b3f b902 fcbe 0a62 07bf 2ee3 163f
00000020: 6f54 af3e 90a4 f8bd 79e9 06bf a4e8 293f
00000030: fd63 313f 45bd 25be 5edc ba3e d47c 053f
00000040: b13e 333d 4f32 f5be fbee 253d c809 0bbf
00000050: 1f7c 1ebe f118 c0be 372f 173f 103b 043f
00000060: 32c3 02bf 14fc 9ebe dd53 fcbe b87e 17bf
00000070: 7212 db3e 7b22 25bf 57c8 f9bd 516a 483d
00000080: 1693 193f c0e2 29bf 2b36 b73d ddfe 1b3e
00000090: 342f a93e 2e7d 39be 9fd6 423e 0a3d 3a3f
000000a0: e626 2ebf 7097 ddbe ada9 51bc 8c8b 2a3f
000000b0: 50c2 05bf 35f8 7e3e f6fb 11bd 4c21 fdbe
000000c0: 6cf9 0bbf 3f31 06bf 3924 91be 315c 81be
000000d0: 231b 20bf 3447 0c3f 642b 3bbf 90b7 193d
000000e0: d642 d8be f2ab ad3e ed24 00bf 7439 143f
000000f0: 3148 2c3e 0382 613e 2db4 e33e e4b8 de3e
00000100: 3a34 4e3d 47a5 163e dad6 763e 530a 263f
00000110: 6eec 86be 21f1 bb3e 9da0 613d a16c 8c3d
00000120: 40bb c9be 9d11 37bf 6aee c4be d3b0 fe3e
00000130: 84f0 b03e f446 b03d 793a 00bf 572b 4dbe
00000140: 2789 063f 4cfc 81be c97a 34bf d16a 3dbe
00000150: 111b c5be b4a4 2e3e e28d 49be 2759 073f
00000160: 25ac 1cbf 83fc 193f cf1c 193f c392 fabe
00000170: 48c8 04bf 5496 abbe daff debe 0a19 25be
00000180: a9c7 093f c451 5dbe d90d 0dbf 1880 8b3d
00000190: ef77 e9be 8f9e 573d 9af8 09bf ea08 abbd
000001a0: 3bd1 9ebd 017c 6e3e da00 aa3e 618f b23e
000001b0: 1967 5d3e e9c6 f9be
-0.3746889 -0.5230109 -0.49469903 0.22664614 0.6705725 -0.49220827 -0.5288397 0.589404
0.34244105 -0.12140763 -0.527 0.66370606 0.69293195 -0.16185482 0.36496252 0.521436
0.04376096 -0.47889945 0.040511113 -0.543118 -0.15477036 -0.3751903 0.5905642 0.5165262
-0.51079094 -0.31051695 -0.49282733 -0.5917773 0.4278751 -0.6450574 -0.12196415 0.048929516
0.5999006 -0.6636162 0.089458786 0.15233941 0.33043826 -0.18114159 0.19027184 0.7274939
-0.68028104 -0.432796 -0.0127968015 0.6661918 -0.5224962 0.24899371 -0.03564068 -0.49439466
-0.5467746 -0.52418894 -0.28347948 -0.2526565 -0.6254141 0.5479615 -0.73113084 0.037528574
-0.42238492 0.33920246 -0.50056344 0.57900167 0.16824414 0.22022252 0.444734 0.43500435
0.050342776 0.14711486 0.24105397 0.64859504 -0.26352257 0.36707404 0.055084813 0.06856657
-0.39400673 -0.7151125 -0.38463145 0.4974428 0.345585 0.08607283 -0.5008922 -0.20036064
0.5255303 -0.253878 -0.70499855 -0.18497778 -0.38497213 0.17055017 -0.1968303 0.5287041
-0.6120017 0.6015093 0.59809583 -0.48940095 -0.51868105 -0.3351313 -0.43554574 -0.16122833
0.5382028 -0.21613222 -0.55099255 0.06811541 -0.45599315 0.052641448 -0.5389496 -0.083513096
-0.07754751 0.23289491 0.33203775 0.34875014 0.2162136 -0.4878457

decoder.2.weight f4 [221, 110]
00000000: 1ee1 bb3b dfca 5ebd 34c2 503d 3e7b 0c3d
00000010: 21f9 b8bd d837 9a3d 6ee1 4f3d f8e2 043d
00000020: 54fb fcbd 0aeb 43bd fcaa 1cbd aeb9 f1bb
00000030: b6e1 61bd b999 a03c 4558 043d 9f4a 4dbd
00000040: f742 973b b03c b13d 18fe 333c d575 f6bc
00000050: bb34 c53d 8282 bbbd 4b33 6bbd f0f1 24bd
00000060: 33c7 be3d a6e4 973d e2aa d3bc 5465 6fbd
00000070: 2780 533d c0e7 ac3d adda e53d 5c7d eebb
00000080: 811f ec3c f135 a23d 5274 d13c 9cba cb3c
00000090: 4ca7 b23b d35e 1f3d 3429 37bc 4fb7 18bd
000000a0: 82be b7bb a769 8e3d 3414 0bbd 5eed a2bd
000000b0: 5c7c 1e3d 0604 e1bd 7c81 be3d 92e3 00bd
000000c0: fd7a 21bd e1be ae3d b9de d13c 3e5c 71bd
000000d0: b1ec 553d b3ed c1bd de8c 56bd afbd a83d
000000e0: ed33 913d 2e09 5c3b 6921 a1bc f5df 76bd
000000f0: 1f13 043e 78f7 ecba bc4d 8bbb c8f1 973d
00000100: 0fc9 ef3c 97bd 30bd c478 a83c cc51 a5bc
00000110: 3053 00bd 28fe 373b 5e1e 823c 93b6 c13b
00000120: 0509 f3bb 41f1 fb3d 64ad f13d 3a30 bbbd
00000130: a6dc a2bd 78c7 813d 372b 6a3d 4c03 2e3b
00000140: 1f14 57bd 8844 a7bd 8756 2e3c 3cbc 68bc
00000150: 8cb6 35bd c4b2 933d 6c65 a93d 2182 b7bd
00000160: f64e 473d 10e5 43bc 50fc cfbc b1ef c73d
00000170: 61d7 a43c 9850 063d 5280 503d 3af1 4abd
00000180: 19bc 7bbd 41b4 e1bc 4c66 dc3d 05b7 fe3d
00000190: 1636 21bd 5342 8f3c 1047 593d 6081 163b
000001a0: 45a0 c43b a176 b73c 010a 61bc 2e19 c2bc
000001b0: 9868 a9bd 3aa3 c33d b598 babb 414f e6bd
000001c0: eb3e f43b 8b00 e9ba 54cd c93d 6924 c2bd
000001d0: 4861 4d3d 3360 a33d e5e0 3a3d 7741 c1bd
000001e0: 8323 f6bd 6821 d23d e2f5 f03b b9c9 bfbd
000001f0: 4349 9b3c fb9d 723d 5452 0bbd dbb0 bd3c
00000200: 2826 3e3a 01fe 5c3d cf46 7f3b 62c5 1bbd
00000210: 7a1a 693d ae96 a7bc 9cf1 36bb 8c8f 333d
00000220: 5abb bebd 8e7f 9c3b 55e0 78bd ae00 343d
00000230: 7efa 3d3d d55b a4bc 56df 9dbd 2eef 7e3d
00000240: fc1b d5bd f304 643d c31f b03d 1c51 b2bc
00000250: 5087 47bd ec7c b2bc dc92 743d 56c4 9abd
00000260: 15b5 1dbd 448b 9a3d 200a 87bc 647a 8b3c
00000270: 0e7b cfbd 245e 723d 3d32 cebc 1a15 6cbd
00000280: 3e75 10bd a022 5bbd 7010 203d e33a d73d
00000290: f6d3 9cbd 4ee3 d7bd 4eea aeb9 e21f 753c
000002a0: 21d3 c2bc 4da1 83bc 546d ffbd bc13 ca3c
000002b0: b9a5 b43d 562a b23b e4d6 8bbd 0e07 413c
000002c0: 135d f73d 3898 c1bc 55d0 7e3c dcda 883d
000002d0: 310f b1bd 4e31 04bc 54e8 143d 7124 4abd
000002e0: e3c5 263d cbee 8d3b 11a7 953d dd3c 2f3d
000002f0: a368 25bc 8aea e2bd 61cb b53d b70f 3fbd
00000300: 1d9d 9d3c 38cd 873d 2796 75bc 9c13 f33c
00000310: 1bd9 49bd 4dea b23d 4626 6c3d e928 bc3d
00000320: 3762 cbbc fb3c 75bd 52f0 ffbd 71ee c53b
00000330: e027 89bd f165 a43d ae2c 8e3d 1890 e4bd
00000340: a373 7e3b 061f 9fbd 5b8a 3b3c 82a8 aebd
00000350: f790 253d c317 95bb 1bcb 0c3d f20b d23d
00000360: a17e 983c 131a 2e3d f8d6 e93d f1bd b5bb
00000370: 4e54 c33c 7dd0 41bd 203c 243d 8d3c debd
00000380: 21ca 13bd 11fe f93c e38f 04bd cd6c e6bd
00000390: ec3a 0ebd 416d 80bd e367 833c 524b 083a
000003a0: f400 edbc 7de8 c93d e23e 9dbc 00f8 763d
000003b0: 38c7 0a3d 0b2d e43c 9e7b 903d 8415 573d
000003c0: 0e6b b63c 34a0 78bc dfb3 37bb b7ac 62bd
000003d0: b333 ba3d a755 86bd 71e5 fd3d 978e 103c
000003e0: 1297 483d 4b5d e13b 1295 e13c 1d00 323b
000003f0: 77f3 abbd 5e7d 7abc 41c1 b93d 4d55 22bd
0.005733623 -0.05439269 0.050966457 0.03429722 -0.090318926 0.075301826 0.050752096 0.032443017
-0.123526245 -0.047831573 -0.038249 -0.007376871 -0.055146895 0.01960455 0.032310743 -0.050119992
0.004616137 0.08654153 0.010985874 -0.030085484 0.09629198 -0.09155752 -0.057421964 -0.040269792
0.09315338 0.07416658 -0.02583832 -0.058446243 0.051635887 0.0844264 0.1122335 -0.0072781276
0.028823616 0.07920445 0.025568161 0.024869256 0.0054520722 0.03890879 -0.011179257 -0.03728419
-0.005607427 0.06953745 -0.033954814 -0.079554304 0.038692817 -0.109870955 0.09302041 -0.031467028
-0.03942393 0.08532501 0.025618898 -0.05892586 0.05222768 -0.09469166 -0.052380435 0.08239304
0.07089982 0.0033574807 -0.019669252 -0.060272176 0.12897919 -0.0018079123 -0.00425121 0.07419163
0.029270677 -0.043149557 0.020565398 -0.020180605 -0.031329334 0.0028075073 0.01588362 0.005911657
-0.0074168467 0.12301875 0.1180065 -0.09140058 -0.079522416 0.06336874 0.05717012 0.0026552258
-0.052509423 -0.08167368 0.010640747 -0.014205035 -0.044363543 0.07211831 0.08271298 -0.08960367
0.048659287 -0.011956468 -0.025388867 0.097625144 0.020122232 0.032791704 0.050903626 -0.049546458
-0.06145868 -0.027551772 0.10761699 0.12437252 -0.03935822 0.01748768 0.053046286 0.0022965297
0.006000551 0.022395434 -0.013735295 -0.023693647 -0.08271903 0.09552617 -0.0056944736 -0.11245585
0.0074537895 -0.0017776651 0.09853616 -0.09479601 0.050141603 0.07977333 0.045624632 -0.094363146
-0.12018492 0.10260278 0.0073535303 -0.093646474 0.018955832 0.059232693 -0.03401406 0.02315562
0.00072536105 0.053953175 0.0038952117 -0.038030036 0.056910016 -0.020457592 -0.0027915007 0.04383807
-0.09313078 0.004775948 -0.060760815 0.04394596 0.046381466 -0.02006332 -0.077086136 0.06223982
-0.10405728 0.055668782 0.08599808 -0.021767192 -0.04871303 -0.021788083 0.05971037 -0.07556979
-0.03850277 0.07546094 -0.01648432 0.017026134 -0.10130893 0.05917181 -0.02517044 -0.05763731
-0.03526806 -0.053499818 0.039078176 0.105092786 -0.07657616 -0.10541402 -0.00033362437 0.014961215
-0.023782315 -0.016068125 -0.124720246 0.024667613 0.088206716 0.0054371757 -0.068280965 0.011781467
0.120782994 -0.023632154 0.0155526 0.06682369 -0.08645476 -0.008068396 0.036354378 -0.04935116
0.040716063 0.004331445 0.07307256 0.042782653 -0.010095748 -0.11079891 0.08876682 -0.046645846
0.019239957 0.06630939 -0.014989412 0.029672436 -0.049279314 0.087360956 0.057653688 0.091874905
-0.024827106 -0.05987261 -0.12497009 0.0060403873 -0.06697059 0.08027256 0.06942116 -0.11160296
0.003882625 -0.07769589 0.011446561 -0.08528234 0.040421452 -0.0045499518 0.034373384 0.10256185
0.018615069 0.042505335 0.11417955 -0.0055463244 0.02384391 -0.04731797 0.040096402 -0.10851393
-0.036081437 0.030516656 -0.032363784 -0.11251221 -0.03472416 -0.062708385 0.016040748 0.0005199212
-0.028931119 0.09858797 -0.019195024 0.060295105 0.033881396 0.02785351 0.07054828 0.052510753
0.022267845 -0.015174914 -0.0028030796 -0.055340495 0.09091892 -0.06559306 0.12397278 0.008823059
0.048972197 0.0068775765 0.027536903 0.0027160712 -0.083960466 -0.015288679 0.090700634 -0.03963213
